PINN/agPINN.pt (torch, 19315 bytes, 12 tensors)

Nnet.Hidden_layer_1.weight f4 [30, 2]
0	0x3f145dd1	0.5795565
1	0xbecde2ca	-0.4021209
2	0xbd93ef95	-0.07223431
3	0x3ee01268	0.43764043
4	0xbf7a594b	-0.977925
5	0xbe063479	-0.13105954
6	0x3e8db982	0.27680594
7	0xbf31a12b	-0.6938655
8	0xbc96ed39	-0.018423663
9	0xbed17718	-0.40911174
10	0x3f577cbf	0.8417472
11	0x3e02fd7c	0.12792009
12	0x3f2ee049	0.6831098
13	0x3f0c7547	0.5486645
14	0x3eafec08	0.34359765
15	0xbf4b957d	-0.79524976
16	0x3f5fa093	0.8735439
17	0xbf3e498c	-0.74330974
18	0x3eb43bb8	0.35201812
19	0x3ec0320c	0.37538183
20	0x3e0055c3	0.12532715
21	0x3f424a6e	0.7589482
22	0xbeb3224b	-0.349871
23	0xbfb8294a	-1.43876
24	0x3e9d4a30	0.30720663
25	0xbe5809bf	-0.21097468
26	0xbf5901eb	-0.8476855
27	0xbf82923f	-1.0200881
28	0xbef036db	-0.4691685
29	0x3e8a1efe	0.2697677
30	0xbf100dc4	-0.56271005
31	0x3ef93eb7	0.4868066
32	0x3f2074c2	0.6267816
33	0xbef954ac	-0.48697412
34	0x3ea2933e	0.31752962
35	0x3ce9ba9b	0.028531363
36	0x3f15dada	0.58537066
37	0xbcf834fb	-0.0302987
38	0xbf1f4368	-0.6221223
39	0x3f2eec2a	0.6832911
40	0xbf1e7b16	-0.61906564
41	0x3e662410	0.22474694
42	0x3f076428	0.528872
43	0xbf2ac62f	-0.66708654
44	0xbf360a70	-0.71109676
45	0x3eead70e	0.458672
46	0xbf86da1c	-1.0535312
47	0xbf9ea486	-1.2393959
48	0x3efd40c9	0.4946349
49	0xbead59df	-0.3385763
50	0x3f3f51ca	0.74734175
51	0x3df262ba	0.11835237
52	0x3dfcfc40	0.123528
53	0xbedf4346	-0.43606013
54	0x3e72ed3b	0.23723309
55	0xbf677718	-0.904161
56	0xbf2ad492	-0.66730607
57	0xbf72e521	-0.9488087
58	0x3ea73f0b	0.32665285
59	0xbe740060	-0.23828268

Nnet.Hidden_layer_1.bias f4 [30]
0	0x3f2f93d9	0.6858497
1	0x3d1aa2b3	0.03775282
2	0x3f31ddf3	0.6947929
3	0xbeed52f2	-0.46352345
4	0x3e56006b	0.20898597
5	0xbe00a098	-0.12561262
6	0x3f05e4e7	0.523024
7	0x3e81a47d	0.25320807
8	0x3cc827ad	0.024432981
9	0xbf07e373	-0.53081435
10	0xbf29706f	-0.66187185
11	0xbe230b90	-0.1592238
12	0x3eab99ef	0.3351588
13	0xbe52ef64	-0.20599133
14	0xbea893a5	-0.32925144
15	0xbf15913d	-0.5842474
16	0x3f375067	0.7160706
17	0x3f27b06d	0.6550358
18	0xbee5d12f	-0.44886157
19	0xbbd8e312	-0.0066188658
20	0xbd0fa54b	-0.035069745
21	0x3e0df045	0.13861187
22	0xbeee00b0	-0.464849
23	0xbe4b4519	-0.19850577
24	0xbe56c887	-0.20974933
25	0xbf163208	-0.5867009
26	0x3dbf24c0	0.093331814
27	0xbebd4fb5	-0.36974874
28	0xbebb9a42	-0.36641127
29	0xbd7ea614	-0.062170103

Nnet.Hidden_layer_2.weight f4 [30, 30]
0	0xbd53f0cd	-0.051743317
1	0x3d9622df	0.0733087
2	0x3e8959d9	0.2682636
3	0xbde71af3	-0.11284437
4	0x3d08fff6	0.03344723
5	0xbda58bd1	-0.080833085
6	0xbe3d7384	-0.18501097
7	0xbe142d22	-0.14470342
8	0x3df7815c	0.1208522
9	0xbdb5afa5	-0.08871392
10	0xbe09cb1c	-0.13456386
11	0x3e47648c	0.1947195
12	0xbe1dbe01	-0.15404512
13	0x3e58715b	0.21136992
14	0xbe4528fa	-0.19253913
15	0xbe08f248	-0.13373673
16	0x3e010ef4	0.1260336
17	0xbcd388af	-0.025822012
18	0xbe1a569e	-0.15072104
19	0xbe1cf1d1	-0.1532662
20	0x3d4042ab	0.04693858
21	0x3e450826	0.1924139
22	0x3d281888	0.04103902
23	0x3e7a4277	0.24439417
24	0xbe344383	-0.17603879
25	0xbe57ada4	-0.21062332
26	0xbdc045a4	-0.09388283
27	0xbcc3adb4	-0.023886539
28	0x3d876dd6	0.066127464
29	0xbd2019a5	-0.039086957
30	0x3c5dd8c7	0.013540453
31	0xbd59f730	-0.053214252
32	0xbde325f1	-0.11091221
33	0x3bf2f05d	0.0074139074
34	0xbe161af4	-0.1465872
35	0xbde051fc	-0.10953137
36	0x3df57201	0.11984635
37	0xbe62a712	-0.22134045
38	0x3d0aa674	0.03385015
39	0x3ec67fde	0.3876943
40	0x3e84bbbe	0.25924486
41	0x3d7ce01b	0.06173716
42	0xbd9b0c69	-0.075707264
43	0xbdd87fd3	-0.105712555
44	0x3d8abdeb	0.06774505
45	0x3e225c83	0.15855603
46	0x3dbe0558	0.09278363
47	0x3c92a516	0.017900985
48	0x3e60f6b5	0.21969111
49	0x3d19f572	0.03758759
50	0xbdcecde2	-0.10097863
51	0xbe3df3a5	-0.18549974
52	0xbdb31067	-0.08743363
53	0x3cc65016	0.02420811
54	0xbe74ee64	-0.23919064
55	0x3e3da568	0.18520129
56	0xbeae0dff	-0.33995053
57	0xbdd6c506	-0.10486798
58	0x3db8b4e0	0.09018874
59	0xbd741159	-0.059586857
60	0xbdcbe183	-0.09955122
61	0x3d728dac	0.05921714
62	0xbe6d7fcb	-0.2319328
63	0x3dead7d9	0.11466951
64	0xbed20b1d	-0.41024104
65	0x3ea12569	0.31473854
66	0xbc6782b7	-0.014130286
67	0xbed994f3	-0.42496452
68	0x3cac2ad8	0.021016523
69	0x3f397695	0.72446567
70	0x3eed3ec6	0.46336955
71	0xbe3b3390	-0.18281388
72	0x3d944d7d	0.07241342
73	0xbda78e2a	-0.081814125
74	0x3c870650	0.016482502
75	0x3d86eee3	0.06588533
76	0x3db54fc3	0.08853104
77	0xbdbc149c	-0.091836184
78	0x3dd94b20	0.10610032
79	0x3d9e8ccf	0.07741701
80	0xbeaa696a	-0.3328355
81	0xbeabc0f9	-0.33545664
82	0x3ddd1576	0.10795109
83	0xbdaa88d9	-0.08326883
84	0x3e267a88	0.1625768
85	0x3eb5fec0	0.3554592
86	0xbe34a820	-0.1764226
87	0xbd59f728	-0.053214222
88	0x3e016006	0.12634286
89	0xbd3066c0	-0.04306674
90	0xbde61c11	-0.11235822
91	0xbd211f6f	-0.039336618
92	0xbceaf8cb	-0.028683087
93	0x3deb144a	0.11478479
94	0x3cb80dcf	0.022467522
95	0x3d447556	0.047963463
96	0xbd5e2043	-0.054229986
97	0xbd149b35	-0.03628083
98	0x3dcde8a1	0.10054136
99	0xbe24c2aa	-0.16089883
100	0x3dcd4bcd	0.100242235
101	0x3e1d1dc1	0.15343381
102	0xbe1a40cc	-0.1506378
103	0xbe14e322	-0.1453977
104	0xbdf4bf64	-0.11950567
105	0x3e3848ba	0.17996493
106	0xbdbd92d3	-0.0925652
107	0x3e3ab9c8	0.18234932
108	0x3e12c361	0.14332344
109	0xbd8d6bf5	-0.06905357
110	0xbd6e7cc9	-0.058224473
111	0x3e33225b	0.17493574
112	0xbcfc3026	-0.030784678
113	0xbde09373	-0.10965624
114	0x3d915a32	0.070972815
115	0xbe34d698	-0.17659986
116	0x3da8c3cd	0.08240471
117	0x3de738d7	0.11290138
118	0xbe055c4f	-0.13023494
119	0x3c23a08b	0.009987007
120	0xbe03a714	-0.12856704
121	0xbc999a94	-0.018750466
122	0x3e1d659c	0.15370792
123	0xba93b474	-0.0011268989
124	0xbdd64ba5	-0.10463647
125	0xbd34d54d	-0.044148732
126	0xbe2c66d3	-0.168361
127	0x3db78e1c	0.08962652
128	0x3ab79a69	0.001400781
129	0xbd61a5f6	-0.055089913
130	0xbe2654f3	-0.16243343
131	0x3e5bc933	0.2146347
132	0xbe4310bd	-0.19049354
133	0x3d841331	0.06448973
134	0xbdfd6bdd	-0.12374089
135	0xbe06d719	-0.1316799
136	0x3d06bd54	0.0328954
137	0x3dee1fde	0.11627172
138	0xbd15f31b	-0.036608797
139	0x3e8b289a	0.27179414
140	0x3d601369	0.05470601
141	0xbe3bb518	-0.183308
142	0x3d9aa6a0	0.075513124
143	0x3d916ad4	0.07100454
144	0xbdd88f27	-0.10574179
145	0xbdc06f58	-0.09396237
146	0xbe5cf7e3	-0.21578936
147	0xbd54e3f1	-0.051975194
148	0x3e69f48d	0.22847195
149	0xbc94fa6e	-0.01818582
150	0x3e1bcc05	0.15214546
151	0xbd0eedc1	-0.03489471
152	0x3de9eaea	0.114217594
153	0x3d88b2c3	0.06674721
154	0x3e0a149c	0.13484424
155	0x3d1ab01f	0.03776562
156	0xbd8e4d5f	-0.06948351
157	0x3ec16830	0.377748
158	0x3c854a36	0.016270738
159	0xbdd76a1b	-0.10518285
160	0xbc221927	-0.009893692
161	0x3a35a18a	0.0006928673
162	0xbdd69c27	-0.104790024
163	0xbd8d128c	-0.06888303
164	0x3d79d6ee	0.06099599
165	0xbd8c7337	-0.06857913
166	0x3e025ab9	0.1272992
167	0xbe1f4de6	-0.1555706
168	0x3e4a6fd7	0.19769226
169	0xbe4eca35	-0.20194323
170	0x3d71a8d3	0.058998894
171	0x3df38743	0.118910335
172	0x3d891f6a	0.06695445
173	0xbe546a40	-0.20743656
174	0x3e101e7d	0.1407413
175	0x3d9b8bc4	0.075950176
176	0x3e8a8368	0.2705338
177	0xbe02b868	-0.12765658
178	0x3dfa009d	0.12207148
179	0x3e8b142c	0.27163827
180	0x3cfc0695	0.030764857
181	0xbe6a6825	-0.2289129
182	0x3ed771dd	0.42079058
183	0x3cd364ec	0.02580496
184	0x3e9dfa5b	0.3085507
185	0xbedc8926	-0.43073386
186	0xbdc7e9e3	-0.09761407
187	0x3e249006	0.16070566
188	0xbe73a4ca	-0.23793331
189	0xbe7ecf9b	-0.24883883
190	0xbe138fbe	-0.14410302
191	0x3e1e71ce	0.154731
192	0xbe025621	-0.12728168
193	0x3e393c36	0.18089375
194	0x3e25e43a	0.16200343
195	0x3dc5c80d	0.09657297
196	0xbe3bb4f2	-0.18330744
197	0xbe046867	-0.12930451
198	0xbe03dc36	-0.12876973
199	0x3dd17a74	0.10228434
200	0xbcf590cf	-0.029976277
201	0xbe0ede7b	-0.13952057
202	0xbdac6c35	-0.08419076
203	0x3dab1c97	0.083550625
204	0x3d043b86	0.03228333
205	0x3d8bee96	0.06832616
206	0x3e98189d	0.29706278
207	0x3e5e204c	0.21692008
208	0x3dd21d04	0.102594405
209	0xbd54c1f9	-0.0519428
210	0x3e218ccd	0.15776367
211	0xbdfc29a3	-0.12312629
212	0xbd1a2842	-0.03763605
213	0x3d752c6b	0.059856813
214	0xbd6823bd	-0.056674708
215	0xbd53ccca	-0.051708974
216	0xbe0514ba	-0.12996188
217	0x3e567490	0.20942903
218	0x3e664040	0.22485447
219	0x3e780a95	0.24222787
220	0x3dd0bd74	0.10192385
221	0xbd11d137	-0.035599913
222	0x3d80b8ad	0.06285224
223	0xbdcdb6f6	-0.10044663
224	0x3df5213d	0.1196923
225	0x3ce2099e	0.027592476
226	0x3e225532	0.15852812
227	0x3dde8f9f	0.10867237
228	0x3e8750d7	0.26428863
229	0xbe2610f1	-0.162174
230	0xbd98e370	-0.07465255
231	0x3dd70508	0.104990065
232	0xbdd89ff2	-0.10577382
233	0x3e2b5800	0.16732788
234	0x3d899efc	0.06719777
235	0x3e4c2dd9	0.19939364
236	0xbdbd01e4	-0.09228876
237	0x3de4333b	0.11142584
238	0x3e52ff00	0.20605087
239	0x3dd66303	0.10468104
240	0xbd8012be	-0.06253575
241	0x3d8480fc	0.06469914
242	0x3ecca783	0.3997155
243	0xbe19aff4	-0.15008527
244	0x3d408988	0.04700616
245	0xbd18f150	-0.03733951
246	0x3bc1ed58	0.005918186
247	0xbf223e76	-0.6337656
248	0xbf36c6a7	-0.7139687
249	0xbf0a2efa	-0.5397793
250	0xbe449f57	-0.19201408
251	0xbec90bdd	-0.39266863
252	0xbdfb471b	-0.12269422
253	0xbeb4d8ea	-0.35321742
254	0x3cc64f3e	0.024207707
255	0x3ddc1b91	0.107474454

Nnet.Hidden_layer_2.bias f4 [30]
0	0x3d2cfced	0.042233396
1	0xbe0351b3	-0.12824135
2	0xbe7a0228	-0.24414885
3	0xbda0abaa	-0.07845242
4	0x3daf8d95	0.085719265
5	0x3b2e8d0a	0.0026634359
6	0x3e1851ab	0.14874904
7	0x3dab8ca3	0.08376434
8	0xbd4146b0	-0.047186553
9	0xbd7ffd11	-0.062497202
10	0x3e24a1b5	0.16077311
11	0xbdf0e3c3	-0.11762192
12	0xbd8c026c	-0.068363994
13	0x3e0a78e7	0.13522683
14	0x3e184b9d	0.14872594
15	0xbdbd5cf3	-0.09246244
16	0xbe114ac2	-0.14188674
17	0xbdbe3af4	-0.09288588
18	0x3df907ef	0.12159716
19	0xbc3b86e7	-0.011445737
20	0x3d56a8f6	0.052407227
21	0x3d5537d7	0.052055206
22	0xbe169fd6	-0.1470941
23	0x3d367719	0.044547174
24	0x3c49492a	0.01228551
25	0x3d6a6c13	0.057231974
26	0xbe01d2c8	-0.12678063
27	0x3e1abc32	0.15110853
28	0xbe2cb7df	-0.16867016
29	0x3e391812	0.18075588

Nnet.Hidden_layer_3.weight f4 [30, 30]
0	0xbe1044d3	-0.14088754
1	0x3dc238aa	0.09483464
2	0x3e4e3ebd	0.2014112
3	0x3e347a18	0.176247
4	0xbe70a63d	-0.23500915
5	0x3e78eab7	0.24308287
6	0x3cf00a7b	0.029301872
7	0x3dd0ae5a	0.10189505
8	0xbdba1c0e	-0.09087382
9	0x3dca5caa	0.098809555
10	0xbe061214	-0.13092834
11	0x3e1799e6	0.14804801
12	0x3e236eb3	0.15960197
13	0xbdff630e	-0.12470065
14	0x3e077fbe	0.13232324
15	0xbea28b34	-0.3174683
16	0x3d48d6bf	0.049032923
17	0x3db7fa49	0.08983285
18	0x3e496920	0.19669008
19	0xbc4f2726	-0.012643611
20	0x3db93377	0.09043019
21	0x3e2daea3	0.1696115
22	0xbe436c3e	-0.1908426
23	0xbe900345	-0.28127494
24	0xbe6d8ef0	-0.23199058
25	0xbe1153de	-0.14192149
26	0x3db331af	0.08749711
27	0xbe2e7ac2	-0.17039016
28	0x3e485f17	0.19567524
29	0xbb93f610	-0.004515417
30	0x3d51e2e8	0.051241785
31	0xbdb0ffa7	-0.08642512
32	0xbe09369a	-0.13399735
33	0xbd8a78e2	-0.06761338
34	0x3e29570a	0.16537109
35	0xbd72afa1	-0.059249524
36	0x3b85faa3	0.004088716
37	0x3d447603	0.047964107
38	0xbe8a7b34	-0.27047122
39	0x3ccc60c9	0.024948495
40	0xbdfa3e19	-0.122188754
41	0xbe67a7e1	-0.22622634
42	0xbddd8011	-0.10815442
43	0xbe01de4a	-0.12682453
44	0xbe52b803	-0.20578007
45	0x3e7e6904	0.24844748
46	0x3d8facac	0.070153564
47	0xbd22f77a	-0.039786793
48	0xbe634862	-0.2219558
49	0x3e34bcf9	0.17650212
50	0x3e490b78	0.19633281
51	0xbe521c2a	-0.20518556
52	0x3dca2cc9	0.09871823
53	0x3d550906	0.05201056
54	0x3c826415	0.015916863
55	0x3dd10136	0.10205309
56	0xbe1d1ae2	-0.15342286
57	0x3c830d99	0.015997695
58	0xbe0ad479	-0.13557614
59	0x3db0751a	0.08616085
60	0x3f2ceefb	0.67552155
61	0xbe8a0730	-0.2695861
62	0xbe1e7988	-0.15476048
63	0xbe963b4a	-0.2934211
64	0x3eb20d24	0.3477565
65	0xbd985e28	-0.07439834
66	0x3f041dab	0.5160777
67	0xbd36f74d	-0.04466944
68	0xbdab15b6	-0.083537504
69	0xbe4e6e31	-0.20159222
70	0x3f188d3d	0.5959051
71	0xbe38d195	-0.18048699
72	0xbf72babd	-0.9481619
73	0x3ec0dbec	0.37667787
74	0xbe2f340d	-0.171097
75	0x3e8e609f	0.2780809
76	0xbee7aadf	-0.45247552
77	0x3dc6f79b	0.09715196
78	0xbecced8c	-0.40024984
79	0x3d2765ac	0.040868446
80	0x3ecc6171	0.39918092
81	0xbe0fcdfa	-0.14043418
82	0xbd94531a	-0.07242413
83	0x3ebd9add	0.37032214
84	0x3e5b28a1	0.21402217
85	0xbe3a8381	-0.18214227
86	0x3d7a66a5	0.061133046
87	0xbeb94848	-0.3618796
88	0xbe6a2c60	-0.2286849
89	0xbe05941f	-0.13044785
90	0x3e548b4a	0.2075626
91	0x3e0e68aa	0.13907114
92	0xbe47bb12	-0.19504955
93	0xbd83fd47	-0.06444793
94	0x3e3906fc	0.1806907
95	0x3df29fb1	0.11846865
96	0x3dfaa20c	0.12237939
97	0xbdae4f5d	-0.08511231
98	0x3e835381	0.25649646
99	0xbbb6c325	-0.0055774623
100	0x3e099733	0.13436584
101	0x3cf0bf55	0.02938811
102	0x3dbcabce	0.09212457
103	0xbdb95210	-0.09048855
104	0x3e0ceaad	0.13761397
105	0x3df80acd	0.12111435
106	0x3d7c3892	0.061577387
107	0x3da7ca5e	0.08192895
108	0xbda10e51	-0.07864059
109	0xbdd43cc5	-0.10363153
110	0xbdf17e6f	-0.117916934
111	0xbe1d3277	-0.15351282
112	0xbc3624ca	-0.01111717
113	0x3e1aef2a	0.15130296
114	0x3e4b3b12	0.19846752
115	0x3d85bb7a	0.06529899
116	0x3d52b49e	0.05144178
117	0xbd599741	-0.053122763
118	0xbe22e5e9	-0.15908016
119	0x3c520f51	0.0128210345
120	0xbc6d3e65	-0.014480208
121	0x3e22f159	0.1591238
122	0xbde3a2f3	-0.111150645
123	0x3e331ddf	0.17491864
124	0xbd95ccda	-0.07314463
125	0xbde88baf	-0.113547675
126	0x3c58b6eb	0.013227205
127	0xbd532b35	-0.051554877
128	0x3e4b03be	0.19825646
129	0x3d108d5a	0.035291053
130	0x3dc18dcc	0.09450874
131	0xbe2373e5	-0.15962179
132	0x3d06a2e6	0.032870196
133	0xbe3c4482	-0.18385509
134	0xbdadf368	-0.08493692
135	0x3e574a9f	0.2102456
136	0xbe11f840	-0.14254856
137	0x3d8b440b	0.068000875
138	0xbe8bdaed	-0.27315465
139	0xbd0b7d63	-0.034055125
140	0xbcca04fd	-0.024660582
141	0xbc6797c7	-0.014135308
142	0xbcb3d460	-0.021951854
143	0x3c12c069	0.008957007
144	0x3e323bfa	0.17405692
145	0xbe0cf957	-0.1376699
146	0x3e62ab94	0.22135764
147	0xbdedc42d	-0.11609683
148	0x3bb21ac8	0.0054353215
149	0x3dce93b5	0.10086767
150	0xbd9b1868	-0.075730145
151	0xbcf95552	-0.030436192
152	0xbe75ce7b	-0.24004547
153	0x3e062a1b	0.13102
154	0x3e8c80a7	0.27441904
155	0x3d8ae3db	0.06781741
156	0x3e826046	0.25464076
157	0xbe199f4e	-0.15002176
158	0xbc601b57	-0.013678393
159	0x3d762483	0.060093414
160	0x3eb47974	0.3524891
161	0xbeb0047f	-0.3437843
162	0x3d65d589	0.056111846
163	0xbe0d7af3	-0.13816433
164	0xbba63503	-0.0050722375
165	0x3e1c4cee	0.15263721
166	0xbe6db578	-0.23213756
167	0xbe2233d9	-0.15840091
168	0xbe93d1c5	-0.2887098
169	0x3e112d90	0.14177537
170	0xbddee61a	-0.10883732
171	0xbe4131a5	-0.18866594
172	0x3e9934d5	0.2992312
173	0x3e17f081	0.14837839
174	0x3e3a5047	0.18194686
175	0x3de4b69c	0.111676425
176	0x3e84fb49	0.25972965
177	0x3deb0834	0.11476174
178	0x3e3206b0	0.17385364
179	0xbe7e8555	-0.2485555
180	0x3d6d4f38	0.057936877
181	0xbe48ecfe	-0.19621655
182	0x3c8188b3	0.015812254
183	0x3e251538	0.16121376
184	0x3db7f520	0.08982301
185	0xbde79d55	-0.113093056
186	0x3da246c3	0.07923653
187	0x3dcec63d	0.10096405
188	0x3df1737c	0.11789605
189	0xbd07569c	-0.03304158
190	0x3d0bf890	0.034172595
191	0xbe86128f	-0.26186034
192	0xbdd5a251	-0.1043135
193	0x3d28bee6	0.04119768
194	0x3dc42407	0.09577184
195	0xbdb76653	-0.08955064
196	0xba86918f	-0.0010266769
197	0x3df953c7	0.121741824
198	0x3e5759e6	0.21030387
199	0x3e19132a	0.14948717
200	0xbdb6b302	-0.08920862
201	0xbd43c293	-0.047792982
202	0x3d811904	0.063035995
203	0x3db2b198	0.087252796
204	0x3dc642c2	0.09680702
205	0xbd58bf62	-0.052916892
206	0x3d0ff2ed	0.03514378
207	0x3dece0c9	0.11566312
208	0x3e41592a	0.1888167
209	0xbe281484	-0.16414076
210	0x3e3ddd38	0.1854142
211	0x3bd0a86d	0.006367734
212	0xbeb72e2d	-0.35777417
213	0x3c33caea	0.010973671
214	0x3e5b16cd	0.21395417
215	0x3dba0a95	0.090840496
216	0xbdf9ebef	-0.12203204
217	0xbe14648a	-0.14491478
218	0x3e68227e	0.22669408
219	0x3daf1485	0.08548836
220	0x3eb7dcf8	0.35910773
221	0xbe65989c	-0.22421497
222	0xbe1afaed	-0.15134783
223	0x3e0e33e6	0.13886985
224	0x3d8a6140	0.0675683
225	0x3dde5181	0.108553894
226	0x3d7424ef	0.059605535
227	0xbe07cdf3	-0.13262157
228	0xbe7ad3d9	-0.24494876
229	0x3e0e6cb2	0.13908651
230	0x3d7cca21	0.061716203
231	0xbe427b57	-0.18992363
232	0x3d57aef7	0.052657094
233	0x3e7c972c	0.24667042
234	0x3e1dfb50	0.154279
235	0x3c98d5bf	0.01865661
236	0x3cd39a05	0.025830278
237	0x3b0d3cb5	0.0021551077
238	0x3dc46fd9	0.09591646
239	0xbd92ffb4	-0.07177678
240	0x3e8f374f	0.27971885
241	0xbdb168dc	-0.086625785
242	0xbde2c92a	-0.11073525
243	0xbe3b3dbf	-0.18285273
244	0x3e426d1f	0.18986939
245	0x3b96f4cb	0.0046068183
246	0x3e765a90	0.24057984
247	0x3e9bd464	0.3043548
248	0xbed2e0f6	-0.41187257
249	0x3daa7ad9	0.083242126
250	0x3b7ded81	0.00387463
251	0x3e8d48ed	0.275947
252	0xbe53b6c3	-0.20675187
253	0xbd70fbb6	-0.0588338
254	0xbe7b5912	-0.24545696
255	0xbce7a154	-0.02827517

Nnet.Hidden_layer_3.bias f4 [30]
0	0x3d72e7f0	0.059303224
1	0xbddbfd2d	-0.10741649
2	0x3d404a7a	0.046946026
3	0x3de686d7	0.112561874
4	0xbd4bdb4c	-0.049769685
5	0xbe4b3e58	-0.19848001
6	0xbdad1a87	-0.08452325
7	0x3dc81510	0.09769642
8	0x3e1037d7	0.14083801
9	0x3e0fc1d6	0.14038786
10	0xbdf35d24	-0.118829995
11	0xbe10b040	-0.14129734
12	0x3d4b01b2	0.049562164
13	0xbe2811c1	-0.16413023
14	0xbd925b3a	-0.07146306
15	0xbd1a952c	-0.037739918
16	0x3d84cc0d	0.06484232
17	0xbe1cef3a	-0.15325633
18	0xbcf3a8ac	-0.029743515
19	0x3e17b9e2	0.14817002
20	0x3e656a35	0.22403796
21	0x3d09867b	0.033575516
22	0xbdc1a3b4	-0.09455052
23	0xbdb1a486	-0.086739585
24	0xbdb63fa3	-0.088988565
25	0xbbca45fb	-0.006172893
26	0xbe30ee6d	-0.17278452
27	0xbd0a1b96	-0.033717714
28	0xbe11a929	-0.14224686
29	0x3cf63da4	0.03005869

Nnet.Hidden_layer_4.weight f4 [30, 30]
0	0xbdc40472	-0.095711604
1	0xbec0c9ad	-0.37653866
2	0xbe9d3e8a	-0.30711776
3	0xbe3cc1d9	-0.18433322
4	0x3b130060	0.0022430643
5	0x3d1a4623	0.037664544
6	0xbdeb2754	-0.114821106
7	0xbd2c3f6b	-0.042052668
8	0xbeb7c368	-0.3589127
9	0xbe9eb44f	-0.3099694
10	0xbd528622	-0.05139745
11	0xbe770630	-0.24123454
12	0x3e3694db	0.17830221
13	0xbe5f54ca	-0.21809688
14	0x3ae8efac	0.0017771623
15	0xbe5df31e	-0.21674773
16	0x3e5f35ad	0.2179782
17	0x3d886604	0.06660083
18	0x3ebc30c5	0.36755958
19	0xbddd92fc	-0.10819051
20	0xbe223afa	-0.1584281
21	0x3d927155	0.071505226
22	0x3efb9b02	0.491417
23	0x3cd095b6	0.025462013
24	0xbe91f50b	-0.28507265
25	0xbd2a6bed	-0.041606832
26	0xbdfed1c3	-0.124423526
27	0xbdb70555	-0.08936564
28	0x3eb79644	0.3585683
29	0xbd6ccecc	-0.057814404
30	0x3e88c3b2	0.26711804
31	0xbdb6ab17	-0.089193515
32	0xbd84e6b4	-0.06489316
33	0xbe660f93	-0.22466879
34	0x3d3b65be	0.045751326
35	0xbec80eb0	-0.39073706
36	0xbdbd4d0f	-0.092432134
37	0xbd4abe6a	-0.049498
38	0x3e317052	0.17328003
39	0xbe0d40eb	-0.13794295
40	0x3eda2afb	0.42610916
41	0xbe50b4b1	-0.20381428
42	0xbd9dc3af	-0.07703339
43	0xbdf62c91	-0.12020219
44	0x3e5ac0bf	0.2136259
45	0xbdaec4d0	-0.08533633
46	0x3cc1382d	0.023586357
47	0x3dbeedc4	0.09322694
48	0xbe838c61	-0.25693038
49	0xbe21c54a	-0.15797916
50	0xbe3d0667	-0.18459474
51	0xbe2e2337	-0.17005621
52	0xbd68a375	-0.05679651
53	0xbe2cc4d1	-0.16871955
54	0x3dafd9cc	0.08586463
55	0xbe2b0702	-0.16701892
56	0x3d0ac2e4	0.03387727
57	0xbc20a9a4	-0.0098060705
58	0x3ded8a4d	0.115986444
59	0xbe21e1ed	-0.1580884
60	0xbde6db71	-0.11272324
61	0x3e5bee0b	0.21477525
62	0xbe680889	-0.22659506
63	0xbd8a3fd5	-0.06750456
64	0xbc89d2e7	-0.016824199
65	0x3e73545b	0.23762648
66	0x3d48ea29	0.049051438
67	0x3dfadcf7	0.12249177
68	0x3d7b0e44	0.0612929
69	0xbd894281	-0.06702138
70	0xbdbfbc0c	-0.09362039
71	0xbd77da81	-0.060511116
72	0xbd06b6db	-0.03288923
73	0xbd2c5056	-0.0420688
74	0xbd72e732	-0.059302516
75	0xbdc788c6	-0.09742884
76	0x3e5dd222	0.2166219
77	0xbe4fe6e3	-0.2030292
78	0xbe53baed	-0.20676775
79	0x3e30058c	0.17189616
80	0xbd1d5905	-0.038414974
81	0xbe11ef1e	-0.14251372
82	0xbe3cc50b	-0.18434541
83	0x3ddbed37	0.107386045
84	0xbea4363b	-0.32072625
85	0x3d95050a	0.07276352
86	0xbdd5838a	-0.1042548
87	0x3e836ba2	0.25668055
88	0xbe178af4	-0.147991
89	0x3dc6902f	0.096954696
90	0x3d1a7839	0.03771231
91	0x3e3d49f4	0.18485242
92	0x3eb52a31	0.35383752
93	0x3dbcce99	0.09219093
94	0x3d360c73	0.044445466
95	0xbe2a406a	-0.16626135
96	0xbe31dc4d	-0.17369194
97	0xbe25a6fe	-0.16176984
98	0xbdd5b347	-0.10434585
99	0xbe236d98	-0.15959775
100	0x3bbbd3de	0.0057320436
101	0x3e483026	0.19549617
102	0xbce53bb1	-0.027982565
103	0xbda37533	-0.07981338
104	0x3e51bead	0.20482893
105	0x3dc1c885	0.09462074
106	0x3daa1dba	0.08306451
107	0x3cb2e959	0.021839784
108	0x3dbf913f	0.09353875
109	0x3e24592a	0.16049638
110	0xbe38d2fb	-0.18049233
111	0xbe4ccb94	-0.19999534
112	0x3e1d910b	0.15387361
113	0xbe1ea818	-0.1549381
114	0x3e4ef04d	0.20208855
115	0xbd01c4be	-0.03168177
116	0x3dccbaca	0.09996565
117	0xbddd32a2	-0.10800673
118	0x3db2a1b6	0.0872225
119	0xbd572ca6	-0.052532814
120	0xbe0553fa	-0.13020316
121	0xbe8bc549	-0.27298954
122	0x3de9ae2c	0.11410174
123	0x3e4399e2	0.1910167
124	0x3d921541	0.0713296
125	0xbd2e9a04	-0.04262735
126	0xbd9077ff	-0.070541374
127	0x3e3e7846	0.18600568
128	0xbe698e12	-0.22808102
129	0xbe4338d9	-0.19064654
130	0xbe4439e9	-0.19162716
131	0xbe1ac8be	-0.1511564
132	0x3de73951	0.11290229
133	0xbe955c6b	-0.29172072
134	0xbe96c234	-0.2944504
135	0xbda2b284	-0.079442054
136	0xbd9e5878	-0.07731718
137	0x3e84b5b3	0.25919876
138	0x3e22d19f	0.15900277
139	0x3ddd9a4a	0.10820444
140	0x3de58e7c	0.11208817
141	0x3d1c6a03	0.03818704
142	0xba711124	-0.00091959746
143	0xbe3de2c8	-0.18543541
144	0x3e32692f	0.17422937
145	0x3e39fd7d	0.18163104
146	0xbd4d295c	-0.05008827
147	0xbe9b17e7	-0.30291674
148	0x3e913fa5	0.2836887
149	0xbe408bf0	-0.18803382
150	0xbe4bf21e	-0.19916579
151	0x3e3017ac	0.1719653
152	0xbe9142af	-0.28371188
153	0x3d95cf89	0.07314975
154	0x3dde733c	0.10861823
155	0x3e5950b2	0.21222189
156	0x3e58ca99	0.21171035
157	0x3e9267d0	0.28594828
158	0xbed2365a	-0.41057092
159	0xbe8e1a53	-0.2775446
160	0xbe962c1e	-0.29330534
161	0x3db85acb	0.090016924
162	0x3d2f8246	0.042848848
163	0x3cec8f2c	0.028876863
164	0xbe5cd942	-0.21567252
165	0xbd1419d8	-0.03615746
166	0xbe5168e6	-0.20450172
167	0xbd504906	-0.05085089
168	0xbe122733	-0.14272766
169	0x3e675c2f	0.22593759
170	0xbdf41656	-0.11918323
171	0x3e48794f	0.19577526
172	0x3e978249	0.29591587
173	0xbea419d2	-0.3205095
174	0xbe13241e	-0.14369246
175	0x3e2acb44	0.16679102
176	0x3df66551	0.12031043
177	0xbe9de0ce	-0.30835575
178	0x3ec5a18a	0.38599807
179	0xbe3e58c8	-0.18588555
180	0xbe59a65d	-0.21254869
181	0x3cd8b5ad	0.026453817
182	0x3de12e4d	0.10995159
183	0xbc8d03a4	-0.01721365
184	0x3e5bb36e	0.21455166
185	0x3e8b7b24	0.27242386
186	0xbcf0f850	-0.02941528
187	0x3df6e7df	0.12055945
188	0xbcbaceff	-0.022803782
189	0x3ebf28ea	0.37335902
190	0xbd1254e6	-0.035725497
191	0xbd89c99b	-0.06727906
192	0x3cd22f4c	0.025657319
193	0x3e4e8b33	0.20170288
194	0x3d8f6fc4	0.070037395
195	0x3e30e0a1	0.17273189
196	0xbdb2d7a1	-0.08732534
197	0xbdc5b507	-0.09653669
198	0xbd4940ba	-0.049133994
199	0xbdb28ebc	-0.08718631
200	0x3ca0e77b	0.019641628
201	0x3b8b35d6	0.004248361
202	0xbe5d2834	-0.21597368
203	0xbcb5b156	-0.022179287
204	0xbe0693dc	-0.13142341
205	0x3d1592d1	0.03651697
206	0xbe2fc0ed	-0.17163439
207	0x3d9c0521	0.07618166
208	0xbd47dd0f	-0.048794802
209	0x3e234a79	0.15946378
210	0xbe651f86	-0.22375306
211	0xbd898c0f	-0.06716167
212	0xbed69472	-0.4191013
213	0xbd401bd6	-0.046901546
214	0x3d95ca95	0.0731403
215	0x3dd190d5	0.10232703
216	0xbd9667e7	-0.073440365
217	0x3d245a6f	0.040125307
218	0x3aaa2789	0.0012981753
219	0x3dde6e67	0.10860901
220	0xbe1137ec	-0.14181489
221	0xbda07c46	-0.07836203
222	0x3c65534c	0.01399691
223	0xbdd9e1cd	-0.10638771
224	0xbdf976f3	-0.12180891
225	0xbec1a16c	-0.37818468
226	0xbdbd8679	-0.09254164
227	0x3d7235fd	0.05913352
228	0xbe79d587	-0.2439786
229	0xbdc03fed	-0.09387193
230	0x3cfa70c9	0.030571358
231	0x3e17735e	0.14790103
232	0xbe650ad8	-0.22367418
233	0xbe1c96e6	-0.15291938
234	0xbe41ef66	-0.1893898
235	0x3cbe038b	0.023195049
236	0x3d8985b2	0.067149535
237	0xbd44f508	-0.048085243
238	0x3da048c6	0.078263804
239	0xbe14673b	-0.14492504
240	0xbe4de269	-0.201059
241	0xbe3bd732	-0.18343809
242	0xbea42ec0	-0.32066917
243	0x3e29a59b	0.1656708
244	0xbc4b30a8	-0.012401737
245	0xbc82a240	-0.015946507
246	0xbdb4312f	-0.087984435
247	0x3e2042ef	0.15650533
248	0xbf00eafa	-0.50358546
249	0xbd5e49b1	-0.054269496
250	0xbdd96cf3	-0.106164835
251	0xbe3fc88c	-0.18728846
252	0x3ec52257	0.38502762
253	0x3e19394d	0.14963265
254	0xbe5aa8dd	-0.21353479
255	0x3c9a5dcd	0.018843556

Nnet.Hidden_layer_4.bias f4 [30]
0	0xbe413281	-0.18866922
1	0x3cd12e36	0.02553473
2	0x3e3cc2bd	0.18433662
3	0xbdbde0a9	-0.09271366
4	0x3db25c7d	0.08709047
5	0x3e1a487b	0.15066712
6	0xbd8d00e7	-0.06884938
7	0xbdf9bcb8	-0.12194198
8	0x3e0006a1	0.12502529
9	0x3c134427	0.008988417
10	0x3d0f3e47	0.0349715
11	0xbe0ba643	-0.13637643
12	0xbd1f6583	-0.03891517
13	0xbc03bfea	-0.008041361
14	0x3cc1ea6f	0.023671357
15	0xbd35b8b8	-0.044365615
16	0xbd658ba0	-0.05604136
17	0x3db570bd	0.08859394
18	0x3e80b1e8	0.25135732
19	0xbe210b64	-0.15727001
20	0xbdce5295	-0.10074345
21	0xbda1899d	-0.07887576
22	0xbcd9b4f0	-0.026575536
23	0x3e1be41c	0.15223736
24	0x3e3aa880	0.1822834
25	0x3d95661f	0.07294869
26	0x3dbead4b	0.09310397
27	0x3e066013	0.13122587
28	0x3cfd9824	0.030956335
29	0x3e0675f9	0.1313094

Nnet.Hidden_layer_5.weight f4 [30, 30]
0	0x3e0f60da	0.1400179
1	0xbcb28209	-0.021790521
2	0x3d835661	0.0641296
3	0xbe560109	-0.20898832
4	0x3dcb8fbe	0.09939526
5	0x3da7a16c	0.08185086
6	0x3cde11d2	0.027108107
7	0x3deb454f	0.11487829
8	0x3e7f9f63	0.24963145
9	0xbcf49bac	-0.029859386
10	0xbcfb4e62	-0.030677024
11	0x3e64664c	0.22304648
12	0x3daca6ab	0.08430227
13	0x3deda80c	0.11604318
14	0x3e160e95	0.14654
15	0xbdf25e1d	-0.11834357
16	0xbd7c318f	-0.0615707
17	0x3e34e626	0.1766592
18	0xbe4c4f6e	-0.19952175
19	0xbdb32800	-0.08747864
20	0x3cd54cb3	0.02603755
21	0xbe53cec6	-0.20684347
22	0xbdc4434b	-0.095831476
23	0xbdc348c6	-0.09535365
24	0x3eac6b29	0.33675507
25	0xbe29e036	-0.16589436
26	0xbe879ba5	-0.26485935
27	0xbe7b4150	-0.24536633
28	0x3b48ba72	0.0030628708
29	0xbe49b733	-0.19698791
30	0x3e136f39	0.14397897
31	0xbdef1eb1	-0.11675776
32	0x3e1dbd7e	0.15404317
33	0x3d05c2de	0.032656543
34	0x3d0f2c3e	0.034954302
35	0x3e91fd8c	0.28513753
36	0x3d67b71e	0.05657112
37	0x3e72cf3c	0.23711866
38	0xbd78ffbc	-0.060790762
39	0x3e82ddb4	0.2555977
40	0x3e21cfa0	0.15801859
41	0xbddf3fb9	-0.10900826
42	0x3e1f9f96	0.15588221
43	0x3ccb3cbd	0.024809236
44	0x3d8bc3fa	0.06824489
45	0xbe11f693	-0.14254217
46	0xbd5db9ef	-0.0541324
47	0x3e8abbca	0.27096397
48	0xbc3d498a	-0.011553178
49	0xbe0af7dc	-0.13571113
50	0x3d87a184	0.066226035
51	0xbe18fc4e	-0.14939997
52	0xbe90241e	-0.28152555
53	0x3dac1c66	0.08403854
54	0x3dca91cb	0.09891089
55	0xbb744ef8	-0.0037278514
56	0xbcfe89dd	-0.031071598
57	0xbe1ba48b	-0.15199487
58	0xbe4753f0	-0.19465613
59	0xbc87cfb7	-0.016578538
60	0x3d7f16ed	0.062277723
61	0x3e42405f	0.18969868
62	0x3d86cf7f	0.065825455
63	0x3d2e04d6	0.04248508
64	0x3d7beb1c	0.061503515
65	0xbe68d827	-0.22738706
66	0x3dcc60c9	0.09979398
67	0x3d6166af	0.055029567
68	0xbe45769d	-0.19283529
69	0x3e38aa8a	0.18033805
70	0x3d58e10e	0.052949004
71	0xbe46b3b4	-0.19404489
72	0xbe874d6f	-0.26426265
73	0xbe53c75a	-0.20681515
74	0xbe18cce5	-0.14921911
75	0x3d676a24	0.056497708
76	0xbe003375	-0.1251963
77	0xbd7126da	-0.058874942
78	0x3d72851f	0.059208985
79	0x3ea375d1	0.31925824
80	0xbdb58eb2	-0.088651076
81	0xbe054703	-0.1301537
82	0x3da6275a	0.081129745
83	0xbdca2845	-0.09870962
84	0xbeae9aed	-0.34102574
85	0xbd0d1114	-0.034440115
86	0xbc9bbb08	-0.019010082
87	0xbc99579b	-0.018718531
88	0x3d015c25	0.031582016
89	0x3e2c9a7a	0.16855803
90	0x3e873d32	0.26413876
91	0xbe80f5ac	-0.25187433
92	0x3e179ad9	0.14805163
93	0xbc66fff9	-0.014099115
94	0xbe822cb7	-0.2542474
95	0xbe25b8b6	-0.16183743
96	0x3e5f7040	0.21820164
97	0xbc4283a6	-0.011872208
98	0xbd1bf354	-0.038073853
99	0xbe701be3	-0.23448138
100	0x3dd9f99b	0.106433116
101	0x3e73d09c	0.23810047
102	0xbdf2a26a	-0.11847384
103	0xbe067b83	-0.13133053
104	0x3e6de024	0.23230034
105	0xbe1a15fc	-0.15047449
106	0x3e7569e8	0.23966181
107	0xbde92aed	-0.113851406
108	0xbd81cf61	-0.063383825
109	0xbe0de06b	-0.1385514
110	0x3df4732d	0.119360305
111	0xbd381370	-0.044940412
112	0x3dce58a3	0.100755
113	0xbe4e6591	-0.20155932
114	0x3b7969ea	0.0038057514
115	0xbdceb8de	-0.10093854
116	0xbe5f3598	-0.21797788
117	0xbd7a124e	-0.061052613
118	0xbdc78850	-0.097427964
119	0xbdba6056	-0.09100406
120	0x3d9ecef9	0.07754321
121	0xbe13c516	-0.14430651
122	0xbd0ba9cb	-0.034097474
123	0x3d953837	0.07286113
124	0x3e0317ca	0.12802044
125	0x3e51cba9	0.20487846
126	0x3dcaddfc	0.099056214
127	0x3c8b014f	0.016968397
128	0x3e633d9d	0.22191472
129	0xbe649cab	-0.22325389
130	0x3df45c4a	0.11931665
131	0x3dcb18ba	0.099168256
132	0x3abadf83	0.0014257286
133	0x3d3a20b4	0.045441344
134	0x3dae2c46	0.08504538
135	0xbe1ff7f5	-0.15621932
136	0xbcc4549a	-0.023966122
137	0x3e9b92d2	0.30385453
138	0xbe1982dd	-0.14991327
139	0xbc48f32f	-0.012265011
140	0x3db28e88	0.08718592
141	0xbe4ee5f3	-0.20204906
142	0xbe1e046c	-0.15431374
143	0xbc4c79e4	-0.012480233
144	0x3e4e3a8f	0.20139526
145	0x3d0c8a64	0.034311667
146	0x3d93bfc3	0.0721431
147	0xbe77e60d	-0.24208851
148	0xbe28dd8a	-0.1649076
149	0xbd77ab49	-0.060466085
150	0x3c6643cc	0.01405425
151	0x3c8e8dc2	0.01740158
152	0x3d81e4dc	0.063424796
153	0xbdde9d83	-0.10869887
154	0xbe04aa92	-0.12955692
155	0x3e14aedb	0.14519827
156	0xbcbde669	-0.023181157
157	0x3d40f7f6	0.047111474
158	0x3e21200f	0.15734886
159	0xbe5ef2a0	-0.21772242
160	0x3c3085a8	0.010774054
161	0x3b7c861b	0.0038532082
162	0x3e63b0e5	0.22235449
163	0xbe20b31c	-0.15693325
164	0x3e4334f0	0.19063163
165	0xbe0adfc2	-0.1356192
166	0xbb2fc681	-0.0026821198
167	0x3d6cd16f	0.05781692
168	0x3c88bcac	0.016691528
169	0xbe4c4e08	-0.19951642
170	0x3e0bc7e4	0.13650471
171	0x3d71e105	0.059052486
172	0x3b4084a4	0.0029375935
173	0x3dbe3c70	0.09288871
174	0x3eaa753b	0.33292565
175	0xbe2a6ac0	-0.16642284
176	0xbe4d5c32	-0.20054701
177	0xbd829b77	-0.06377309
178	0xbe59a097	-0.21252666
179	0xbd4f9df8	-0.05068776
180	0xbeae18e9	-0.3400338
181	0x3e74f0b8	0.23919952
182	0x3e1f6a93	0.15567999
183	0xbda417c3	-0.08012345
184	0x3d7856b6	0.06062957
185	0xbe1bae63	-0.15203242
186	0xbe3d8701	-0.18508531
187	0xbe6c9c90	-0.23106599
188	0xbe78ce0b	-0.24297349
189	0x3e2beb0e	0.16788885
190	0xbc93ef5e	-0.018058475
191	0x3d83a1dc	0.064273566
192	0xbd47c9f3	-0.04877658
193	0x3d38baac	0.0450999
194	0xbe82c5af	-0.25541446
195	0x3e37c58a	0.17946449
196	0xbe878e14	-0.26475585
197	0xbd3fa130	-0.04678458
198	0x3d26aca2	0.04069198
199	0x3dc7746a	0.09739001
200	0x3cbdd508	0.02317287
201	0x3ea7a608	0.3274386
202	0x3ddcb507	0.10776716
203	0xbe425847	-0.18978988
204	0xbe343b19	-0.17600669
205	0x3e2e32d3	0.17011575
206	0xbcecfb47	-0.028928412
207	0x3db1f53f	0.08689355
208	0xbd66fbed	-0.0563926
209	0x3d412bb3	0.047160815
210	0xbe8014d6	-0.25015897
211	0x3e472c93	0.19450597
212	0xbe8bb19f	-0.27283952
213	0x3e85ad61	0.2610884
214	0xbe85573f	-0.26043126
215	0xbf255fa6	-0.6459907
216	0xbd8e6f05	-0.06954769
217	0xbe058bc2	-0.13041595
218	0xbe6ed15f	-0.23322056
219	0xbc30b51a	-0.0107853655
220	0xbc890f2e	-0.016730871
221	0x3e3cc18f	0.18433212
222	0x3e5be401	0.21473695
223	0xbe49d3a0	-0.19709635
224	0xbe42d6e8	-0.19027293
225	0xbe83e0a2	-0.2575732
226	0x3d8d4f47	0.068998866
227	0xbdc25da5	-0.094905175
228	0xbe6d1891	-0.23153903
229	0xbe1c970a	-0.15291992
230	0x3e1cd0f9	0.15314092
231	0xbdffd0f5	-0.12491027
232	0xbe45df72	-0.19323519
233	0x3dc3101c	0.09524557
234	0x3e75f742	0.24020103
235	0xbd242eac	-0.040083572
236	0xbdbbe1f7	-0.09173959
237	0xbe7423d6	-0.23841795
238	0xbe36b442	-0.178422
239	0x3df154f2	0.1178378
240	0xbe654012	-0.22387722
241	0xbc8c3ca2	-0.017118756
242	0x3e188d84	0.14897734
243	0x3e5d7ba8	0.21629202
244	0x3e25135d	0.16120668
245	0xbe516a8b	-0.20450799
246	0xbded363d	-0.11582611
247	0x3d8788be	0.066178784
248	0xbcd404e5	-0.02588124
249	0xbcdb630d	-0.02678063
250	0x3e278ef1	0.16363122
251	0x3dd18a50	0.10231459
252	0x3e10ba0f	0.14133476
253	0xbda5de20	-0.080990076
254	0xbe53cd70	-0.20683837
255	0x3d890771	0.066908725

Nnet.Hidden_layer_5.bias f4 [30]
0	0x3e1a6753	0.15078478
1	0x3db79ea7	0.089658074
2	0xbd17f246	-0.037096284
3	0x3da72e94	0.08163181
4	0xbe1cd2de	-0.15314814
5	0xbc03656f	-0.008019789
6	0xbc7c1c85	-0.015387659
7	0xbc79577f	-0.015218615
8	0x3d69f3dc	0.057117328
9	0x3dd802f0	0.10547435
10	0x3d05300f	0.032516535
11	0xbe3d51bb	-0.18488209
12	0xbe36d7ff	-0.17855833
13	0xbe069d97	-0.13146053
14	0xbd80ae4e	-0.06283246
15	0x3e350d1e	0.17680785
16	0xbe042155	-0.1290334
17	0x3e24d098	0.16095197
18	0xbd7cf658	-0.06175837
19	0xbdec516f	-0.1153897
20	0x3df2ee86	0.11861901
21	0xbcfd53de	-0.03092378
22	0x3e41709f	0.18890618
23	0x3e104db3	0.1409214
24	0x3e4ccc41	0.19999792
25	0xbdc5b28d	-0.096531965
26	0x3dfc652a	0.12323983
27	0xbd958bba	-0.07302041
28	0xbd9ecdcc	-0.077540964
29	0xbd27281b	-0.040809732

Nnet.Output.weight f4 [2, 30]
0	0xbe6ea152	-0.23303726
1	0xbe1f25c2	-0.15541747
2	0x3e10d9a4	0.14145523
3	0xbeac5ba6	-0.33663672
4	0xbe84f0a4	-0.25964844
5	0xbe91c77e	-0.28472513
6	0x3ef3bd7e	0.4760551
7	0xbd17a066	-0.037018202
8	0x3e859700	0.26091766
9	0xbde75948	-0.11296326
10	0x3dc23a53	0.09483781
11	0x3e3b1fcd	0.1827385
12	0x3dbd5f09	0.09246642
13	0x3d870eed	0.06594644
14	0x3eefd9d2	0.4684587
15	0x3e0664f7	0.13124453
16	0xbe8df9d3	-0.27729663
17	0x3e0ae341	0.13563253
18	0x3d99551f	0.07486939
19	0x3e096ee8	0.13421214
20	0x3d4ed3b7	0.050494876
21	0x3f1a304f	0.60229963
22	0x3e5d5607	0.21614848
23	0xbc7dde2f	-0.015494867
24	0x3e2d3557	0.16914879
25	0xbe811e92	-0.25218636
26	0xbe5cada9	-0.21550621
27	0xbe55b09e	-0.20868155
28	0xbe095df6	-0.1341475
29	0xbd724cdd	-0.059155334
30	0x3c70dd98	0.01470127
31	0xbe254f6e	-0.16143581
32	0xbd7e26e3	-0.062048804
33	0x3ec7d0dd	0.39026538
34	0xbe2f283b	-0.1710519
35	0xbd3db32b	-0.046313446
36	0x3e4f029a	0.20215836
37	0x3e815c8d	0.25265923
38	0xbd1a827e	-0.037722103
39	0x3e979afe	0.29610437
40	0x3effd3a6	0.49966162
41	0x3e6ef2e1	0.23334838
42	0x3e207378	0.15669048
43	0xbe17a3ba	-0.1480855
44	0x3d7d56a4	0.061850205
45	0xbe1335ac	-0.14375943
46	0xbd746d37	-0.059674468
47	0x3edfb272	0.4369083
48	0xbd0d57a4	-0.03450741
49	0xbd55b123	-0.052170884
50	0xbd419181	-0.047257904
51	0xbe357604	-0.177208
52	0x3e69401a	0.22778359
53	0xbea14a81	-0.31502154
54	0x3dffe63c	0.124950856
55	0xbcd8d4cf	-0.026468663
56	0x3de8db35	0.113699354
57	0xbc94eac5	-0.018178353
58	0x3d9f3fd6	0.077758476
59	0x3e4ff9e6	0.20310172

Nnet.Output.bias f4 [2]
0	0xbcd0c013	-0.025482213
1	0x3e374954	0.17899066
