PINN/aPINN.pt (torch, 19301 bytes, 12 tensors)

Nnet.Hidden_layer_1.weight f4 [30, 2]
00000000: 0158 3ebf 4a4c 733e 7bc1 233f 24df 5d3f
00000010: 885e 33bf 1f15 0cbf 7c9f 9b3e c8ee a63e
00000020: e2c1 4bbe acfe 623c a006 1fbf d66c fd3d
00000030: ff36 da3e 0005 1c3f 2508 17bf 04d7 47bf
00000040: e4eb 8b3e 088b 24bf a381 69be 44d9 36bf
00000050: d95d d43e 037b ec3e 3910 aebe 956f bfbe
00000060: ec33 cabd 2e70 373f d39e 9e3e b455 553f
00000070: 3612 68be dcba 83be a8ca e8bc 86ea 253f
00000080: 916f 8ebe 24c5 ac3e 73cb 943e 0c4c 43bd
00000090: f233 1e3f f99c 8fbe d0a5 213e a703 40bf
000000a0: b19e e1be a52c d33d 07c7 e03e f1eb 4ebf
000000b0: 51f6 353f 6aa8 263e dd27 ac3d e7dd 1e3f
000000c0: f83e bbbe b445 ec3d 80ec 8a3e 2cf3 08bf
000000d0: a7f3 6ebf 2e08 bc3e de7a 58bf f393 863e
000000e0: d573 6abe 5a0a 8abe 7f5f 26bf f929 b8be
-0.74353033 0.2375957 0.639671 0.8666861 -0.7006612 -0.5471973 0.30395114 0.3260405
-0.19898179 0.013854664 -0.62119484 0.123742744 0.42620084 0.6094513 -0.589968 -0.7806246
0.27328408 -0.64274645 -0.22803359 -0.7142527 0.4147785 0.461876 -0.33996752 -0.37389818
-0.098731846 0.7165555 0.30980548 0.833339 -0.22663197 -0.257285 -0.028416947 0.6481098
-0.27819493 0.33744156 0.2906147 -0.047679946 0.6179801 -0.28049448 0.15785909 -0.75005573
-0.44066384 0.1031125 0.43901846 -0.8082877 0.71078974 0.16275182 0.08406041 0.62057346
-0.3657148 0.11536732 0.2713356 -0.5349605 -0.93340534 0.3672499 -0.8456248 0.2628475
-0.22895749 -0.26961023 -0.64989465 -0.35969523

Nnet.Hidden_layer_1.bias f4 [30]
00000000: 868e 85be aa28 d7be effd 043f 9ef9 adbe
00000010: d62d b63e 3b52 293d da98 0dbf 3cea 023d
00000020: 8ab0 16bf ee10 593d 09f9 2d3f 6107 e9bd
00000030: 65d6 9bbe 8b31 03bf ef2f 913e 7ce8 823d
00000040: 591e 403f 7458 0cbf ec98 e7be 2483 c0bd
00000050: 6751 92bb e2b1 053f 61cc eebe 997c 91be
00000060: 65a1 043e 2263 a0be e57e 26bf fc4f cf3d
00000070: 2651 f43e 6e82 52be
-0.260853 -0.42023212 0.5194997 -0.33979505 0.35581845 0.041338187 -0.5531136 0.031961665
-0.5886313 0.05299466 0.6795812 -0.113783605 -0.30437008 -0.5124747 0.28356883 0.06391999
0.75046307 -0.5482247 -0.45233858 -0.09400013 -0.0044652703 0.5222455 -0.46640304 -0.28415373
0.12952192 -0.31325632 -0.65037376 0.10122678 0.4771816 -0.20557567

Nnet.Hidden_layer_2.weight f4 [30, 30]
00000000: 26a6 943d 8c68 6f3e a57b 85be 61fc 1cbd
00000010: e19a bf3c 7233 01be 2113 6e3e 84be 6cbd
00000020: b51e 3e3e ba30 77bd a7d5 74bd ff40 12be
00000030: cf6f ad3e c95c 013d 4c78 ccbe 7a3d a23d
00000040: d200 54bd ea2d 813c 5c3e 8a3d 1127 443d
00000050: b347 b4bd 39b7 d63d 1b36 4d3e ea13 00be
00000060: 49a0 14be 90e2 dabc cb1e 05be 8f79 483e
00000070: fc92 b53c a1bf 3f3d 6950 1fbe d01e 20be
00000080: 47fb c63c 1f8d 833d f8e7 bcbb 0eee ad3d
00000090: 4689 f3bd 76c1 09be 4bc2 17be 3ca1 b1bd
000000a0: 957c 0cbc 5794 62bd 3533 663e 229b c83d
000000b0: 5d36 5bbe 6f50 353e d0f2 d73c c07c ccbd
000000c0: 6313 c43d 6cbe 4bbe a522 013e 30b9 8bbd
000000d0: 36b6 33be 6805 cabd 3eae d43d 8c8d 183e
000000e0: bd26 9f3d 7dc5 92be cda3 d03d 66a5 15be
000000f0: 233c c13e 708d aebd 2c7a 4f3e a4b6 5cbe
00000100: be69 c13d ae53 593e 04f5 82bd 46ab 523e
00000110: 1043 1e3c 6c49 45bd 9875 dfbd bab5 d2bc
00000120: 3d67 e03e f419 343e f7fb c0bc b48f 06bc
00000130: 777b 1ebd 578c 9a3d 7773 6abe 3c8b 183d
00000140: 7d3c ba3e b18e 63be d4da 5cbe 0dc7 0cbe
00000150: a418 ab3e bdc7 883d 18f2 193e 7e26 7a3e
00000160: 5e7a f13d a76b 8c3e 54d2 273e 08ea 83be
00000170: f069 433e aa9e 62bc b42a df3d ffcf 413d
00000180: 70cd 56bd a35b 5a3e feb5 813d 98d3 c9bd
00000190: b2a6 26be e37e dd3d 286e 5fbe 1f9f b2be
000001a0: b4c5 8b3e 39c3 8dbd d6a7 a33d 9d8b 4cbd
000001b0: a281 dfbd 4e6f ffbc f7ec d5bd 9e4d ad3d
000001c0: ae61 5abe 6afc 2fbe ede8 eabc 8812 3f3e
000001d0: e056 2ebd e8b2 1bbe 4206 a33d 67d4 90bc
000001e0: ee8b d0be bea4 e8bd c8e3 483c 5399 abbd
000001f0: 0572 0ebe d0c9 00bf 8d7a c4be 957c 17be
00000200: 53ce aa3d de49 ef3d 95e6 543e 50fc fb3d
00000210: 5f3e ecbe f934 b5be ac0a 7d3e a9ad c8bc
00000220: a56f 36bd 5b6d 073e 232d 4b3e 6fae f53d
00000230: d813 ddbe c0d6 fa3e 089e 8d3c e754 7abe
00000240: c317 a1be e684 583e eb14 f3be 21dc d2be
00000250: 0b27 863e 8701 8abc 7fc5 f5bd 1b07 323e
00000260: 16d1 7cbd eb43 9abd 5529 e53d 7d83 2fbd
00000270: 9284 bdbd 1601 afbd 4978 163d 2fd9 2b3e
00000280: 85d0 08be 639b 503d ee79 36be 9bfa 143e
00000290: 1d5a 0ebe fe87 0e3d 7a16 0bbd a366 d3bd
000002a0: c817 61bc 775a 4e3e ba18 d1bd def9 953d
000002b0: e7de 263e 02c8 3dbe 800b 083d 07c4 233e
000002c0: 6fe3 623e c0e5 76bd 78ce 153e e150 363d
000002d0: ebc5 96bd 2a87 65be b0ff b03e 6750 ddbd
000002e0: 5eef 543d 6598 a1bd 23a1 ad3c 9db9 2b3e
000002f0: 4046 9ebd fbca fe3c a8c5 48be fbc5 78bd
00000300: 1cad 1ebe 8953 5cbd b833 0e3e 73b9 c0bd
00000310: a567 4cbd b1c2 2b3e add6 803c c599 fdbd
00000320: 81b0 fe3d 2ef8 1d3e a96f 123d 1623 22be
00000330: 0748 093d 62e7 fc3d 546e 5f3c 9e59 af3d
00000340: 1a76 3bbe e826 433d 5cd0 b6bd c5cb 46bd
00000350: e1c4 793c 7397 e1bd c753 8c3e 154f df3d
00000360: 760a 98bd 856e 5fbc 091b c2bc e173 66bd
00000370: 50bf 8e3d ba94 053d 4bc4 213e 53c5 d73d
00000380: 4d8b 5a3e d5b7 243e 0a78 5b3e b834 99be
00000390: 12b6 a0be b839 20bc 77d6 583e f168 44be
000003a0: d044 a5be 60d2 2b3e 88c9 fd3e 1b0f 86be
000003b0: 571b 75bd ebe8 12bc cc66 be3c c6a0 b5bc
000003c0: 87a7 cabb d363 5b3e 787c b1bd 522a 9e3d
000003d0: 213f 01be 3dc0 d03d ef6a d1bd 39dd 47be
000003e0: ac92 173d e0ae 9abd b000 033e 935b e2bc
000003f0: 740a 3dbe 0a0b 8ebd 2609 813e c6d1 743b
0.07258253 0.23379725 -0.26070896 -0.038326625 0.023389282 -0.12617281 0.23249485 -0.057798877
0.18566401 -0.060349204 -0.059774067 -0.14282607 0.33874366 0.031582627 -0.3993553 0.07921882
-0.051758595 0.015768964 0.06750175 0.04788882 -0.08802738 0.10484166 0.20040171 -0.12507597
-0.14514269 -0.026719362 -0.13000028 0.19577621 0.022164814 0.04681361 -0.15558018 -0.15636754
0.02428974 0.06423401 -0.0057649575 0.08492671 -0.11891417 -0.13452706 -0.1482021 -0.08673331
-0.008574625 -0.05531725 0.22480471 0.09795214 -0.21407457 0.17706464 0.0263609 -0.09984732
0.0957401 -0.19896859 0.12610872 -0.06822431 -0.17549977 -0.098643124 0.103847966 0.14897746
0.077710606 -0.28666297 0.101874925 -0.14613876 0.37741193 -0.08523071 0.20261449 -0.21554047
0.09443997 0.21223328 -0.06394389 0.20573148 0.009659544 -0.048165724 -0.10911101 -0.02572142
0.43828765 0.17588025 -0.023557646 -0.008212972 -0.038691964 0.07546299 -0.22895609 0.03724216
0.36374274 -0.22222401 -0.21567851 -0.13747807 0.33417237 0.06678722 0.15033758 0.24428746
0.11790918 0.27425882 0.16388828 -0.2576449 0.1908338 -0.013831774 0.10896817 0.0473175
-0.052442014 0.21324019 0.063335404 -0.098548114 -0.16274527 0.10815217 -0.21819365 -0.34887025
0.27299273 -0.069220014 0.079909965 -0.049937833 -0.10913397 -0.031181004 -0.10445588 0.0846207
-0.21326324 -0.17186132 -0.02867552 0.18659413 -0.04256332 -0.15204966 0.07960178 -0.017679406
-0.40731758 -0.11359547 0.0122613385 -0.08378854 -0.13910682 -0.5030794 -0.3837475 -0.14793618
0.083401345 0.11684011 0.20791085 0.12303984 -0.46141335 -0.35391977 0.24711102 -0.02449687
-0.044540066 0.1322531 0.19841437 0.11996161 -0.43179202 0.48991966 0.01728727 -0.2444645
-0.3146344 0.21144447 -0.47476897 -0.4118357 0.26201662 -0.016846431 -0.1200056 0.17385523
-0.061722837 -0.075324856 0.11189524 -0.042850006 -0.092538014 -0.08545129 0.036735807 0.16782068
-0.13360794 0.05092944 -0.1781995 0.14548723 -0.13901563 0.03479766 -0.033956982 -0.10322311
-0.01373858 0.20151697 -0.10209794 0.07323049 0.16295968 -0.18533328 0.033214092 0.15992747
0.22157072 -0.0602777 0.14629543 0.044510726 -0.073619686 -0.22414842 0.34570074 -0.10806351
0.05198609 -0.07890395 0.021195 0.16770025 -0.07728243 0.031102648 -0.1960665 -0.060735684
-0.15495723 -0.053790603 0.13886917 -0.09410372 -0.04990353 0.16773488 0.015727365 -0.12382845
0.12436009 0.15426704 0.03575102 -0.15833697 0.033515956 0.1234882 0.013637144 0.08562015
-0.18306771 0.047644526 -0.0892646 -0.048534174 0.0152446935 -0.11015215 0.27407667 0.109037556
-0.0742387 -0.01363719 -0.023694532 -0.056262854 0.06970084 0.03261254 0.15797536 0.105356835
0.21342202 0.16085751 0.2143251 -0.29923034 -0.3138891 -0.009779386 0.21175562 -0.19180657
-0.32279062 0.1677947 0.4956782 -0.261834 -0.059840526 -0.008966665 0.023242377 -0.02217139
-0.0061845216 0.21424799 -0.08666319 0.07722916 -0.12621738 0.101929165 -0.10225474 -0.19517983
0.03700511 -0.07552886 0.12793231 -0.027631557 -0.18461019 -0.06935699 0.25202292 0.003735648

Nnet.Hidden_layer_2.bias f4 [30]
00000000: 7e04 123e 9c28 37be 7636 f7bd 0d73 0fbe
00000010: 17e3 343e e120 503d e345 f13c 1c6b 133e
00000020: 9d2c d3bd 76a5 2e3d 40d6 d53d 523e cebd
00000030: 93c1 b93d 0833 283c 6ae1 d7bd 0d4f 273e
00000040: fca6 6bbc ba0f e13d 4251 9fbc ce4d b93e
00000050: 7afb 5a3a 8161 3bbc 6579 163e 00a8 67be
00000060: ca53 d7bd bab4 343d 305e b53d b245 91bd
00000070: 345b 953d 128f b63d
0.14259526 -0.17886585 -0.120709345 -0.14008732 0.17664753 0.050812606 0.02945227 0.14396328
-0.10311244 0.042638265 0.104412556 -0.100704804 0.090701245 0.010266073 -0.10541041 0.16338749
-0.014383074 0.10989328 -0.019447926 0.36192173 0.0008353513 -0.011436821 0.14694746 -0.2262268
-0.10514028 0.044117667 0.088558555 -0.070933715 0.07292786 0.08914007

Nnet.Hidden_layer_3.weight f4 [30, 30]
00000000: 243a 8abd 8067 e53d 2499 b5ba f00a 113e
00000010: c084 423e 72c7 263e 4d09 353e c9c4 17be
00000020: cf6d 14be 8930 a93c f9c1 47be 0f63 aabd
00000030: 993b 5cbd a19d 7bbd d925 093c 3574 8c3d
00000040: de77 483e 3397 443d 6c15 f6bd 243e 9cbd
00000050: a0df a3bd 1beb 943e 5153 123e a0d6 21be
00000060: 2ead fc3d 06d4 d53c bc43 fabd 142f 6fbd
00000070: 7aa6 b6be 17d1 c73d ffd4 823d 3009 0dbe
00000080: 29d9 0ebe cebf 603e bd14 a33c 8913 183e
00000090: ef8f e03d b473 a5bd 2c3e 9fbe c49c d1bc
000000a0: 7339 883e e707 143e c8a5 4cbe 42f4 a33d
000000b0: 87cd 67bd c4fe 803e 83f4 d43d a863 993d
000000c0: 7410 3dbc 49c7 18be 88b8 173e e53d 0a3d
000000d0: a7ad 9dbc 6e77 09be b32d 873d e508 303e
000000e0: ac3d c9ba 9c02 0fbe 12e9 3e3c 4d72 1c3e
000000f0: cd23 b5bd 6e93 76be 1981 123e 00fe c9bc
00000100: f73d c0bd c761 19bd 34a3 a23d 7946 1cbe
00000110: 492f b83c f5a6 a93e 13c5 c53e 4c95 fd3d
00000120: 4361 d33d 672b 18be e096 d03d 924b d73d
00000130: 22f8 f7bd 913d 85bd ac77 003e eb0b 263e
00000140: d463 5abe 0341 633e 0e04 d03d 456e 0b3e
00000150: d2d5 f1bc ead0 33be df25 853e 0474 733d
00000160: 0519 ffbd f24e acbd 51e7 17be e2b6 c53d
00000170: 7b94 023e 3012 40be b68f 3ebe 3b33 f5b9
00000180: 1344 c13d 8740 39bd 245c 2b3e 45c7 ccbd
00000190: c07b fdbd 6eda 8bbd 59cf 083e 8069 dd3d
000001a0: 1b76 cbbb 62b1 ed3d 1be1 3bbe 5590 1f3e
000001b0: 925c c03c 2f75 a8be c892 cdbd 0da1 553d
000001c0: 6bb1 593e 4e83 29be b236 23be 7236 d33d
000001d0: 527b 253b 10c3 71bc 27cf a8bd 5235 3abd
000001e0: 4cef 3a3b 329f a13c a54e 1bbe 0de4 213d
000001f0: 474c 75bd 4846 523d 2f15 173d 257d 833d
00000200: 7376 a13d 009b 9cbd 3992 b8be 41d8 b2bd
00000210: 0008 143d 3a82 003d c85a b33b c7bb 003e
00000220: 0153 e9bd 4fdd 90bd 57e6 633e ce55 273e
00000230: 1cb1 11be 0297 e33d df04 f83c d32c aebd
00000240: 0480 e2bc cd42 173e 7b9c d6bd 1ba2 15be
00000250: 0c59 993d ad90 293e 83e0 c33c fa1b f3bc
00000260: 0df0 383d 904e 8bbd 94d9 873d 7b74 2fbc
00000270: d550 613d 9635 85bd 8de0 b2be eee2 2ebd
00000280: 305b af3d c0d0 16be 24a8 223e 1654 013e
00000290: eb2d 113e bb4a e9bd 9acd 803e 2c94 3dbd
000002a0: 4425 b2bd b783 29bd 0d92 3b3e 40e3 22be
000002b0: a17b e13d ee64 81bd 4958 afbd a728 7e3d
000002c0: 8ba1 b2bd b339 9c3c e1c1 5b3d 6d63 04be
000002d0: ca88 0dbe b023 8bbe 9b0b 9f3d ab3f aa3d
000002e0: 43b5 ae3e 91e2 503e 4548 09be 5362 bd3c
000002f0: 1065 c83d e91e ce3d 4d51 963e 04f8 fb3d
00000300: 60ef a73d 46b3 813b 0bea cdbd c126 39be
00000310: 8272 423e ef2a 0bbe 986d d2bd 1da9 ee3e
00000320: 126d cb3c b77e 583e 5007 e6bb 71c0 a9bd
00000330: cadb 99bc 42fc 7c3e 2712 ab3c 01ec f4bd
00000340: f026 16bd cb27 db3d cef9 223e 79c8 1f3d
00000350: 70b1 853e 58fb d5bd 8615 eabe 3a77 d83d
00000360: ad3a bbbd bfa1 5dbe a032 8d3e 4221 0bbe
00000370: 80bd edbd d3ab d23c 3150 433e 8d69 58be
00000380: 41ec 58be 9d58 9b3a 922d dbbe 1942 ef3d
00000390: 68ec b23d 72af 3bbf 7634 22be d27a 773d
000003a0: 457f fb3e 6196 c9bd 1025 8c3e bf5e 4cbe
000003b0: 5be7 2cbe da3e 413e f355 1b3f b60c 8cbe
000003c0: 9a5d 6f3d 2c55 47bc 1618 02be e5df 703e
000003d0: 2851 1c3e dc2d 8d3d d8af 3e3e cf06 ddbd
000003e0: 0fa0 4cbe e9a2 283d e008 913e faab 273e
000003f0: f577 903d 0e84 5cbe ff06 5f3d 18ff a33d
-0.06749371 0.11201382 -0.0013854844 0.14164329 0.18995953 0.1628702 0.17679329 -0.14821161
-0.14495014 0.020653026 -0.19507588 -0.08319675 -0.053767774 -0.061429624 0.00837084 0.06858102
0.19576976 0.047995757 -0.12015805 -0.0762904 -0.080016375 0.2908562 0.14289595 -0.15804529
0.12337719 0.026102077 -0.122199506 -0.058394507 -0.35673887 0.097566776 0.06388282 -0.13773036
-0.13950028 0.21948168 0.01990735 0.14851202 0.10964953 -0.08078709 -0.3110212 -0.025587447
0.2660633 0.1445614 -0.19985116 0.08005573 -0.05659249 0.2519437 0.103981994 0.07489711
-0.011539567 -0.14919771 0.14816487 0.033750433 -0.019247843 -0.13424465 0.06600513 0.17190893
-0.0015353463 -0.13965839 0.011652248 0.15277977 -0.08844719 -0.24079677 0.1430706 -0.02465725
-0.09386819 -0.037446763 0.07941285 -0.15261258 0.022483485 0.3313519 0.38626918 0.12381992
0.103212856 -0.14860307 0.10185027 0.10512461 -0.121078745 -0.065058835 0.12545651 0.16215484
-0.21327144 0.22192769 0.10157023 0.13616283 -0.029520903 -0.17560163 0.26005456 0.059436813
-0.12455944 -0.08413495 -0.14834334 0.09654023 0.12751953 -0.18756938 -0.18609509 -0.0004676821
0.09436812 -0.045227554 0.16734368 -0.09998945 -0.12377119 -0.068287715 0.13360347 0.10811138
-0.0062091476 0.11606099 -0.1834759 0.15582402 0.023481641 -0.32901904 -0.10037762 0.052155543
0.21259086 -0.16553995 -0.15938833 0.10313119 0.0025250507 -0.014755979 -0.08242636 -0.045461006
0.002852398 0.01972923 -0.1516672 0.039524127 -0.059887197 0.051336557 0.036885437 0.06420354
0.078839205 -0.076467514 -0.3604906 -0.087326534 0.036140442 0.031374194 0.0054734685 0.12571631
-0.11392785 -0.07073461 0.22255836 0.16341326 -0.14227718 0.11112787 0.03027576 -0.08504643
-0.027648933 0.14771576 -0.10479065 -0.1461262 0.074876875 0.16559096 0.023910766 -0.029676426
0.045150805 -0.06802094 0.066332966 -0.010708923 0.055008728 -0.06504361 -0.34936944 -0.042696886
0.085623145 -0.1472807 0.15884453 0.12629732 0.14177673 -0.11391207 0.25156862 -0.046283886
-0.08698514 -0.04138538 0.18317433 -0.15907001 0.110099085 -0.06318079 -0.08561761 0.062050488
-0.08722218 0.019070482 0.053651694 -0.12928553 -0.13821712 -0.27175665 0.077658854 0.08312925
0.34122667 0.20398928 -0.13406475 0.023118174 0.09784901 0.100644894 0.29358903 0.123031646
0.08199954 0.0039581386 -0.10054406 -0.1808119 0.18988994 -0.13590597 -0.102748096 0.46613398
0.024832282 0.21142088 -0.0070199147 -0.082886584 -0.018781561 0.24705604 0.02088268 -0.11959077
-0.036658227 0.10700949 0.15915605 0.039009545 0.26111937 -0.10448331 -0.45719546 0.10569616
-0.09142051 -0.21643732 0.27577686 -0.13586906 -0.1160841 0.025716698 0.1907356 -0.21134014
-0.21183874 0.001185197 -0.42808205 0.11682529 0.08736497 -0.73314583 -0.15840325 0.060419865
0.49120536 -0.098431356 0.27372026 -0.19958018 -0.1688513 0.18871632 0.60678023 -0.27353448
0.058438875 -0.012166303 -0.127045 0.23522909 0.15265334 0.068935126 0.18621767 -0.10792314
-0.19982933 0.04117099 0.28327084 0.16374198 0.0705413 -0.2153475 0.05445003 0.0800764

Nnet.Hidden_layer_3.bias f4 [30]
00000000: d0c1 243e b18e a43c 8eb5 163e 0fdb de3d
00000010: 301a 243e afde 16be 9192 46be a54f c6bd
00000020: 36ea eebd 55fa c73c 11d8 e2bd 46aa d6bd
00000030: d87f 9dbd 501e 98bc 2bbe b43d 761f cb3d
00000040: 7a93 8bb9 44c7 153e 852a 39be fc92 f9bd
00000050: 9b48 f63d 7e0f f83d b8a8 05be 6d9a bf3c
00000060: 7d4c 373d afa8 32bd 3cce a63b 1182 593d
00000070: 4e1c aabd e5b9 773c
0.16089559 0.020087572 0.14717695 0.10881626 0.16025615 -0.14733385 -0.19391848 -0.0968316
-0.11665766 0.02441136 -0.11076368 -0.10481696 -0.076904 -0.018569142 0.08825334 0.0991811
-0.00026622025 0.14626795 -0.18082626 -0.12186238 0.12025567 0.1211233 -0.13052642 0.023389066
0.04475068 -0.0436179 0.005090503 0.053102557 -0.0830618 0.015120004

Nnet.Hidden_layer_4.weight f4 [30, 30]
00000000: 9020 3c3d 4f59 4d3d 627b a5bd 93ed 733e
00000010: e94e 413e e2b8 cfbc c422 d83d c68b 6b3e
00000020: 8a80 38be 997c 81be 1844 993c ba98 11bd
00000030: 7b37 dc3d 3e89 9f3d f6ba acbd b555 f6bd
00000040: 3536 ad3d 6a08 f8bd 1974 cebd e77a 123d
00000050: eb07 0fbd 144b f63d 02e7 08be 7144 f6bd
00000060: 363c 1b3e 54d3 7c3e d3da 893e 07b4 993e
00000070: 6c52 5a3e 360a 58bd a1c1 4bbe ff58 083e
00000080: b3e5 abbe db2a 163e b042 c5bd bb6c e73e
00000090: 3b65 c9bd 2d6f f2bd 8e53 aebd 5711 833e
000000a0: 10a9 083d 3d74 75bd f946 7c3e 8a62 77bb
000000b0: 2bb9 d3bc 7ead 06be eb70 94bd da28 0b3d
000000c0: 8bc8 53be 8090 de3e 4b7c 0abe 1fc1 b33e
000000d0: 53e7 36bd 2d01 783e 7174 cfbe 432f 55be
000000e0: 8cb2 a03d ddf1 943c fc98 153d 5282 31be
000000f0: edf7 31be afe9 773d 452e e73d e056 02be
00000100: a81d aebc ec96 babc af4f 7fbc f171 d1be
00000110: 5993 a2bd 5cd4 883b da06 9d3d 5d5e 47be
00000120: 01dc 8d3e e618 5a3e 32d7 90be 6546 ba3e
00000130: 3c2c 8b3d 9d31 093e ebce 8e3d 2e73 673e
00000140: f5b0 9bbe a81d 693d aedc 2f3d 822d 80be
00000150: b661 dc3d ddf3 d4bd b958 ccbe 3449 08bd
00000160: 9e84 103d 9d88 923b b472 b63e 801e 0e3f
00000170: 99bd 88bd f45a 933e f417 0dbe ae97 3ebc
00000180: b932 953e 3560 4e3e 1d4d 523e 688d c2be
00000190: aa4f ddbc 1ea8 9bbb bccb 8abd 0351 673e
000001a0: 5613 0d3f 2342 d1be d261 5a3d 3907 63be
000001b0: 6afe 033d 0da5 b4be 8f28 c8bd 5ea4 6fbe
000001c0: d2d4 0bbe 2d53 a03e f6d1 12be e0bd f73e
000001d0: bb59 c33e ef44 ae3d afb8 ad3e c83f b23e
000001e0: 32af 083d e859 7f3e 2ca6 a1be 4ebc 02be
000001f0: 7cd0 9bbd c95f 983e 691e 0abd 379a 82be
00000200: 35cc 403e d6ac d1bd f1d9 78bd 26ae 2e3d
00000210: 05ae 4f3e c494 0f3e f2f2 2b3d e4a5 1b3e
00000220: 827b 14bd a04f 223e fcf8 f5bd 5ec7 b03e
00000230: e84c df3d e541 d93d aa19 743d d8ea e5bc
00000240: 9d2b b8be 21b6 fe3d dfbb a7bb 9bc4 733d
00000250: 0a79 5f3e 258c 43bd 793c 65bb c01c 96bd
00000260: 0e5c 9c3e 499b ca3c ec23 0f3e a26b d5be
00000270: 495d 173e 485a 033e 8572 82bd 7dac 30be
00000280: 0c69 debc f9a4 d8bd 01c6 91be 3647 49be
00000290: c0a4 e5bd 10ab 18be 7b6b aa3d 47cc 873e
000002a0: 0904 f7bd 0701 8cbe 7bc2 b03e c5a5 e5ba
000002b0: 06e1 01be 3a35 cdbd 7336 a53e 96d8 8f3d
000002c0: ad82 b13a 9c0b b53c e2d3 e13c cba4 793d
000002d0: 6ce7 42be f039 a03d a2d5 71bd 3410 973d
000002e0: 19da 653d be56 ad3e ced6 643c c149 483d
000002f0: cead c0bd 9bf5 ed3e 8225 0fbe 4a30 e43c
00000300: 3c1b 7e3e 9f3b 1ebc a341 f6bd 0548 643e
00000310: 6928 5b3d b804 6a3d 7d41 d8bd e158 ab3d
00000320: eb88 bebd 5d72 00b9 d4ed a83e e7d0 eebd
00000330: 3d34 03bf cfb0 42be e078 31be bca1 5ebe
00000340: 35aa 5abe 6a11 32be cdb7 7cbe d7c1 89be
00000350: 501f 89bd 4f4b eebd 7f03 9fbd 1897 b63d
00000360: f8a2 7abd 65ae 32bd b359 d4be 82a6 ba3e
00000370: 2154 db3d 1339 97bc 1bf4 d6bc b482 5cbe
00000380: bac7 20bc d377 a53c f483 283d a6c9 b53d
00000390: 8384 d6be da46 bb3e 6b65 79be 11c1 823e
000003a0: f448 0c3e 7680 023e 307a 41be d49d 09bf
000003b0: 9a10 3ebe dd06 72be 21ba 09bf bd20 3cbe
000003c0: b690 643d 1f07 abbe 93d4 7b3e 53e6 b7bd
000003d0: 03e6 fe3d 033f 6bbe 513b 96be df3d 51bd
000003e0: a05c c23c aedc 09be 7dda da3d 08aa e1bd
000003f0: fed3 a0be 0121 94be 4824 41be 8929 d1bd
0.04592949 0.050134 -0.08080174 0.23821096 0.18877758 -0.025356714 0.10553506 0.23002538
-0.18017784 -0.25290373 0.018709227 -0.035546042 0.107527696 0.07789849 -0.084340975 -0.12028066
0.08457605 -0.1211098 -0.100807376 0.03576174 -0.03491966 0.12026039 -0.13369372 -0.12024773
0.15159687 0.2468999 0.26924762 0.30020162 0.21320504 -0.052744113 -0.19898082 0.133152
-0.33573684 0.14664786 -0.0963186 0.45200142 -0.09833761 -0.11837611 -0.085120305 0.25599167
0.033364356 -0.059925307 0.24636449 -0.0037747943 -0.02584513 -0.1315212 -0.072481 0.033974506
-0.2068197 0.4346962 -0.13523977 0.35108277 -0.0446542 0.24219199 -0.40518525 -0.2081881
0.07846555 0.018181736 0.03652285 -0.1733487 -0.17379732 0.060525592 0.11288122 -0.12728453
-0.021254376 -0.022777043 -0.015582963 -0.40907243 -0.079382606 0.004175706 0.076673225 -0.1946959
0.27706912 0.2129856 -0.2828918 0.36381832 0.067955464 0.13397832 0.0697306 0.22602531
-0.30408445 0.056913048 0.042935066 -0.2503472 0.107608244 -0.10398076 -0.3991144 -0.033272937
0.035282724 0.004471852 0.35634387 0.5551529 -0.06676788 0.2878033 -0.13778669 -0.011632843
0.2914026 0.20153888 0.20537229 -0.3799851 -0.027015526 -0.0047502657 -0.067771405 0.22589497
0.5510763 -0.4087077 0.053315945 -0.22170724 0.03222505 -0.35282174 -0.09773361 -0.23402545
-0.13655403 0.31313458 -0.14337906 0.4838705 0.38154396 0.08509242 0.33929965 0.34814286
0.033370204 0.2493664 -0.31572092 -0.12767145 -0.076081246 0.29760578 -0.033720408 -0.25508282
0.18827899 -0.10238044 -0.06075472 0.04264655 0.20281227 0.14021593 0.041979738 0.15200001
-0.0362506 0.15850687 -0.120103806 0.34527105 0.109033406 0.106082715 0.059594788 -0.028066084
-0.35970774 0.12437082 -0.0051188315 0.05951367 0.21823516 -0.047741074 -0.0034978671 -0.073297024
0.30538982 0.024732249 0.13978547 -0.4168368 0.14781679 0.12827408 -0.06369499 -0.17253299
-0.0271497 -0.10578341 -0.28471377 -0.19656071 -0.11213064 -0.14909005 0.083212815 0.2652304
-0.120613165 -0.27344534 0.34523377 -0.0017520717 -0.12683496 -0.10019918 0.32268104 0.07023732
0.0013542973 0.022100262 0.027566854 0.060948174 -0.19033593 0.07823551 -0.059041627 0.073761374
0.056116197 0.33855242 0.013967229 0.048898462 -0.094081506 0.46476445 -0.13979152 0.027855057
0.24815077 -0.009657769 -0.12024238 0.22293098 0.053505335 0.057133406 -0.10559366 0.08366562
-0.09303459 -0.00012249635 0.32993948 -0.11660939 -0.51251584 -0.1901276 -0.17331266 -0.21741384
-0.21353991 -0.17389455 -0.2467949 -0.269057 -0.066954255 -0.11635458 -0.07764339 0.089155376
-0.061190575 -0.043623347 -0.41474685 0.3645516 0.10709406 -0.018459832 -0.026239445 -0.21534234
-0.0098132435 0.020198738 0.041141465 0.08876352 -0.41897973 0.36577493 -0.24355094 0.25537923
0.13699704 0.12744316 -0.18894267 -0.5375645 -0.1856102 -0.2363543 -0.53799635 -0.18371864
0.05580207 -0.3340387 0.2459281 -0.08979478 0.12446215 -0.22973256 -0.2934213 -0.051084395
0.023725808 -0.13463089 0.106862046 -0.11018759 -0.31411737 -0.2893143 -0.18861496 -0.10213

Nnet.Hidden_layer_4.bias f4 [30]
00000000: f89c 9f3d c7ed 33be 9120 92bd c567 0e3d
00000010: a815 533e 98d8 2abd c28d 13be 3055 173b
00000020: 91e1 193e 5c2b 003d 8fe8 913d 96e1 46bc
00000030: 228f 3b3e 8364 52be fa78 933d e09d 933e
00000040: 4bf0 323e 7d50 d6bd b10d b83c 4552 91be
00000050: a757 543d 0098 01be 94e0 55bd 8d23 763d
00000060: f327 32be 2804 003e d045 0b3e a52e e2bd
00000070: 6dc3 f03d 9362 2d3d
0.07793611 -0.17571174 -0.07135118 0.03476693 0.2061373 -0.041710466 -0.14409545 0.0023091547
0.15027453 0.03129135 0.07124435 -0.012138745 0.1831632 -0.20546155 0.07200809 0.28831387
0.17474477 -0.10464571 0.022467466 -0.2838308 0.051841404 -0.1265564 -0.052216128 0.060092498
-0.17398052 0.12501585 0.1360085 -0.11044053 0.117560245 0.042330336

Nnet.Hidden_layer_5.weight f4 [30, 30]
00000000: 2b67 503d b57e 1bbd 60f3 14be b727 0bbe
00000010: 0cbb 123c da33 633e 7f00 0bbe 17fe d33d
00000020: 9d0a 88bc 007c 02be a850 0f3c f3f7 debe
00000030: ab56 c03d 2590 4a3e 0849 b3bd 8447 1e3d
00000040: b7db 36bd 5038 95bd d28a 943d af3c 06be
00000050: 7c25 2fbc 69ec 2b3d 1b7a 923d a106 59be
00000060: d059 26bd 2ed2 2dbe 380b 14be eef0 133e
00000070: fb84 32be 5422 543e 7ca5 2f3d 1ea8 23be
00000080: b013 e2bd 648d e43d 7082 60bd 34c5 6dbe
00000090: 66aa d53d ed5c 35be 82db b6be dd86 233d
000000a0: a028 bbbe aece 2bbe 944b 3c3e dcc5 593d
000000b0: a127 a73e 82f0 343e b3b3 093e 2f3c 3f3e
000000c0: 3958 3abd 05db 693e fc34 9dbd 0810 1ebe
000000d0: 7444 36be c1e2 c9bd 99f5 a53d 3b23 2f3d
000000e0: 05f1 61bd fae1 8cbe 863c dc3d 85c8 20be
000000f0: fba2 2fba 136d 1a3e 7ff4 0fbd 1e5f 90be
00000100: 7449 863d 302b 3c3e a38b a4bd 022e 0fbe
00000110: 5e02 273e 8832 94be de81 843e 4f68 d5be
00000120: f162 dabd 2d19 193e 74ea 793e 9f09 3abe
00000130: e15f 2a3e da2d 20bd ddce 97bd eb4a 063e
00000140: b310 16be d1c9 d73d 2085 b9bd 53b1 21be
00000150: c7bc 4cbd 8acc 90bd 5dd6 32be 05c7 96bc
00000160: e702 48be a5e7 2e3e 100f d13d 6582 eebd
00000170: 36bc 00bd 9d56 8abd f1d0 8a3e dfc6 173e
00000180: 2719 58be 4272 513d 7c13 5e3e 5487 b6bd
00000190: 3405 193b f970 b5be 5c77 923d e73f 8cbe
000001a0: c03b 6d3e 980a df3d 4797 943e b7c5 d1bc
000001b0: 7e88 cd3d ad9e 3cbe 58ad 96be c304 99be
000001c0: 3479 55be 8bf4 1abe 9145 b7bc 5afc 443e
000001d0: e482 323d 2237 6f3d b8e0 91be 1148 053d
000001e0: 53e2 0f3e 6496 903e b4b0 003e bcc6 a8bc
000001f0: 996b f83c 10aa aa3e e169 d3be 1a0a c1be
00000200: ce35 0e3e a305 9dbe f917 c33c 5507 3dbe
00000210: a226 b4bd 1748 bf3c af01 bcbc 9cf2 ac3d
00000220: 3976 e3bc c649 e6bd f8a7 523e 7596 d3bd
00000230: bfe7 44be ac94 ecbd c09e 3dbe b94c aebe
00000240: e3d9 213e 38fe b4bc ab1d 68bc 525e 7e3e
00000250: 1bb7 05be a35e 603e 317a d63d fbcf bd3c
00000260: fbe4 18be dbf0 5e3e 61f0 7b3e e74a 873e
00000270: 5195 523d ad5e db3d 0685 b33e 9b9e 0b3d
00000280: 6524 103e 935a 9dbc b212 db3d a2aa 9bbd
00000290: a8b2 b6be 67df a73e 82f6 fd3d 463f 20be
000002a0: 5c1f 8b3e f251 41be 3c21 a63d a4da e4bd
000002b0: 6195 94bd b48f 2e3e 0ca1 d2bc a37b b83d
000002c0: be45 583d 5378 0a3e b80b e6bd 033c 993e
000002d0: 52f5 b0bd 1000 a93d a5e7 193e cd31 b0be
000002e0: 2ba9 513e 1764 87bf 84b0 353f 0901 163e
000002f0: 1bfc ecbe 870c 9b3e 19c6 c03d 424c d03e
00000300: 1a4b 29bd 15ea 963f b01b 6f3f 4aea 5abe
00000310: 808a 3a3d c874 b5bd 0bc0 72bf 9e03 eebe
00000320: 844a 27be e902 dcbd 6319 fe3e a65a 373d
00000330: 23d2 b1bd cc0f 0d3f 452d 3e3e e63a 1bbe
00000340: 2ba7 bb3e 2f73 7abf 0129 bd3c 353e 2bbe
00000350: d349 9a3d 28b3 d33d 9e5a 6c3d 14ea fb3e
00000360: 9089 35bf ddac 6ebe aa96 af3d 5a59 f5be
00000370: 7ec7 acbd ce08 36bd 288f 94be b879 b73e
00000380: 0c26 a8bd 8d97 da3d f985 9ebd 78de 1abc
00000390: e77b 1c3f bb69 c8be 799a aa3d 97da 4fbd
000003a0: ae78 02be 7bd1 84bc c15c de3d 83d9 06bf
000003b0: 583a 8c3e a431 a53e 1199 8f3b 19b4 d43e
000003c0: ad25 153d 64e8 2abe 26cd db3c b7b6 5f3d
000003d0: bc79 f7bc 9ec8 6bbe 708a 8d3e 05a2 c5bd
000003e0: b3ad 3e3e ffbf d13d 9936 38be b420 a63e
000003f0: 5e54 b9bd b8d9 b6be 4ce3 b4bd e72e 833e
0.05087964 -0.037962634 -0.14545965 -0.13589369 0.008955728 0.22187749 -0.13574408 0.10351198
-0.016606623 -0.12742615 0.008747257 -0.43548545 0.093915306 0.1978155 -0.08754164 0.03864242
-0.04464313 -0.072861314 0.072530404 -0.13109086 -0.010690089 0.041973505 0.07152196 -0.21193935
-0.040612996 -0.16974708 -0.14457405 0.14447376 -0.1743354 0.2071622 0.042882428 -0.159821
-0.11038911 0.111597806 -0.054811895 -0.23219758 0.104328915 -0.1771123 -0.35714346 0.039923538
-0.36554432 -0.16778061 0.18388206 0.05316721 0.32647422 0.17669871 0.13447456 0.18675302
-0.045494292 0.22837456 -0.076761216 -0.15435803 -0.1779955 -0.09857703 0.08103485 0.042758208
-0.055161495 -0.27516156 0.107537314 -0.15701492 -0.0006700006 0.15080671 -0.03514528 -0.2819757
0.06556979 0.1837585 -0.08034446 -0.13982394 0.16309497 -0.28944802 0.2588033 -0.41681144
-0.10663403 0.1495101 0.24405843 -0.18167733 0.16638137 -0.039106227 -0.07412503 0.13114516
-0.14654808 0.1053654 -0.09058595 -0.157903 -0.04998472 -0.07070263 -0.17464586 -0.018405447
-0.19532357 0.17080553 0.10207951 -0.116459645 -0.031429492 -0.067548014 0.27112535 0.14821957
-0.21103345 0.051134355 0.2168712 -0.089125305 0.0023349049 -0.35437754 0.07151672 -0.27392504
0.23167324 0.108906925 0.29021665 -0.025606973 0.100357994 -0.18419905 -0.29429126 -0.29886445
-0.20847017 -0.15132348 -0.022372039 0.1923689 0.04358186 0.058402188 -0.2849176 0.03253943
0.1405118 0.2823974 0.12567407 -0.020602576 0.030324744 0.33332872 -0.41291717 -0.3770302
0.13887712 -0.30668363 0.023815142 -0.18459828 -0.08796431 0.023349805 -0.022950022 0.084447116
-0.027766334 -0.1124454 0.20571887 -0.10331432 -0.19229029 -0.115517944 -0.1851759 -0.3404291
0.15805773 -0.022093877 -0.01416723 0.24840668 -0.1305813 0.21911101 0.10472525 0.023170462
-0.14931099 0.21771567 0.24603416 0.26424333 0.05141193 0.10711417 0.35062426 0.034086805
0.14076383 -0.019208228 0.10696925 -0.07600905 -0.3568318 0.3278763 0.12400533 -0.15649137
0.27172363 -0.18878916 0.08111808 -0.11174515 -0.07255054 0.17047006 -0.025711559 0.09007957
0.052800886 0.13522463 -0.11232704 0.29928598 -0.08640541 0.08251965 0.15029772 -0.34412995
0.20474689 -1.057742 0.70972466 0.14648832 -0.4628609 0.30282995 0.09412784 0.4068318
-0.041331388 1.1790186 0.9340162 -0.21378437 0.04554224 -0.08860165 -0.94824284 -0.46487135
-0.16337019 -0.107427426 0.49628744 0.044764183 -0.086826585 0.5510223 0.18571956 -0.15159187
0.36650977 -0.97832006 0.023090841 -0.16722949 0.07533612 0.10336906 0.057703607 0.49202025
-0.7091303 -0.2330813 0.08573659 -0.47919732 -0.084364876 -0.04444199 -0.2901547 0.35835052
-0.08210382 0.10673437 -0.07740397 -0.009452455 0.6112656 -0.39143166 0.083302446 -0.050745573
-0.12741348 -0.01621317 0.10857535 -0.52675647 0.27388263 0.32264435 0.0043822606 0.41543654
0.036412884 -0.16690212 0.02683122 0.05461761 -0.030209415 -0.23025748 0.27644682 -0.096500434
0.18620948 0.102416985 -0.17989577 0.32446826 -0.09049295 -0.3571298 -0.08832416 0.2562172

Nnet.Hidden_layer_5.bias f4 [30]
00000000: e312 093e 11fb 26be 6d9e 053d 49c6 303d
00000010: 061e d43c 5890 763e b6a6 89bc 9947 4e3d
00000020: ae39 4c3d 8bb1 3cbe 29de 073e fb5f 0c3e
00000030: b8fa 84be 0e10 c1bd edab 24be 1a3c 4e3d
00000040: 64e8 55bd 935a 0f3e 264a 893d 4329 b6bd
00000050: 406a 203d 2191 abbd b55f 763c 8010 bcbd
00000060: ef5f 043e 855e fbbd c6ea 96bd 2fe8 b23d
00000070: 20ea eabd 3e6c 153e
0.13386111 -0.16306712 0.03262179 0.04315785 0.025893223 0.240785 -0.016803127 0.05036125
0.049859695 -0.18427102 0.13268341 0.13708489 -0.25972533 -0.0942689 -0.1608121 0.050350286
-0.052223578 0.13999395 0.06703596 -0.08894589 0.039163828 -0.083772905 0.015037467 -0.091828346
0.12927221 -0.122738875 -0.07368998 0.08735692 -0.11470437 0.14592072

Nnet.Output.weight f4 [2, 30]
00000000: 2672 a63c 3750 4f3d c288 803e e774 00bd
00000010: d2c1 893d be16 65be 19e6 b2be 784f df3c
00000020: 6806 a5be 8591 ca3d 3b63 953e 03fc 023d
00000030: f934 d63e 3774 13be 8c24 1ebe 5f47 66be
00000040: 3be1 6d3d 8276 8f3e 2cc7 43be b701 a2be
00000050: a5ce c9be 67ff 38be dd50 e03e a4d1 67be
00000060: f6b0 81be ca69 06be 452d 353e 2048 66be
00000070: 424f b13e 86b2 0fbe 5067 973c 2226 a3be
00000080: e750 d33d a25a cd3e 36eb a2bc 30be 7a3e
00000090: d190 553e a12b 6abe 5f4b 3bbe 5a03 f63d
000000a0: b045 cdbd 3524 ccbe 56c3 91be aa84 14bb
000000b0: 38c2 87be 9feb c1bd 58c6 073f 2645 ebbd
000000c0: db7c c6be 8d27 923e 078e 58be e284 c0ba
000000d0: 33b0 2fbe a868 c3bd 1481 623e 8dd6 14be
000000e0: 5046 253e 7c36 b83c 6297 013e c081 a53e
0.020318102 0.05061361 0.25104338 -0.031361487 0.067264214 -0.22371957 -0.34941176 0.027259573
-0.3223145 0.09891037 0.2917727 0.03197862 0.4183729 -0.14399801 -0.15443629 -0.22488163
0.058076125 0.28020102 -0.19118947 -0.31641933 -0.3941547 -0.18066178 0.43811694 -0.22638565
-0.25330323 -0.13126293 0.1769305 -0.22488451 0.3463078 -0.14032945 0.01848188 -0.3186503
0.10318165 0.4010821 -0.019887548 0.24486613 0.20856024 -0.22868206 -0.1829047 0.12012358
-0.100230575 -0.39871374 -0.28469342 -0.0022662082 -0.26515365 -0.09468769 0.53037024 -0.114877984
-0.38767132 0.285458 -0.21147929 -0.001468804 -0.17157058 -0.09541446 0.22119552 -0.1453497
0.16140103 0.022486918 0.12655404 0.32325554

Nnet.Output.bias f4 [2]
00000000: 3bd8 c1bd 471c 01be
-0.09465071 -0.12608443
