PINN/GPINN.pt (torch, 19301 bytes, 12 tensors)

Nnet.Hidden_layer_1.weight f4 [30, 2]
0	0xb914a10b	-0.00014174373
1	0x3f270752	0.65245545
2	0xbd784be2	-0.060619242
3	0x3f468767	0.7755036
4	0x3ea37841	0.31927684
5	0x3ed34d77	0.41270038
6	0x3ea835e4	0.32853615
7	0xbe941679	-0.28923395
8	0xbe2a53f9	-0.16633596
9	0xbe0ab23f	-0.13544558
10	0xbf596276	-0.84915864
11	0x3f511974	0.81679463
12	0x3e6c5b46	0.23081693
13	0xbf512292	-0.81693375
14	0xbf31322d	-0.6921719
15	0xbf5350b4	-0.8254502
16	0x3a19b012	0.00058627233
17	0xbee63a04	-0.44966137
18	0xbf504d5e	-0.8136805
19	0xbe90dc56	-0.28293103
20	0xbe7d36fa	-0.24728003
21	0x3e96ab60	0.29427624
22	0x3eb1141b	0.34585652
23	0x3f2c4aaa	0.6730143
24	0xbf1feff2	-0.624755
25	0xbebb0677	-0.3652837
26	0xbf2ad64a	-0.6673323
27	0xbe5dc8ff	-0.21658705
28	0xbf4392de	-0.76395977
29	0x3f58fbd3	0.84759253
30	0xbf63fc39	-0.89056736
31	0x3ed0c360	0.4077406
32	0x3ec39fdb	0.38207898
33	0xbeba2519	-0.36356428
34	0x3f15649f	0.5835666
35	0x3f32d7b5	0.6986039
36	0xbecc5d99	-0.3991516
37	0xbef7bffd	-0.48388663
38	0xbef09a90	-0.46992922
39	0xbf238d70	-0.6388769
40	0xbeca5953	-0.39521274
41	0x3debbe7e	0.11510943
42	0xbeb8e038	-0.36108565
43	0x3f593cf6	0.84858644
44	0x3e0dc22f	0.13843606
45	0xbecdf5a6	-0.40226477
46	0xbf5d5816	-0.86462533
47	0xbba22447	-0.0049481723
48	0x3f4160c2	0.75538266
49	0xbece8b9f	-0.40340897
50	0x3f27de6f	0.6557378
51	0x3f302a88	0.688149
52	0xbf04e11f	-0.5190601
53	0xbf2a2547	-0.6646313
54	0x3f59c6f6	0.85069215
55	0x3f263e40	0.64938736
56	0xbf038544	-0.5137522
57	0x3f6c5788	0.9232106
58	0xbf4580e8	-0.7714982
59	0x3db516d2	0.08842243

Nnet.Hidden_layer_1.bias f4 [30]
0	0xbe6e9eb2	-0.23302725
1	0xbddc8be4	-0.107688695
2	0x3e2dbd2b	0.16966693
3	0x3f27636d	0.65386087
4	0x3e1e28e1	0.15445282
5	0x3d3f2d7a	0.04667423
6	0x3f231e97	0.6371855
7	0xbf2c2bbe	-0.67254245
8	0x3ebf21b0	0.3733039
9	0x3efcd8fa	0.4938429
10	0x3f2d355d	0.6765955
11	0xbf13283a	-0.57483256
12	0x3efb3539	0.49064043
13	0x3f444a38	0.7667575
14	0xbf158854	-0.58411145
15	0xbf03f507	-0.5154576
16	0xbe9e4fbb	-0.30920205
17	0xbee6c9eb	-0.45075926
18	0xbe50fc10	-0.20408654
19	0x3eb71955	0.35761514
20	0xbdef9087	-0.11697488
21	0x3e0a9d3f	0.13536547
22	0xbf234d24	-0.6378958
23	0xbdd39b24	-0.10332325
24	0x3d95a83b	0.07307478
25	0x3f1ed5c7	0.6204495
26	0xbe57d403	-0.2107697
27	0x3f14f65a	0.581884
28	0xbea34270	-0.31886625
29	0x3ef534db	0.47891888

Nnet.Hidden_layer_2.weight f4 [30, 30]
0	0xbd2b100f	-0.04176336
1	0xbe1c9de3	-0.15294604
2	0x3eb4aa07	0.3528597
3	0x3e95444f	0.29153678
4	0xbd53dd23	-0.051724564
5	0xbe279aef	-0.16367696
6	0x3e70bb5a	0.23508969
7	0xbe487188	-0.19574559
8	0x3daa652b	0.083200775
9	0xbe689040	-0.22711277
10	0xbb1af242	-0.0023642932
11	0xbdd11871	-0.1020974
12	0xbe55b09d	-0.20868154
13	0xbbbd5379	-0.005777773
14	0xbeac5314	-0.33657134
15	0xbeb78dd7	-0.35850403
16	0x3da2baa4	0.07945755
17	0xbd137f95	-0.036010344
18	0xbe3d0596	-0.18459162
19	0x3e15c8b9	0.14627351
20	0xbef17363	-0.47158346
21	0xbe900496	-0.281285
22	0x3d944434	0.07239571
23	0xbef87346	-0.48525447
24	0x3efc14d6	0.49234647
25	0x3e9f702b	0.31140265
26	0xbe622e67	-0.22088014
27	0x3e9b97a1	0.3038912
28	0xbe8625a5	-0.26200595
29	0xbdac133c	-0.08402106
30	0xbddb20c1	-0.10699607
31	0xbd029f72	-0.03189034
32	0x3d86270e	0.06550418
33	0xbd30fcfe	-0.043210022
34	0x3d543e0e	0.051816992
35	0xbe394fb7	-0.18096815
36	0x3cb1c7ec	0.021701775
37	0x3c583496	0.013196131
38	0x3c8d34aa	0.017237026
39	0xbe447f70	-0.19189239
40	0xbe061232	-0.13092878
41	0xbe80ba58	-0.2514217
42	0xbd676143	-0.05648924
43	0xbd96bcee	-0.07360254
44	0xbd0c4ac9	-0.03425101
45	0xbe95106c	-0.2911409
46	0x3eb4d505	0.3531877
47	0x3df6d10f	0.120515935
48	0x3e109178	0.14117992
49	0x3da9011a	0.08252163
50	0xbc0014bd	-0.007817444
51	0xbe26da2e	-0.16294166
52	0x3e22500f	0.15850852
53	0xbe0b269c	-0.13588947
54	0x3e9fa255	0.31178537
55	0x3cbbb92b	0.022915443
56	0x3e1afd90	0.15135789
57	0xbdfdc81b	-0.12391683
58	0xbe709eae	-0.23498031
59	0xbe7e7655	-0.24849828
60	0xbcf068e1	-0.029346885
61	0xbd66fa9f	-0.056391355
62	0xbd032120	-0.032014012
63	0xbe4b0cd1	-0.19829108
64	0xbd6095a6	-0.054830216
65	0xbefbe42a	-0.49197513
66	0xbda3f4b5	-0.080056585
67	0x3e4688f6	0.19388184
68	0xbe148b5b	-0.14506285
69	0xbe6acd21	-0.22929813
70	0xbe2ce348	-0.16883576
71	0x3e99a144	0.30005848
72	0xbea4b733	-0.3217102
73	0xbeb06de6	-0.34458846
74	0xbe3d1c86	-0.18467912
75	0xbcd2e0f8	-0.02574204
76	0x3e5fe3f6	0.21864304
77	0x3e01b605	0.12667091
78	0xbe3849bb	-0.17996876
79	0xbe999ecd	-0.30003968
80	0xbdfe53e0	-0.12418342
81	0x3c03e7dc	0.008050885
82	0x3d345751	0.044028584
83	0x3dc4c877	0.09608548
84	0x3c36a419	0.011147522
85	0x3dbe2647	0.092846446
86	0x3dd228c3	0.10261681
87	0xbe874594	-0.2642027
88	0xbe8fe5f3	-0.28105125
89	0xbea0f830	-0.31439352
90	0xbc8c1009	-0.01709749
91	0xbea61b46	-0.32442683
92	0x3d136ce1	0.035992507
93	0xbd56136d	-0.05226462
94	0xbd71a87f	-0.05899858
95	0xbdb04349	-0.086065836
96	0x3dcbc599	0.09949798
97	0x3c0c94fd	0.008580443
98	0x3e9ecd02	0.31015784
99	0x3d59eff5	0.053207356
100	0xbd67c8ac	-0.05658786
101	0xbe1e942b	-0.15486209
102	0x3c9e35ad	0.019312704
103	0x3da0836b	0.07837566
104	0xbddad467	-0.10685044
105	0x3dbf943f	0.093544476
106	0x3dc31588	0.09525591
107	0xbe560478	-0.20900142
108	0x3e802a89	0.25032452
109	0x3d6cb138	0.057786196
110	0xbd2655ab	-0.040609043
111	0xbe1729a1	-0.14761974
112	0x3eae5157	0.34046432
113	0xbbb072ca	-0.0053847777
114	0xbdb73ffb	-0.0894775
115	0xbe30e672	-0.17275408
116	0x3d9023de	0.07038091
117	0xbe7ee89c	-0.24893421
118	0xbebfd3bb	-0.37466225
119	0xbd82490d	-0.063615896
120	0x3dcfa43f	0.10138749
121	0xbdb57857	-0.08860844
122	0xbd37afe1	-0.044845466
123	0x3e05480e	0.13015768
124	0x3e3d41f4	0.1848219
125	0x3e1c4a9e	0.15262839
126	0x3d412c5d	0.04716145
127	0x3d84e6ec	0.06489357
128	0x3e581da7	0.21105061
129	0x3e757183	0.23969083
130	0xbde636b0	-0.112408996
131	0x3d7f104a	0.062271394
132	0x3e163060	0.14666891
133	0x3e2a2828	0.16616881
134	0xbdf1eb08	-0.11812407
135	0x3d1f2d26	0.038861416
136	0x3dca66c9	0.09882886
137	0xbdd2e506	-0.10297589
138	0xbdb3c5bb	-0.087779485
139	0x3de476c1	0.11155463
140	0x3d4b40b7	0.049622264
141	0xbe36e4ae	-0.17860672
142	0x3e132e52	0.14373139
143	0x3e1733b0	0.14765811
144	0x3dc93acd	0.098256685
145	0xbdb0509c	-0.08609125
146	0x3de71ca7	0.11284762
147	0x3d4bd023	0.04975904
148	0xbe2530d4	-0.16131908
149	0x3c3ab198	0.011394881
150	0x3e744ef2	0.2385824
151	0x3e95c7ae	0.29253906
152	0x3e1bc6c0	0.15212536
153	0xbe414a5b	-0.1887602
154	0xbdf8df05	-0.121519126
155	0x3f24a8fd	0.64320356
156	0xbe86f5f3	-0.2635952
157	0xbd2a7381	-0.04161406
158	0xbeaa0a9a	-0.33211213
159	0x3e92975e	0.2863111
160	0x3db31bd9	0.08745546
161	0x3dd9297a	0.10603614
162	0x3c6c5230	0.014423892
163	0x3e02ffe8	0.12792933
164	0x3e9ac89b	0.30231175
165	0x3e9564cd	0.29178467
166	0xbf03b3fc	-0.5144651
167	0xbd9718f6	-0.07377808
168	0x3cb99044	0.022651799
169	0xbcabe405	-0.020982752
170	0x3ec80338	0.39064956
171	0x3eb17992	0.34663063
172	0xbd8a6f2e	-0.06759487
173	0x3e9dacf9	0.3079603
174	0xbee7257b	-0.45145783
175	0xbe448ef7	-0.19195162
176	0x3ca45aa7	0.020062758
177	0xbe66b704	-0.22530752
178	0x3e8232f6	0.25429505
179	0x3e8d0bb0	0.2754798
180	0xbd9953b8	-0.07486671
181	0x3db3dad5	0.08781973
182	0xbe18e365	-0.14930494
183	0xbd1aa5f6	-0.03775593
184	0x3e6c30d9	0.23065509
185	0x3f0554f9	0.52082783
186	0x3e40b6ce	0.18819734
187	0xbdc96b56	-0.09834926
188	0xbda85f24	-0.08221272
189	0x3e00f523	0.12593512
190	0x3ecd50af	0.4010062
191	0xbdd9007b	-0.10595795
192	0x3d5c905c	0.05384861
193	0x3e119978	0.142187
194	0x3d610c61	0.054943446
195	0x3dcf04d5	0.101083435
196	0xbef9299a	-0.48664552
197	0xbe370a5d	-0.17875047
198	0x3da7873d	0.081800915
199	0x3e45e357	0.19325005
200	0x3def61ee	0.116886005
201	0x3e9b99e9	0.30390862
202	0xbebf7d51	-0.37400296
203	0x3e2f1499	0.17097701
204	0xbe739e02	-0.23790744
205	0x3e8a9879	0.27069452
206	0x3dc779a0	0.09739995
207	0x3d5fc908	0.054635078
208	0x3d950e7b	0.072781526
209	0x3e976171	0.2956653
210	0x3ebcfc49	0.36911228
211	0x3cf32d08	0.029684559
212	0x3e23633e	0.15955827
213	0xbd6e0d89	-0.058118377
214	0xbdb6ac38	-0.08919567
215	0x3e040772	0.12893465
216	0xbe84c1fe	-0.25929254
217	0x3e2c069a	0.16799393
218	0xbebf8aa1	-0.37410453
219	0xbe84a215	-0.2590491
220	0xbe726d5a	-0.23674527
221	0x3ddb4c22	0.107078806
222	0x3d055df8	0.03256032
223	0xbe837eda	-0.25682718
224	0x3ef24135	0.47315374
225	0x3e9be8b9	0.3045099
226	0x3c05164c	0.008122992
227	0x3d6d925b	0.058000904
228	0x3e2d801b	0.169434
229	0xbdc43cbe	-0.09581898
230	0x3ac8f75d	0.0015332509
231	0x3e48ba3f	0.19602297
232	0x3db4dcf0	0.08831203
233	0x3e6b0dad	0.22954436
234	0xbe37d78e	-0.17953321
235	0x3aa43366	0.0012527525
236	0x3d595e67	0.053068545
237	0x3c9ca5e5	0.019122073
238	0x3e84c6e5	0.25932994
239	0x3d028c7b	0.031872254
240	0x3eb12026	0.3459484
241	0x3ebe7a13	0.3720251
242	0x3e7d73ee	0.24751255
243	0xbd468f63	-0.048476588
244	0x3e13f01d	0.14447065
245	0x3eb60036	0.35547036
246	0xbda71a32	-0.08159293
247	0xbe94213c	-0.28931606
248	0xbdece124	-0.1156638
249	0xbe0ee67a	-0.13955107
250	0x3e46c1d3	0.19409876
251	0x3cd84f31	0.026404949
252	0x3d72814e	0.059205346
253	0x3e7d0e0b	0.24712388
254	0x3d17bd65	0.037045855
255	0xbd527808	-0.051384002

Nnet.Hidden_layer_2.bias f4 [30]
0	0xbdf1bb6c	-0.11803326
1	0x3be2a8cd	0.0069170953
2	0xbe6918c0	-0.22763348
3	0xbd16c0e5	-0.036805052
4	0xbdb6b890	-0.08921921
5	0x3dd768ad	0.10518012
6	0x3e1c9492	0.1529105
7	0xbde9c69f	-0.11414837
8	0x3e94bbd8	0.29049563
9	0x3db0f71b	0.08640882
10	0xbdcabcc1	-0.09899283
11	0x3e20e1ea	0.1571118
12	0x3e0b1c9b	0.13585131
13	0xbe53a835	-0.20669635
14	0x3d6ea199	0.05825958
15	0x3e192321	0.14954807
16	0x3de0d15e	0.109774336
17	0x3de4576f	0.11149489
18	0xbd9b0ed1	-0.075711854
19	0x3e5449d5	0.2073129
20	0x3e9eebf1	0.31039384
21	0x3e1bce35	0.1521538
22	0x3cf73e61	0.030181112
23	0x3d94c9d8	0.07265061
24	0xbe8520c4	-0.2600156
25	0xb92cd3d0	-0.00016482105
26	0x3d9d3233	0.0767559
27	0x3e2025b9	0.1563939
28	0x3eaa972b	0.33318457
29	0x3d01db55	0.031703312

Nnet.Hidden_layer_3.weight f4 [30, 30]
0	0x3eaec2cc	0.34132993
1	0x3e19a466	0.1500412
2	0x3b134561	0.0022471773
3	0xbd4f1f39	-0.050566886
4	0xbe4f60ef	-0.20251821
5	0xbe138d92	-0.14409474
6	0xbea3ad29	-0.31968048
7	0x3e0460ff	0.12927626
8	0x3d62d193	0.055375647
9	0xbdcb6eb8	-0.09933227
10	0xbe359986	-0.17734346
11	0x3df62722	0.12019183
12	0x3e768931	0.24075772
13	0x3e4056dd	0.18783136
14	0xbe8bbcd4	-0.27292502
15	0xbdc6232b	-0.096746765
16	0x3e0d5134	0.13800508
17	0x3e1a0936	0.15042576
18	0x3e6e3c03	0.2326508
19	0xbd52bbce	-0.051448636
20	0x3db3d71a	0.08781262
21	0xbda18585	-0.07886795
22	0xbba1855f	-0.004929229
23	0x3ea07d71	0.31345704
24	0xbd74c63b	-0.05975936
25	0xbe9c68b5	-0.30548635
26	0xbe8360bc	-0.2565974
27	0xbe8eb62c	-0.2787336
28	0xbd017ab5	-0.031611163
29	0x3e1dc14e	0.15405771
30	0x3ee508b0	0.4473319
31	0x3dc65267	0.09683686
32	0xbb9b8145	-0.0047456347
33	0xbe8aaadc	-0.2708348
34	0xbda13ab7	-0.07872527
35	0xbe3ef35f	-0.18647526
36	0xbe0baa15	-0.136391
37	0x3d857028	0.06515533
38	0x3cca9ec7	0.024733914
39	0xbe8f0b0d	-0.2793812
40	0xbe85446d	-0.26028767
41	0x3ebc5bc3	0.3678876
42	0x3e6405d2	0.22267845
43	0x3df4050d	0.11915026
44	0xbeaad5ac	-0.33366144
45	0xbde805cd	-0.113292314
46	0x3d0fc756	0.03510221
47	0x3e9e1c23	0.30880842
48	0x3ee7a167	0.45240328
49	0xbe944ec5	-0.28966346
50	0x3d857202	0.06515886
51	0x3dc82ea2	0.097745195
52	0xbd92b3bb	-0.07163187
53	0x3e9e4037	0.30908367
54	0xbe3df4dd	-0.18550439
55	0xbd7c482c	-0.061592266
56	0xbe2c32c6	-0.16816244
57	0xbec9e480	-0.39432144
58	0x3d8173b1	0.063208945
59	0x3e03c8f0	0.1286962
60	0x3e6b1e80	0.22960854
61	0xbe5c91f1	-0.21540047
62	0xbeabfd05	-0.33591476
63	0x3e0be8cd	0.13663025
64	0x3ddb4b6f	0.10707747
65	0xbe88e8f3	-0.26740226
66	0x3eaf08a5	0.34186283
67	0xbdc25cf0	-0.09490383
68	0xbd3930b8	-0.045212477
69	0x3ea03dfc	0.3129729
70	0xbe9d17b5	-0.3068215
71	0x3e2437c1	0.16036893
72	0x3c92fda9	0.01794322
73	0xbea8cc95	-0.32968584
74	0x3e0bf5b1	0.13667943
75	0x3e260162	0.16211465
76	0xbcefb657	-0.029261751
77	0xbe068adb	-0.13138907
78	0xbe2d060f	-0.16896842
79	0x3eb051e5	0.3443748
80	0x3eb66acd	0.35628358
81	0x3e843b2f	0.25826403
82	0xbe7902ba	-0.24317446
83	0x3da06d96	0.07833402
84	0xbe8c6df3	-0.27427635
85	0xbdda2366	-0.10651283
86	0x3e5c7dde	0.2153239
87	0xbe166d20	-0.14690065
88	0x3e9cdf23	0.3063899
89	0xbda67535	-0.08127824
90	0x3e56bbcd	0.20970078
91	0x3e9f83a4	0.3115512
92	0x3e98bf72	0.2983356
93	0x3c6bb42d	0.014386219
94	0x3ba27b5c	0.0049585532
95	0xbe98fc45	-0.29879966
96	0xbe7a9e69	-0.24474491
97	0xbe20b1b3	-0.15692787
98	0xbd173bcc	-0.03692226
99	0xbaded22d	-0.0016999893
100	0x3dca673d	0.098829724
101	0x3e1323a7	0.14369069
102	0xbe3a4002	-0.1818848
103	0x3c839e85	0.016066799
104	0xbd4a65c3	-0.049413454
105	0x3e883ce3	0.26608953
106	0x3d1ed13a	0.038773753
107	0x3ddd8535	0.10816423
108	0x3e2a6b4c	0.16642493
109	0xbdbc2f1f	-0.09188675
110	0x3d95e0c5	0.07318262
111	0x3def2177	0.11676305
112	0xbe19bdf3	-0.15013866
113	0xbd8be604	-0.068309814
114	0x3dda4342	0.1065736
115	0x3e81987d	0.25311652
116	0x3df16e84	0.11788657
117	0xbd473ccc	-0.048641965
118	0xbeeaad63	-0.4583541
119	0x3e9e3856	0.30902356
120	0x3eb26a4c	0.34846723
121	0x3e321980	0.1739254
122	0x3ce0f42f	0.027460186
123	0xbe6fcf5b	-0.23418944
124	0xbd2997ac	-0.04140441
125	0xbe5266fc	-0.20547098
126	0xbe0c0048	-0.13671982
127	0xbe3da5f6	-0.1852034
128	0xbde34545	-0.110971965
129	0xbe41d1de	-0.18927714
130	0xbe100ef2	-0.14068201
131	0x3e5d763b	0.21627133
132	0x3c1d60ba	0.009605581
133	0x3e6566ec	0.22402543
134	0xbdf09690	-0.117474675
135	0x3e19e062	0.15027002
136	0x3e63b2a5	0.22236116
137	0x3e7ddae2	0.24790528
138	0x3d90bfda	0.07067843
139	0xbddde250	-0.10834181
140	0x3d3a12dd	0.045428146
141	0x3d8220a8	0.06353885
142	0x3e0962ce	0.13416597
143	0x3e57488a	0.21023765
144	0xbdde4615	-0.10853211
145	0x3d16600a	0.036712684
146	0xbd6182bc	-0.05505632
147	0xbe62bafd	-0.22141643
148	0xbdc19378	-0.094519556
149	0x3e5c982d	0.21542425
150	0x3e50ed5f	0.2040305
151	0xbd8d17e7	-0.06889325
152	0x3c29e67d	0.010369894
153	0x3c9a14d7	0.018808765
154	0x3ea11254	0.31459296
155	0xbbf356a7	-0.0074261012
156	0xbd818c41	-0.063255794
157	0xbe925687	-0.2858164
158	0xbd3559b2	-0.044274993
159	0x3dbc9ca3	0.092095636
160	0x3e1082ac	0.14112347
161	0x3dc6c2fb	0.09705158
162	0xbe6d4060	-0.23169088
163	0xbdf176be	-0.117902264
164	0x3dc748bf	0.09730672
165	0x3e7556a8	0.23958838
166	0xbe1fab3c	-0.15592664
167	0xbe955044	-0.291628
168	0x3d2478c4	0.040154234
169	0x3e62d303	0.22150807
170	0x3d1bcdcb	0.038038056
171	0x3e140cc3	0.14457993
172	0xbcebcbda	-0.028783727
173	0xbe3e1534	-0.18562776
174	0xbdbdef87	-0.09274202
175	0x3c37a578	0.011208884
176	0x3e6d4ad2	0.23173073
177	0xbd9a8b61	-0.07546116
178	0x3d04bb15	0.032404978
179	0xbd2cda25	-0.042200226
180	0x3ebc133d	0.36733428
181	0x3d4e7a2b	0.050409477
182	0xbd8a1fe5	-0.06744365
183	0xbdb98cb9	-0.09060044
184	0xbd5f7ad0	-0.054560483
185	0xbe0ac27a	-0.1355075
186	0xbe0ec24a	-0.13941303
187	0xbbeb78d5	-0.007186035
188	0xbbfab20f	-0.007650621
189	0xbe030072	-0.12793139
190	0x3def5517	0.116861515
191	0x3e7f59fe	0.24936673
192	0x3d4c9b7a	0.04995296
193	0x3e52f34c	0.20600623
194	0xbdef06a1	-0.11671186
195	0xbe2e36a5	-0.17013033
196	0x3d0fb881	0.035088066
197	0xbd5a5862	-0.053306945
198	0x3e9795af	0.29606387
199	0xbe839a89	-0.25703838
200	0xbda356ae	-0.07975517
201	0xbd06a2f8	-0.032870263
202	0x3e3b85f7	0.18312822
203	0x3e8c742d	0.27432385
204	0x3e7ad6e1	0.24496032
205	0xbcdf9879	-0.027294384
206	0xbe300cb2	-0.17192343
207	0xbe625480	-0.22102547
208	0xbe0e3ded	-0.1389081
209	0x3e0fcc50	0.14042783
210	0x3e22d85f	0.15902852
211	0xbdaf5586	-0.08561234
212	0xbdbaed51	-0.09127296
213	0x3d8dd52f	0.06925427
214	0x3d85c38b	0.065314375
215	0xbe63163e	-0.22176453
216	0x3e6803f8	0.22657764
217	0xbe760c26	-0.24028072
218	0xbe116e4b	-0.1420223
219	0x3e700adf	0.23441647
220	0x3d4b57a0	0.049644113
221	0x3daae155	0.0834376
222	0xbe412e9b	-0.18865435
223	0xbbc63b9c	-0.0060495865
224	0x3e140e7b	0.14458649
225	0x3dbfb5a5	0.09360818
226	0xbd2e4cc7	-0.04255369
227	0xbe319c2f	-0.17344736
228	0x3e233b75	0.1594065
229	0x3ea1b18c	0.3158077
230	0x3e82f036	0.2557389
231	0x3ec0a50d	0.37625924
232	0xbe96a45e	-0.29422277
233	0xbdefe83f	-0.11714219
234	0xbe37a7ef	-0.17935155
235	0x3dbb4eb8	0.09145874
236	0x3e9f7f04	0.31151593
237	0xbdc02dd4	-0.09383741
238	0x3c933600	0.017970085
239	0xbdc42846	-0.09577994
240	0xbd70de1c	-0.05880557
241	0xbe49d69a	-0.1971077
242	0x3e26de0a	0.16295639
243	0x3e102267	0.14075623
244	0x3d54e9e7	0.05198088
245	0xbeccd0f2	-0.40003163
246	0xbea694e1	-0.3253546
247	0xbda3f2e5	-0.08005313
248	0x3e4cfd17	0.20018421
249	0xbdebbf96	-0.115111515
250	0xbe327d20	-0.17430544
251	0x3d84da6e	0.06486975
252	0xbd3dbe70	-0.046324193
253	0x3d719128	0.058976322
254	0xbe87d5da	-0.26530343
255	0xbe383f65	-0.17992933

Nnet.Hidden_layer_3.bias f4 [30]
0	0xbd6c3519	-0.057667825
1	0x3cc908d1	0.024540337
2	0x3d478638	0.048711985
3	0xbdb5d23e	-0.08877991
4	0x3e266a36	0.16251454
5	0x3d1a065d	0.037603725
6	0xbc43fbb1	-0.011961863
7	0x3dc7974a	0.09745653
8	0x3e63623b	0.2220544
9	0xbc3a578d	-0.011373413
10	0x3d0d6d23	0.03452791
11	0xbe128957	-0.14310203
12	0x3cca247a	0.024675597
13	0xbe206a3c	-0.15665525
14	0xbe5df309	-0.21674742
15	0xb92e6353	-0.00016630934
16	0x3ea4aa93	0.32161388
17	0xbe3ca98b	-0.1842405
18	0xbe1d2e5c	-0.15349716
19	0xba125428	-0.0005581998
20	0xbe4ccec8	-0.20000756
21	0x3dd1d38f	0.1024543
22	0xbe2a1fe0	-0.16613722
23	0x3e0ba085	0.13635452
24	0x3e1bfca8	0.152331
25	0xbe429558	-0.19002283
26	0xbd155e10	-0.036466658
27	0x3de74d64	0.11294058
28	0x3e0ed6ef	0.13949178
29	0xbdc75f8a	-0.097350195

Nnet.Hidden_layer_4.weight f4 [30, 30]
0	0xbe71e334	-0.23621827
1	0xbeec7fb8	-0.46191192
2	0xbdd809e9	-0.10548765
3	0x3c1ff4a7	0.0097629195
4	0xbe070fa0	-0.13189554
5	0xbc5b6827	-0.013391531
6	0xbe4cced6	-0.20000777
7	0x3e5f2dcc	0.21794814
8	0xbe90e093	-0.28296337
9	0x3d2cff5d	0.04223572
10	0x3e54d841	0.2078562
11	0x3e4adf2a	0.19811693
12	0x3eb94f06	0.36193103
13	0x3e2b28cf	0.16714786
14	0xba0d46f2	-0.0005389295
15	0x3dade08a	0.08490093
16	0xbab4ccec	-0.0013793982
17	0x3e7cf82d	0.24704047
18	0x3cd9d9d0	0.026593119
19	0xbdb63434	-0.08896676
20	0xbdab631e	-0.083685145
21	0x3d9178bc	0.071031064
22	0x3d891419	0.066932864
23	0xbc8d07b4	-0.017215587
24	0xbb14c8d9	-0.0022702722
25	0xb88122a9	-6.157655e-05
26	0x3e25041b	0.16114847
27	0xbe81117f	-0.2520866
28	0x3d7e433b	0.062075835
29	0x3d326f3c	0.043563113
30	0x3e8f5e95	0.28001848
31	0x3efbe904	0.49201214
32	0x3e9f42ff	0.311058
33	0xbe2f5df8	-0.1712569
34	0x3db2bdb4	0.08727589
35	0x3d135a11	0.035974566
36	0xbc9b37d1	-0.018947514
37	0x3e5cfe6d	0.2158143
38	0xbd8edf97	-0.0697624
39	0xbe374ceb	-0.17900436
40	0xbeb64986	-0.3560297
41	0xbe85a086	-0.26099032
42	0xbe74a732	-0.23891905
43	0xbe3f3522	-0.18672612
44	0xbea68507	-0.32523367
45	0x3d25fc46	0.04052379
46	0x3ea9b7b0	0.33147955
47	0xbd8a3009	-0.06747443
48	0x3ed83466	0.42227477
49	0xbd88f179	-0.06686682
50	0xbe125bec	-0.14292878
51	0xbdab038c	-0.08350286
52	0x3db0b32c	0.08627924
53	0x3cc0a641	0.023516776
54	0xbecb7faa	-0.39745837
55	0x3e42e6bf	0.19033335
56	0xbe06ac26	-0.13151607
57	0x3b6417e2	0.0034804274
58	0x3e8ce3f0	0.27517653
59	0xbe1a77bd	-0.15084739
60	0xbd0b3056	-0.033981644
61	0xbca31cbe	-0.019911166
62	0x3d74a2ee	0.059725694
63	0x3ecb939b	0.39761052
64	0xbcd84508	-0.026400104
65	0xbd3bae47	-0.0458205
66	0x3d5f20e1	0.054474715
67	0x3d735f37	0.059416976
68	0xbcd6726d	-0.02617761
69	0xbda6bb60	-0.08141208
70	0x3e9dd3c0	0.30825615
71	0xbdb369b5	-0.087603964
72	0xbc7a2951	-0.01526864
73	0x3e70b909	0.23508085
74	0x3ed7bf57	0.42138168
75	0xbdcd7afa	-0.100332215
76	0x3d2c20b5	0.04202338
77	0x3dce9d6b	0.10088619
78	0xbdb0cca1	-0.0863278
79	0x3e824c83	0.25449
80	0x3e88fb5e	0.26754278
81	0x3b97cf88	0.004632894
82	0xbdaf86e3	-0.085706495
83	0xbd26f595	-0.04076155
84	0x3db40f78	0.08792013
85	0xbd83caaa	-0.064351395
86	0x3e3efa6c	0.18650216
87	0x3d7d5eb9	0.061857913
88	0xbeb2aa03	-0.34895334
89	0xbdce63ed	-0.10077653
90	0xbe043e45	-0.12914379
91	0xbe3c2721	-0.18374301
92	0xbced25e1	-0.028948726
93	0xbe13a3bf	-0.14417933
94	0xbdce136c	-0.10062298
95	0x3e08faa6	0.13376865
96	0xbd646965	-0.055764575
97	0x3d9b909d	0.07595942
98	0xbd3b89d2	-0.045785733
99	0x3e56eb69	0.2098824
100	0xbe1bba97	-0.15207897
101	0x3db415f1	0.087932475
102	0x3df3c36d	0.11902509
103	0x3e2725b4	0.16322976
104	0x3da9d819	0.082931705
105	0xbe158ad0	-0.14603734
106	0xbe8eb0fc	-0.27869403
107	0xbde0ba79	-0.10973067
108	0xbe411edf	-0.18859433
109	0xbd878077	-0.066162996
110	0xbe437800	-0.19088745
111	0x3dc0b75d	0.09409974
112	0x3b1cf45f	0.0023949367
113	0x3c0680fd	0.008209464
114	0xbdf1d927	-0.11808997
115	0x3dabf8cc	0.083970636
116	0x3d991145	0.07473997
117	0xbde24507	-0.11048322
118	0xbd9638d3	-0.07335057
119	0xbd846567	-0.064646535
120	0x3d83fe54	0.064449936
121	0xbd1150b6	-0.035477363
122	0x3e57d035	0.21075518
123	0x3e5b8740	0.21438313
124	0xbdfa1280	-0.1221056
125	0xbe1d6b6f	-0.15373014
126	0xbe4bf784	-0.19918638
127	0x3da4ae77	0.08041089
128	0x3e97ab01	0.29622653
129	0xbe827c29	-0.25485352
130	0xbe2f20f8	-0.1710242
131	0x3ccd2683	0.025042778
132	0x3e0e5e72	0.13903216
133	0xbe9e3b1b	-0.3090447
134	0xbe8b1e36	-0.27171487
135	0x3bf67cb0	0.007522188
136	0xbe841842	-0.25799757
137	0xbe6a4883	-0.22879224
138	0x3ca87e7e	0.020568129
139	0xbb32b5f2	-0.0027269092
140	0xbe0710d2	-0.1319001
141	0x3e367f82	0.17822078
142	0xbe82bfef	-0.2553706
143	0xbeb13a16	-0.3461463
144	0x3d9943c3	0.07483628
145	0x3e6c7f77	0.23095499
146	0xbe60029a	-0.21875992
147	0xbe5b235c	-0.21400207
148	0xbd8aefdd	-0.067840315
149	0x3dd902b1	0.105962165
150	0xbdc311a7	-0.09524851
151	0x3e18bea8	0.1491648
152	0xbe7518e6	-0.23935279
153	0x3e0739d6	0.13205656
154	0x3c85aa80	0.016316652
155	0xbdc4bab3	-0.096059225
156	0x3e035861	0.12826683
157	0xbcf0de8e	-0.029402997
158	0x3e88dca6	0.2673084
159	0x3e0da256	0.13831457
160	0x3ef40ee8	0.47667623
161	0xbdbe8e5b	-0.09304496
162	0xbdb05592	-0.08610071
163	0xbe3707d7	-0.17874084
164	0xbcad7e89	-0.0211785
165	0xbdab70f6	-0.08371155
166	0xbc1d78d5	-0.009611328
167	0xbcf064df	-0.029344974
168	0x3ce5ff9a	0.028075982
169	0x3e6b19df	0.22959088
170	0x3e8a137d	0.26967993
171	0x3ceff059	0.029289411
172	0xbdc40082	-0.09570409
173	0xbe95cb0c	-0.29256475
174	0xbda684b7	-0.08130782
175	0x3e6c3ba7	0.2306963
176	0xbe0b3df1	-0.13597848
177	0xbe558084	-0.20849806
178	0xbe8d93fe	-0.27651972
179	0xbd429313	-0.047503542
180	0x3c5e87f3	0.0135822175
181	0xbde0c7b1	-0.10975588
182	0xbe0db6d9	-0.13839282
183	0xbe20c08f	-0.15698455
184	0xbd011c6c	-0.031521246
185	0x3da8ead0	0.08247912
186	0xbd7a1774	-0.061057523
187	0xbd8fb35d	-0.07016633
188	0x3e33832c	0.17530507
189	0xbdefc65b	-0.11707755
190	0xbe05e528	-0.13075697
191	0xbe3ad9d1	-0.18247153
192	0xbe5c682b	-0.21524112
193	0xbe86724f	-0.26259086
194	0xbe4616b7	-0.19344603
195	0xbe07314e	-0.13202402
196	0x3da5ce28	0.08095962
197	0xbe802ace	-0.25032657
198	0x3e61c6b9	0.22048463
199	0xbe67e53f	-0.22646044
200	0xbe60f453	-0.21968202
201	0x3d3edc57	0.04659685
202	0xbe11063a	-0.14162531
203	0xbe421edf	-0.18957089
204	0x3dd7b4a0	0.10532498
205	0xbc257551	-0.010098771
206	0xbe08bec0	-0.13354015
207	0x3db9cad8	0.090718925
208	0x3e62e43c	0.22157377
209	0x3ddeb90c	0.10875139
210	0xbe4a0592	-0.19728687
211	0xbd109283	-0.035295974
212	0x3e9ae542	0.30253035
213	0x3e01b6ae	0.12667343
214	0x3c938b29	0.018010693
215	0x3e00bea3	0.12572722
216	0xbe75e857	-0.24014412
217	0xbcd1ba5c	-0.025601558
218	0x3e08963b	0.13338558
219	0xbe7ef0d1	-0.24896552
220	0xbe1d155e	-0.15340182
221	0x3e20ded9	0.1571001
222	0xbdfde046	-0.123962924
223	0xbcbccb8e	-0.023046281
224	0x3b3f7bd0	0.0029218085
225	0x3deb3449	0.11484582
226	0xbde2498b	-0.110491835
227	0xbe8f8795	-0.28033128
228	0xbd996448	-0.0748983
229	0xbe597a0d	-0.21237965
230	0x3e24c77f	0.16091727
231	0x3def25a9	0.11677105
232	0xbd9375ec	-0.07200226
233	0x3cf72f17	0.030173821
234	0x3e6d6f99	0.23187102
235	0xbe5b571d	-0.2141995
236	0xbdf94a44	-0.12172368
237	0x3d0af71f	0.03392708
238	0x3c9ad61f	0.018900929
239	0xbddc8332	-0.10767211
240	0xbe2eb3c3	-0.17060761
241	0xbe8a7b7a	-0.2704733
242	0x3e99e363	0.30056295
243	0xbe8e7873	-0.2782627
244	0x3b93bc1b	0.004508508
245	0x3c995c92	0.018720899
246	0xbe8b45d1	-0.27201703
247	0x3d545e1c	0.051847562
248	0xbe177a8a	-0.14792839
249	0xbca827ef	-0.020526854
250	0xbe51d207	-0.20490275
251	0x3e3d64d5	0.18495496
252	0x3e9625eb	0.29325804
253	0x3d40b250	0.047045052
254	0x3daecbac	0.08534941
255	0x3dd22867	0.102616124

Nnet.Hidden_layer_4.bias f4 [30]
0	0x3d9e9cc4	0.077447444
1	0xbd858413	-0.06519332
2	0x3e292d4c	0.16521186
3	0x3e78711b	0.24261896
4	0x3d936076	0.07196133
5	0xbe3fa731	-0.18716122
6	0x3e3781e1	0.17920639
7	0x3d4f696e	0.050637655
8	0x3d999191	0.07498468
9	0xbe041657	-0.12899147
10	0xbd62d655	-0.055380184
11	0xbdebe9d5	-0.11519209
12	0xbdba4cdb	-0.0909669
13	0xbe869b3e	-0.26290315
14	0xbb291408	-0.0025799293
15	0x3e0d1cfc	0.13780588
16	0xbd772203	-0.06033517
17	0x3d0c626c	0.03427355
18	0x3e161731	0.14657284
19	0xbe5ffb17	-0.21873127
20	0x3e13a4a4	0.14418274
21	0x3e622cae	0.22087356
22	0x3e04f008	0.1298219
23	0xbc371f14	-0.011176843
24	0x3dc29a8d	0.095021345
25	0x3e0e0c82	0.13871959
26	0x3d3fad40	0.046796083
27	0x3d694a71	0.05695576
28	0xbcf26b12	-0.02959207
29	0x3e10241f	0.14076279

Nnet.Hidden_layer_5.weight f4 [30, 30]
0	0x3d8b895c	0.068133086
1	0x3e283ab2	0.1642864
2	0x3d49ab57	0.049235668
3	0xbea54168	-0.32276464
4	0xbe5115ce	-0.20418474
5	0x3b9329e6	0.0044910787
6	0xbe26ba3a	-0.16281977
7	0x3d51506a	0.05110208
8	0xbdf75062	-0.12075879
9	0x3e30c444	0.1726237
10	0x3e6469cb	0.22305982
11	0xbe7c990a	-0.24667755
12	0xbe860af6	-0.26180238
13	0x3dad3a2d	0.08458362
14	0x3e34a60d	0.17641468
15	0xbea1696e	-0.3152575
16	0xbdb4d847	-0.08830314
17	0xbe3d5724	-0.18490273
18	0xbb86e91c	-0.0041171443
19	0x3d703237	0.05864164
20	0xbe4c8488	-0.19972432
21	0xbcbbcb6b	-0.022924146
22	0xbdb476d4	-0.08811727
23	0x3e1710fd	0.14752574
24	0x3e772dd7	0.2413858
25	0x3ed84eb9	0.4224756
26	0xbe84de9a	-0.25951082
27	0x3e18326d	0.14862986
28	0x3e63735a	0.22211972
29	0x3d82f2f2	0.063939944
30	0xbb76e00f	-0.003767017
31	0x3c10a0ca	0.008827398
32	0xbda527f6	-0.080642626
33	0xbda71ab2	-0.081593886
34	0x3e0402f1	0.12891747
35	0x3da93359	0.08261747
36	0x3de366ac	0.111035675
37	0x3e85f71d	0.26165095
38	0xbd84e124	-0.06488255
39	0xbe05a236	-0.1305016
40	0x3def44f4	0.11683074
41	0x3e8bacdf	0.27280328
42	0x3e8fae59	0.28062704
43	0xbd766bb1	-0.060161296
44	0xbd267831	-0.040641967
45	0x3e5a7b12	0.2133601
46	0x3e40c231	0.18824078
47	0x3d921387	0.07132631
48	0xbdd8d0d7	-0.10586708
49	0xbe9102f0	-0.28322554
50	0x3e282c1c	0.16423076
51	0xbd702a1a	-0.0586339
52	0x3e6801d2	0.22656944
53	0x3e879b46	0.26485652
54	0xbd9235f5	-0.07139198
55	0xbe31bf44	-0.17358118
56	0x3e9e96c5	0.30974403
57	0xbe88f6d3	-0.26750812
58	0xbe1033c3	-0.14082246
59	0xbd09aaa2	-0.033609994
60	0xbdc02f34	-0.09384003
61	0xbdc5a47a	-0.09650512
62	0x3e45e914	0.19327193
63	0x3d8e553d	0.06949852
64	0xbd8a94c4	-0.06766656
65	0xbcfe04c4	-0.031008132
66	0xbe5676a2	-0.20943692
67	0xbe3f46e1	-0.18679382
68	0x3def24e6	0.1167696
69	0x3e09482e	0.1340644
70	0xbe19f827	-0.15036069
71	0xbe3d4e16	-0.18486819
72	0xbe640e1a	-0.22271004
73	0x3cbfb7e0	0.023403108
74	0x3e41277c	0.18862718
75	0xbdd12aba	-0.102132276
76	0xbe555c37	-0.20835958
77	0xbe66b123	-0.2252851
78	0xbcd6aef2	-0.026206467
79	0xbe370399	-0.17872466
80	0xbe4659aa	-0.19370142
81	0x3eaa15a5	0.33219638
82	0xbe5d9cfe	-0.21641919
83	0xbe09fdf5	-0.13475783
84	0x3db01be0	0.08599067
85	0x3e1dcc73	0.15410022
86	0xbe825855	-0.25458017
87	0x3e38540c	0.18000811
88	0x3e84ce6f	0.25938746
89	0x3c9c0255	0.01904408
90	0xb96a14a8	-0.00022323674
91	0xbd303712	-0.04302127
92	0xbdd615f4	-0.10453406
93	0x3e4db69e	0.20089194
94	0x3df4d768	0.11955148
95	0xbe6fe46a	-0.23426977
96	0xbda79b9a	-0.081839755
97	0x3ef7ca91	0.48396733
98	0x3e952059	0.29126242
99	0xbd4759f5	-0.048669774
100	0xbda3a4c6	-0.079904124
101	0x3c9b44f0	0.01895377
102	0xbe44baf3	-0.1921194
103	0x3bb8c8cf	0.0056391726
104	0xbe947ec2	-0.2900296
105	0x3e1934a6	0.1496149
106	0xbd33c483	-0.04388858
107	0xbda4e171	-0.08050812
108	0xbe46abe0	-0.19401503
109	0x3e34cb9e	0.17655799
110	0xbe7a256d	-0.2442834
111	0xbecff232	-0.40614468
112	0xbec58080	-0.385746
113	0x3d42d58d	0.04756694
114	0xbe19ed6a	-0.15031973
115	0x3e5707c3	0.20999055
116	0xbd3485cf	-0.044072922
117	0x3e80b096	0.25134724
118	0x3dc37426	0.09543638
119	0x3e02a3d5	0.1275781
120	0xbe18c564	-0.14919049
121	0x3df364f3	0.11884489
122	0xbdef6bce	-0.11690484
123	0xbe31fcd8	-0.17381608
124	0x3e791cdf	0.2432742
125	0xbd647ea7	-0.055784848
126	0x3d30f33f	0.043200728
127	0x3ebb79ab	0.36616263
128	0xbe9d0a47	-0.30671903
129	0x3ea1b387	0.3158228
130	0x3e597570	0.21236205
131	0x3e580342	0.21094993
132	0x3e6566f7	0.22402559
133	0x3d9b04eb	0.075692974
134	0xbdd528fa	-0.10408206
135	0xbce01761	-0.027354898
136	0x3df68e94	0.12038913
137	0x3e2103b8	0.15724075
138	0xbe903362	-0.28164202
139	0x3c43f8a9	0.011961141
140	0x3e670f89	0.2256452
141	0xbec128f0	-0.37726545
142	0x3ed0135b	0.40639767
143	0xbdfc0ecb	-0.12307509
144	0xbec55253	-0.3853937
145	0xbd51cf5e	-0.05122315
146	0x3e019905	0.12656029
147	0xbe6c2df6	-0.23064408
148	0x3dbc8788	0.09205538
149	0x3e857806	0.26068133
150	0x3cb78d18	0.022406146
151	0xbc12fe63	-0.008971783
152	0xbe36127b	-0.17780487
153	0x3d988d5d	0.07448838
154	0x3d833e2a	0.06408341
155	0x3dacb432	0.08432807
156	0x3e0ef9e0	0.13962507
157	0x3db2bf3a	0.0872788
158	0xbe024e6a	-0.12725225
159	0x3d56a9ae	0.052407913
160	0xbd86f9a7	-0.06590586
161	0x3df5ae88	0.1199618
162	0x3d0f5f98	0.035003275
163	0xbeb662c7	-0.35622236
164	0x3d20e26b	0.03927843
165	0x3e3fec2d	0.18742438
166	0x3ddb5881	0.1071024
167	0x3eb423c5	0.3518354
168	0xbdf6102a	-0.12014802
169	0x3cb6d045	0.022316108
170	0x3ea4fb06	0.32222766
171	0xbe38e2ef	-0.18055318
172	0x3e7ac3a5	0.24488695
173	0x3e00b321	0.12568332
174	0xbe052c2d	-0.13005133
175	0xbdbcb45f	-0.092140906
176	0x3e506a96	0.2035316
177	0xbe3c4882	-0.18387035
178	0xbd547ce5	-0.05187692
179	0x3e56d419	0.20979346
180	0xbe636bb5	-0.22209056
181	0xbe84ff9d	-0.25976267
182	0x3e130fd1	0.14361502
183	0x3d923d68	0.071406186
184	0xbea798c2	-0.32733732
185	0xbcd9b7a8	-0.026576832
186	0xbe6ac57f	-0.22926901
187	0x3c511ae3	0.012762758
188	0x3e26f5f4	0.16304761
189	0xbecb0521	-0.3965235
190	0xbeb85137	-0.35999462
191	0xbdce2e51	-0.10067428
192	0xbea28a3f	-0.31746098
193	0x3d38784a	0.04503659
194	0xbe3d4abd	-0.18485542
195	0x3ecf0160	0.40430737
196	0xbd6bab44	-0.05753638
197	0xbe7ad16d	-0.24493952
198	0xbc1f65d4	-0.009728868
199	0xbe2aa8f0	-0.16666007
200	0xbe497188	-0.19672215
201	0x3eb5d536	0.3551423
202	0xbe3160a0	-0.17322016
203	0x3e0b7981	0.13620569
204	0x3d2c9ada	0.042139865
205	0xbdf6d9f6	-0.120532915
206	0x3e6290d6	0.22125563
207	0x3e1256d1	0.1429093
208	0xbd688723	-0.0567695
209	0xbec87e20	-0.39158726
210	0x3cb24684	0.02176214
211	0xbea2058a	-0.3164485
212	0xbe7743f4	-0.24147016
213	0xbc509daf	-0.012732907
214	0xbcebded6	-0.02879278
215	0x3da667fb	0.081253015
216	0x3e58b6aa	0.21163431
217	0x3d0d5833	0.03450794
218	0x3d3eaa73	0.04654927
219	0x3cc198e8	0.023632482
220	0xbd93946a	-0.07206042
221	0x3ecdde1d	0.4020852
222	0x3eaae2e9	0.33376244
223	0xbe3ce77f	-0.18447684
224	0xbe690df9	-0.22759236
225	0x3c2be12f	0.0104907
226	0x3e4ed2b7	0.20197569
227	0x3ea03617	0.31291267
228	0xbe526774	-0.20547277
229	0x3d3d8b86	0.046275638
230	0x3ea72264	0.32643425
231	0xb82de5da	-4.146048e-05
232	0x3ce41056	0.02783982
233	0x3d095951	0.033532444
234	0xbb6f0429	-0.0036470986
235	0xbeebf2cd	-0.4608368
236	0x3dd37301	0.1032467
237	0xbe33d547	-0.17561828
238	0xbe9f0452	-0.31057984
239	0x3e8ea9e2	0.27863985
240	0xbe2d9d58	-0.16954553
241	0xbe974379	-0.29543665
242	0xbe6e5bae	-0.2327716
243	0x3cb67ff8	0.022277817
244	0x3e5cc351	0.21558882
245	0xbd784858	-0.060615867
246	0xbd570e95	-0.05250414
247	0x3e13987b	0.14413635
248	0xbe4c2d2e	-0.1993911
249	0x3e02de86	0.12780198
250	0x3e60a26f	0.21936963
251	0x3ec34e69	0.3814576
252	0x3ea12bc7	0.31478712
253	0xbe44931c	-0.19196743
254	0xbe74048b	-0.23829858
255	0x3e3aaf64	0.18230969

Nnet.Hidden_layer_5.bias f4 [30]
0	0x37b2f5ee	2.1333773e-05
1	0xbd77f1c5	-0.060533304
2	0x3e7bf51a	0.24605218
3	0x3dfb791c	0.12278959
4	0xbeb115d7	-0.34586975
5	0x3daac3a3	0.08338096
6	0xbd444f02	-0.04792691
7	0x3dcd0ee8	0.10012609
8	0xbdadcb31	-0.08486021
9	0x3e9c5e6d	0.3054079
10	0xbc4c5d6b	-0.012473444
11	0x3e44bbbc	0.1921224
12	0x3e04e754	0.1297887
13	0xbdaaf560	-0.08347583
14	0x3d7c2554	0.061559036
15	0xbdaa432c	-0.08313593
16	0x3b485889	0.003057035
17	0xbdc3426c	-0.09534153
18	0xbe8223eb	-0.25418028
19	0x3d89f745	0.06736616
20	0x3d8b8961	0.06813312
21	0xbe9116d2	-0.28337723
22	0x3d90abbe	0.07064007
23	0xbde1045a	-0.10987158
24	0x3dc0ad02	0.094079986
25	0x3dbbdf8b	0.09173497
26	0xbdcb0854	-0.09913698
27	0xbda98a93	-0.08278384
28	0x3dee17b7	0.11625617
29	0xbd2e73b0	-0.042590797

Nnet.Output.weight f4 [2, 30]
0	0xbe9841b4	-0.29737628
1	0x3ebf79bb	0.3739756
2	0xbed5c555	-0.41752115
3	0xbe802651	-0.25029233
4	0x3e88a187	0.26685736
5	0x3e929a2a	0.28633243
6	0xbe9384d8	-0.2881229
7	0x3ea87a58	0.3290584
8	0x3eb39c7a	0.3508032
9	0xbe8e0481	-0.2773781
10	0x3e8e63b9	0.27810457
11	0xbe7a8d3f	-0.24467944
12	0xbe3aea0d	-0.18253346
13	0x3e21aa8a	0.15787712
14	0x3ea80f96	0.3282439
15	0xbe6defa2	-0.23235944
16	0x3c5e3586	0.013562566
17	0x3e3f05c3	0.18654542
18	0x3eca4907	0.3950884
19	0xbe83db83	-0.25753412
20	0xbed43b66	-0.41451567
21	0xbed6bf30	-0.4194274
22	0xbec65294	-0.38734877
23	0x3eaee34f	0.34157798
24	0xbea57446	-0.32315272
25	0x3eaea478	0.34109855
26	0xbe6f1e01	-0.2335129
27	0x3ef089b1	0.4698005
28	0x3e2b49fc	0.16727442
29	0x3e97ef72	0.2967487
30	0xbe934c94	-0.28769362
31	0x3e3b7987	0.18308078
32	0xbd58bd7a	-0.052915074
33	0x3ee5637f	0.44802472
34	0xbda0d2bc	-0.078526944
35	0x3d88e9f7	0.0668525
36	0x3eea7c61	0.4579802
37	0x3e684341	0.22681905
38	0x3d8ee203	0.06976702
39	0x3f122493	0.5708706
40	0x3ded30f1	0.115816005
41	0x3bc8c032	0.006126427
42	0xbe84c76c	-0.25933397
43	0x3ecef76d	0.40423146
44	0x3c7b8797	0.015352151
45	0xbe88a205	-0.2668611
46	0x3ed94f1c	0.42443168
47	0x3e54fb9f	0.20799111
48	0xbe32320b	-0.17401902
49	0xbe6791a0	-0.22614145
50	0x3c7b5ac6	0.015341466
51	0x3f04b028	0.51831293
52	0x3e75f61f	0.24019669
53	0xbdb84e43	-0.08999302
54	0x3ef2335b	0.47304806
55	0xbd51c3b9	-0.051212046
56	0xbee3d728	-0.4450009
57	0xbe48da16	-0.19614443
58	0x3e7f9667	0.24959718
59	0x3e295c4d	0.16539116

Nnet.Output.bias f4 [2]
0	0xbdbb6098	-0.09149283
1	0xbde1e498	-0.11029929
