PINN/GPINN_g.pt (torch, 19329 bytes, 12 tensors)

Nnet.Hidden_layer_1.weight f4 [30, 2]
0.42438534 -0.46378955 -0.034882423 0.51241153 -0.67295057 -0.0083887465 0.37780228 -0.448381
0.06985116 -0.3794214 0.76809394 0.12631373 0.85577744 0.24123695 0.32241827 -0.7839965
0.6967488 -0.6190614 0.47281742 0.44318667 0.16426744 0.77375287 -0.14689876 -0.5335991
0.24079278 -0.2599881 -0.7683405 -0.66165984 -0.47806847 0.23553716 -0.46274677 0.47320065
0.5095719 -0.38854098 0.43791682 -0.010918659 0.55990297 -0.12194995 -0.52132684 0.5683679
-0.4695588 0.2270852 0.45578843 -0.59357846 -0.67921555 0.4568599 -1.1812466 -0.40421927
0.39204788 -0.29293782 0.6322397 -0.07637169 0.013678417 -0.62844294 0.23832482 -0.6434147
-0.64577323 -0.52593666 0.15590471 -0.18275
00000000: 0949 d93e d375 edbe dfe0 0ebd 672d 033f
00000010: 7d46 2cbf f470 09bc 4d6f c13e 3292 e5be
00000020: 200e 8f3d 8643 c2be cea1 443f 6358 013e
00000030: 3b14 5b3f d206 773e 0214 a53e ffb3 48bf
00000040: 215e 323f cf7a 1ebf 2015 f23e 5de9 e23e
00000050: b935 283e ab14 463f a16c 16be f399 08bf
00000060: 6292 763e 291d 85be f7b1 44bf 8a62 29bf
00000070: 64c5 f4be a730 713e 25ed ecbe 5b47 f23e
00000080: 4e73 023f d8ee c6be a236 e03e 2de4 32bc
00000090: cd55 0f3f e5c0 f9bd ad75 05bf 8f80 113f
000000a0: 036a f0be 0689 683e 1a5d e93e c2f4 17bf
000000b0: 12e1 2dbf 8ae9 e93e 1733 97bf d4f5 cebe
000000c0: 80ba c83e f2fb 95be 76da 213f c368 9cbd
000000d0: 701b 603c a3e1 20bf 6c0b 743e d3b6 24bf
000000e0: 6551 25bf c9a3 06bf 7ca5 1f3e d122 3bbe

Nnet.Hidden_layer_1.bias f4 [30]
0.6763432 -0.1279123 0.6157595 -0.63795716 0.20113659 -0.31267944 0.55470425 0.3771048
0.02367407 -0.43745255 -0.53680193 0.0062979083 0.26565018 -0.051027507 -0.20700471 -0.58678883
0.64753616 0.62952185 -0.49199766 0.005793403 0.06780934 0.09820449 -0.41788334 -0.4403691
-0.12002622 -0.55949897 0.297016 -0.20855947 -0.5054247 0.058939822
00000000: d424 2d3f 71fb 02be 6aa2 1d3f 2951 23bf
00000010: c0f6 4d3e 8517 a0be 1901 0e3f e113 c13e
00000020: 20f0 c13c c8f9 dfbe da6b 09bf af5e ce3b
00000030: 4d03 883e 3802 51bd 0bf9 53be cb37 16bf
00000040: eec4 253f 5828 213f 1ee7 fbbe 96d6 bd3b
00000050: a0df 8a3d 701f c93d cef4 d5be 0f78 e1be
00000060: 4fd0 f5bd 533b 0fbf 7b12 983e 9d90 55be
00000070: 8363 01bf e26a 713d

Nnet.Hidden_layer_2.weight f4 [30, 30]
-0.061853256 -0.097740404 0.022187877 0.027643269 0.079683624 0.029615888 -0.27309147 -0.034151465
0.16462973 0.0036168962 -0.22763367 0.32135624 -0.12159848 0.29847416 -0.2070056 -0.12575664
0.0961353 -0.08123204 0.076898366 -0.24860494 -0.034728818 0.2712457 0.04344338 0.3367149
-0.011740193 -0.02008804 0.040681913 0.13412511 0.13370976 0.10956256 0.045989357 -0.019166756
-0.12756555 -0.03675591 -0.0008060104 0.034574416 0.22173806 0.0041315225 0.13739687 0.40746757
0.20489284 -0.11019925 -0.053450894 -0.33094814 0.0057784473 0.11715451 0.13432224 0.07440299
0.20377322 -0.09387922 -0.14568943 -0.040217277 -0.1455699 -0.091310106 -0.15262514 0.19196399
-0.2818143 -0.17631692 -0.047838207 -0.01801736 -0.1653783 -0.09366782 0.15126173 0.14568235
-0.088569574 -0.099867806 -0.0028137513 -0.26468968 -0.05072359 0.086828485 0.11963268 -0.13504983
0.0123595195 -0.06308663 0.115432456 0.11268922 0.057178464 -0.075395726 -0.20557894 0.097534716
-0.10298688 -0.2634994 0.19290917 -0.080252714 0.07907549 0.03874001 0.058642067 0.0005260878
0.14126183 -0.12392319 -0.061074443 0.097154126 -0.14558558 0.05721112 -0.06684579 0.23921444
0.10128265 -0.11690962 0.1682849 0.12862657 0.2502406 -0.036807206 -0.12035786 -0.34441298
-0.2057971 0.123394154 -0.022612229 0.28849414 0.22311758 -0.07658937 -0.18107076 0.1960849
-0.1059885 -0.2112759 0.09133964 -0.08283576 -0.115078494 0.0021844301 -0.28152025 -0.0021723816
-0.13973422 0.009168001 0.27649167 -0.08710056 -0.1689822 -0.11727182 -0.096895374 0.09753621
-0.00022880164 -0.21955942 -0.15799987 0.21038394 -0.23753864 0.079980694 -0.080673255 -0.1127909
0.024396729 0.14517723 -0.09599987 0.28672844 0.095585525 -0.21435092 0.095762424 -0.06130405
-0.13094705 -0.1889182 -0.18346435 -0.108994745 0.18921635 -0.014876282 0.16804588 -0.04006275
0.28581524 0.030506503 0.08745322 -0.18677834 -0.09328055 0.09807644 -0.19363368 -0.33476895
-0.06849932 0.16131885 -0.10359829 0.20428625 0.11436811 -0.065318644 0.13680544 -0.13098705
0.048285935 0.045646615 0.20413226 -0.08707837 0.108005665 -0.12016368 -0.122316614 -0.06907428
0.19361086 -0.119659215 0.23311625 0.07098873 0.17897718 -0.32834247 0.34670964 7.941925e-05
0.28744376 -0.41151974 -0.13643959 0.24139346 -0.088126354 -0.4572224 -0.38813415 0.33478475
0.011021578 0.36082116 0.09608873 -0.03817763 -0.06428119 -0.11723841 -0.11098979 -0.018741935
-0.11843414 -0.053910673 -0.20426801 0.07252955 0.11585393 -0.03607771 0.40590093 0.28195968
0.16187719 0.06040449 0.15026896 -0.12949078 -0.07327091 0.08941614 -0.06261123 0.038232442
-0.1539207 0.20734268 0.19929859 0.33391517 0.07866113 -0.102649316 0.07033128 -0.28927702
0.1058119 0.03157115 0.14818378 0.07756256 0.24400875 -0.12943377 -0.0732724 0.07134787
-0.112007216 0.11169398 -0.023468327 0.21748099 -0.12249472 0.12590174 0.1501735 -0.003917574
-0.18187772 -0.05005706 0.04493233 0.015038778 0.037889816 0.031722218 -0.15216582 -0.27988786
-0.23766029 -0.067687996 0.053771216 -0.2851047 -0.21420047 -0.19892558 0.05501811 0.19783412
00000000: d759 7dbd 1f2c c8bd 5ac3 b53c 2374 e23c
00000010: 2b31 a33d 059d f23c a5d2 8bbe 68e2 0bbd
00000020: b294 283e 7309 6d3b cd18 69be ce88 a43e
00000030: a008 f9bd 9bd1 983e 47f9 53be 59c6 00be
00000040: 96e2 c43d fc5c a6bd e47c 9d3d 4b92 7ebe
00000050: ce3f 0ebd b7e0 8a3e b0f1 313d e565 ac3e
00000060: f059 40bc ac8f a4bc 14a2 263d 1858 093e
00000070: 36eb 083e 5662 e03d 565f 3c3d 9a03 9dbc
00000080: 8ba0 02be 5d8d 16bd 714a 53ba e79d 0d3d
00000090: 4d0f 633e b961 873b c4b1 0c3e 979f d03e
000000a0: 6ecf 513e 25b0 e1bd 53ef 5abd 0972 a9be
000000b0: 2159 bd3b b4ee ef3d c58b 093e 9860 983d
000000c0: eda9 503e c043 c0bd 9c2f 15be dfba 24bd
000000d0: 4710 15be cb00 bbbd c449 1cbe 3592 443e
000000e0: f749 90be 6c8c 34be fff1 43bd 2499 93bc
000000f0: ee58 29be ead4 bfbd 5be4 1a3e c12d 153e
00000100: f763 b5bd 7e87 ccbd ea66 38bb 6885 87be
00000110: 8ac3 4fbd 22d3 b13d fb01 f53d 814a 0abe
00000120: 957f 4a3c 9033 81bd da67 ec3d 9bc9 e63d
00000130: f733 6a3d 1369 9abd 4983 52be 48c0 c73d
00000140: c9ea d2bd 65e9 86be fb89 453e 895b a4bd
00000150: 55f2 a13d d8ad 1e3d aa32 703d 28e9 093a
00000160: f1a6 103e 71cb fdbd 3229 7abd bef8 c63d
00000170: 6314 15be 3556 6a3d 72e6 88bd a1f4 743e
00000180: 476d cf3d 506e efbd e052 2c3e afb6 033e
00000190: 891f 803e 27c3 16bd 2f7e f6bd e656 b0be
000001a0: 7abc 52be 13b6 fc3d 483d b9bc 81b5 933e
000001b0: ef78 643e e3da 9cbd 9d6a 39be 7bca 483e
000001c0: 8010 d9bd b658 58be 4710 bb3d cca5 a9bd
000001d0: 46ae ebbd a828 0f3b 6c23 90be 845e 0ebb
000001e0: 7d16 0fbe 6235 163c 5190 8d3e c761 b2bd
000001f0: ab09 2dbe 352c f0bd 1571 c6bd 11c1 c73d
00000200: 79ea 6fb9 2fd4 60be b8ca 21be e36e 573e
00000210: 543d 73be ebcc a33d 0538 a5bd eafe e6bd
00000220: a6db c73c 57a9 143e 949b c4bd 12ce 923e
00000230: 58c2 c33d cf7e 5bbe 171f c43d f519 7bbd
00000240: fc16 06be c673 41be 14de 3bbe a338 dfbd
00000250: eec1 413e a6bb 73bc 3814 2c3e d718 24bd
00000260: 6056 923e c6e8 f93c ac1a b33d d242 3fbe
00000270: df09 bfbd 4ddc c83d e847 46be d666 abbe
00000280: 5f49 8cbd c530 253e 572b d4bd 6a30 513e
00000290: d439 ea3d c8c5 85bd ba16 0c3e 7821 06be
000002a0: 79c7 453d f2f7 3a3d 0c08 513e 2556 b2bd
000002b0: 1332 dd3d 6018 f6bd 2281 fabd d176 8dbd
000002c0: ed41 463e e40f f5bd 07b6 6e3e 8a62 913d
000002d0: cb45 373e 811c a8be ed83 b13e e38d a638
000002e0: d42b 933e b7b2 d2be d2b6 0bbe d92f 773e
000002f0: 977b b4bd 0e19 eabe 85b9 c6be e868 ab3e
00000300: d993 343c 8dbd b83e 2bca c43d 2660 1cbd
00000310: dba5 83bd b11a f0bd 9d4e e3bd b088 99bc
00000320: 998d f2bd 70d1 5cbd a22b 51be 5f8a 943d
00000330: d344 ed3d 39c6 13bd 3fd2 cf3e 055d 903e
00000340: 22c3 253e b36a 773d 1be0 193e 3b99 04be
00000350: 0f0f 96bd cf1f b73d 513a 80bd 9f99 1c3d
00000360: 639d 1dbe a451 543e ee14 4c3e eef6 aa3e
00000370: 1619 a13d ce39 d2bd d909 903d 1e1c 94be
00000380: e9b3 d83d c050 013d 7dbd 173e 1fd9 9e3d
00000390: 6edd 793e 498a 04be d70f 96bd d51e 923d
000003a0: 0a64 e5bd d0bf e43d a640 c0bc 56b3 5e3e
000003b0: 83de fabd 63ec 003e 15c7 193e fe5e 80bb
000003c0: 273e 3abe a208 4dbd f60a 383d 3565 763c
000003d0: 5a32 1b3d 28ef 013d 5bd1 1bbe 764d 8fbe
000003e0: 385d 73be 01a0 8abd 353f 5c3d 3ef9 91be
000003f0: 5e57 5bbe 26b3 4bbe ab5a 613d 0795 4a3e

Nnet.Hidden_layer_2.bias f4 [30]
-0.025907867 -0.15916392 -0.17708735 -0.00267088 0.12526892 0.1569195 0.37239808 -0.02164082
-0.22186811 0.10661609 0.26334184 -0.17726877 -0.18957184 -0.061318304 0.19519193 -0.14268483
-0.23877272 0.20672278 -0.011049383 0.055848196 0.028168576 0.11281607 -0.21606782 -0.05328057
0.21224785 -0.025791677 0.05128052 -0.050808243 0.0059808413 0.22609696
00000000: bc3c d4bc defb 22be 6356 35be ee09 2fbb
00000010: 7f46 003e 81af 203e f6aa be3e 1748 b1bc
00000020: 6531 63be 8959 da3d bed4 863e f285 35be
00000030: 1f1f 42be e728 7bbd 65e0 473e f91b 12be
00000040: d680 74be 23af 533e 7908 35bc 14c1 643d
00000050: c9c1 e63c 1d0c e73d e240 5dbe ba3c 5abd
00000060: 8057 593e 1149 d3bc 860b 523d 4e1c 50bd
00000070: effa c33b f685 673e

Nnet.Hidden_layer_3.weight f4 [30, 30]
-0.014660192 -0.019186862 0.04828016 0.07502276 0.013237608 0.29384565 0.31454527 -0.08587679
-0.011487144 0.16263053 0.18963492 -0.120241225 -0.15897146 -0.34063658 0.07321114 -0.12982878
-0.4139498 0.071307704 -0.07511301 0.14995196 -0.010372346 0.2411422 -0.14368106 -0.21007757
0.18425994 -0.110191956 0.3899925 -0.33366284 0.09983778 0.13154621 -0.111431904 0.19325802
-0.12064417 0.15610702 -0.20599118 -0.30722407 -0.36156255 0.17166746 -0.12729338 0.035144307
-0.2544602 -0.06694698 -0.02968545 0.06526553 -0.09130609 0.035651673 0.5736374 -0.19907106
0.05517232 0.100702025 0.15268148 -0.1976991 0.14410199 0.19207671 -0.37744814 0.10971268
-0.46685988 0.24049653 -0.06982335 0.09788389 0.16273999 0.097676024 0.07029745 -0.110683076
-0.2649176 -0.16435596 0.024225114 0.12209181 0.0291444 -0.31519526 0.006459461 0.009730874
-0.012101363 0.19186129 -0.02992462 -0.02863942 0.0019969307 -0.3368927 0.11153617 -0.16478108
0.0067276773 -0.18210457 -0.20824313 0.16282791 -0.2852241 -0.21526644 -0.04939605 -0.053475603
-0.15672024 -0.23675045 0.25756526 0.18372291 -0.16533762 -0.059051927 0.078571506 0.08883128
-0.06231132 0.061688382 0.08954859 -0.081295416 0.104221426 0.066171795 0.09961536 -0.08512236
0.10069226 -0.05733997 0.11183486 -0.034052216 0.058305748 -0.06873346 -0.13828658 -0.14326163
-0.10684111 0.1429544 0.097991034 -0.0060628136 -0.15507683 -0.08288055 -0.1169093 -0.102519825
0.03486183 0.2748764 -0.33777344 0.28287265 -0.3059458 -0.21349148 -0.15735696 0.1730172
-0.26225233 -0.056053795 0.27189958 -0.40676856 -0.049620144 -0.4452513 0.1227782 -0.15269965
-0.042642366 -0.024522148 -0.065894395 0.23666571 -0.29286456 -0.045418993 -0.29520166 0.112066954
0.036207665 -0.2871095 0.06303207 -0.30636325 0.26731554 0.026068006 -0.21285897 0.4074082
-0.11196191 0.2985887 -0.021289505 -0.17603762 -0.100190334 0.14165151 -0.22941998 0.013984951
0.31107748 -0.10608774 0.38393888 -0.16296045 -0.08815125 -0.18924667 0.0040401313 -0.25231022
-0.11759375 0.16441204 -0.39805642 -0.05383762 0.20142318 0.15014936 -0.031192582 0.09063479
-0.050359134 0.15036663 0.23156263 -0.23289442 0.10315411 -0.06118605 0.03891146 0.192284
0.13244905 -0.22081304 -0.023504028 0.20570198 0.014372905 -0.052664105 0.009118433 -0.22347522
0.03260669 0.0065866425 -0.018596338 -0.1574727 0.042743456 0.026050273 0.16838613 0.16416146
-0.14527997 -0.03411647 -0.02518198 0.09573165 0.12668961 -0.09021478 -0.064689726 0.13880797
0.18006413 -0.20479372 0.062895775 0.22227818 -0.15746492 0.10952701 0.010260111 -0.01486712
-0.34736806 -0.028953968 0.11845114 0.10337818 0.2639463 -0.11170671 0.029565144 -0.017926268
0.14110047 -0.07867778 0.21664955 -0.13626021 -0.14465529 0.15227807 -0.12590893 -0.14704867
0.030914158 0.256547 0.032462843 0.0039634155 -0.060165055 -0.010884481 0.2041107 -0.06210016
0.32126868 -0.2119833 -0.1898431 -0.19893306 -0.03990065 0.06026056 0.17979643 0.18099861
-0.23718677 -0.03898962 0.10308636 -0.10564585 -0.33756775 -0.19977781 -0.001744089 -0.052152645
00000000: 4d31 70bc c42d 9dbc 6bc1 453d 88a5 993d
00000010: 8de2 583c f072 963e 140c a13e 2ce0 afbd
00000020: 9334 3cbc 9e88 263e a82f 423e 0841 f6bd
00000030: 6ac9 22be eb67 aebe b9ef 953d d6f1 04be
00000040: 3af1 d3be c609 923d dad4 99bd 028d 193e
00000050: c6f0 29bc fbed 763e 2121 13be 931e 57be
00000060: a3ae 3c3e 52ac e1bd 19ad c73e dbd5 aabe
00000070: c077 cc3d 0db4 063e 6936 e4bd 6ee5 453e
00000080: 4a14 f7bd 85da 1f3e 5aef 52be 794c 9dbe
00000090: ba1e b9be 98c9 2f3e 3259 02be 7af3 0f3d
000000a0: 9b48 82be 801b 89bd e72e f3bc efa9 853d
000000b0: b0fe babd 7d07 123d e7d9 123f 49d9 4bbe
000000c0: 5ffc 613d dd3c ce3d 8958 1c3e a271 4abe
000000d0: 798f 133e c2af 443e e240 c1be 0bb1 e03d
000000e0: 4208 efbe b944 763e 8bff 8ebd 5977 c83d
000000f0: 50a5 263e 5e0a c83d 1cf8 8f3d cfad e2bd
00000100: 48a3 87be ee4c 28be bf73 c63c 450b fa3d
00000110: 3dc0 ee3c 4661 a1be e3a9 d33b 3e6e 1f3c
00000120: cc44 46bc 4977 443e 7a24 f5bc 389d eabc
00000130: f0de 023b 337d acbe 136d e43d 5fbc 28be
00000140: d973 dc3b 9f79 3abe b03d 55be 5cbc 263e
00000150: e508 92be ce6e 5cbe 8353 4abd 3c09 5bbd
00000160: 457b 20be b66e 72be 98df 833e dc21 3c3e
00000170: 444e 29be 6fe0 71bd 19ea a03d 2ded b53d
00000180: 283a 7fbd f5ac 7c3d 4065 b73d 367e a6bd
00000190: 0b72 d53d 1485 873d 2303 cc3d a254 aebd
000001a0: be37 ce3d 51dd 6abd ad09 e53d 567a 0bbd
000001b0: 02d2 6e3d 21c4 8cbd ff9a 0dbe 2db3 12be
000001c0: 83cf dabd a362 123e 86af c83d 91aa c6bb
000001d0: 76cc 1ebe 47bd a9bd 256e efbd eaf5 d1bd
000001e0: 47cb 0e3d 99bc 8c3e a4f0 acbe afd4 903e
000001f0: eea4 9cbe 839d 5abe 2f22 21be 6c2b 313e
00000200: f045 86be aa98 65bd 6c36 8b3e f843 d0be
00000210: 7e3e 4bbd faf7 e3be 2373 fb3d 4c5d 1cbe
00000220: c3a9 2ebd ace2 c8bc a4f3 86bd 7f58 723e
00000230: 58f2 95be 4409 3abd ac24 97be 5c83 e53d
00000240: 7d4e 143d 0400 93be f516 813d a5db 9cbe
00000250: 95dd 883e 928c d53c b4f7 59be cf97 d03e
00000260: 494c e5bd 9ee0 983e 5467 aebc 3543 34be
00000270: 9730 cdbd 180d 113e 12ed 6abe 2321 653c
00000280: 8c45 9f3e 8744 d9bd a393 c43e 1bdf 26be
00000290: a488 b4bd e1c9 41be 1463 843b ce2e 81be
000002a0: fed4 f0bd a15b 283e 0dce cbbe d684 5cbd
000002b0: e141 4e3e c1c0 193e 9687 ffbc bc9e b93d
000002c0: 6145 4ebd b6f9 193e c11e 6d3e e07b 6ebe
000002d0: 7642 d33d 399e 7abd a061 1f3d 19e6 443e
000002e0: b9a0 073e d01c 62be 858b c0bc 8aa3 523e
000002f0: 557c 6b3c 51b6 57bd 7b65 153c b0d6 64be
00000300: 988e 053d c3d4 d73b 5957 98bc 8640 21be
00000310: c313 2f3d 6267 d53c 6a6d 2c3e f119 283e
00000320: 46c4 14be b6bd 0bbd 714a cebc f50e c43d
00000330: ecba 013e 87c2 b8bd 0c7c 84bd ad23 0e3e
00000340: bb62 383e 72b5 51be 80cf 803d e49c 633e
00000350: 7c3e 21be b24f e03d 061a 283c 3995 73bc
00000360: 3ada b1be df30 edbc 8396 f23d f0b7 d33d
00000370: f823 873e 7dc6 e4bd 9a32 f23c 1cda 92bc
00000380: a47c 103e d121 a1bd 61d9 5d3e cc87 0bbe
00000390: 8420 14be c8ee 1b3e 45ee 00be ed93 16be
000003a0: b03f fd3c 215a 833e c2f7 043d 8adf 813b
000003b0: a26f 76bd d254 32bc 6502 513e bd5c 7ebd
000003c0: 547d a43e 2612 59be 3b66 42be 1cb5 4bbe
000003d0: dd6e 23bd c7d3 763d 8e1c 383e b357 393e
000003e0: 17e1 72be 94b3 1fbd f11e d33d da5c d8bd
000003f0: aed5 acbe 8e92 4cbe ea99 e4ba 039e 55bd

Nnet.Hidden_layer_3.bias f4 [30]
0.28361234 -0.20573582 -0.19858132 0.17521632 0.12540397 -0.19311294 0.05067992 0.16327488
0.110550866 0.12364252 -0.17050354 -0.0039428817 0.03546425 -0.20867354 -0.048043866 -0.11025636
0.07906476 -0.08276864 -0.06516993 0.057487458 0.18956119 -0.00011502251 0.0630425 -0.25675762
-0.022542242 -0.11085238 -0.19137485 -0.14826293 -0.14999862 0.1970027
00000000: a335 913e 69ac 52be e758 4bbe e86b 333e
00000010: e669 003e 66bf 45be bf95 4f3d 8831 273e
00000020: 7e68 e23d 4a38 fd3d 7b98 2ebe 4a33 81bb
00000030: f642 113d 84ae 55be a5c9 44bd 16ce e1bd
00000040: b4ec a13d 9b82 a9bd d077 85bd f877 6b3d
00000050: 541c 423e 3d38 f1b8 6d1c 813d bc75 83be
00000060: 82aa b8bc 9306 e3bd c5f7 43be 3dd2 17be
00000070: 3d99 19be 13bb 493e

Nnet.Hidden_layer_4.weight f4 [30, 30]
-0.1403686 -0.37590396 -0.03046683 -0.16564283 -0.10895799 -0.014500429 -0.19490972 -0.1378073
-0.23923162 -0.025605699 -0.0010975532 -0.26939824 0.108656846 -0.4485422 -0.027300641 -0.3153126
0.23365809 -0.09782478 0.20832005 -0.2169303 -0.07527865 0.32800338 0.38426226 0.055705354
-0.40807554 0.12529464 -0.16364573 -0.29193836 -0.118711956 -0.077790305 0.27637532 -0.24204399
-0.2419156 -0.20476723 0.2388628 -0.27343783 -0.111566484 -0.026087832 0.15296239 -0.29380488
0.028766809 -0.19943123 0.06785045 -0.03700129 0.2873749 -0.3243996 -0.19186093 0.31245098
-0.06142912 -0.10782265 -0.027047744 -0.009994775 0.030143682 -0.09770012 0.2111988 -0.019448334
-0.119566314 -0.20577018 0.28297496 0.025028348 -0.18946308 0.14209488 -0.050445013 0.004325727
-0.03277724 0.20335668 0.0020926872 0.13725384 -0.070700765 -0.07402027 0.14345406 -0.10630911
-0.023864938 -0.030697191 -0.1715172 0.12356383 0.22462618 -0.06245991 -0.15693982 0.042072147
0.00775472 -0.22463569 0.00643253 -0.03148383 -0.21945252 -0.014146425 -0.06657222 0.24917985
-0.032271024 -0.17876337 0.0060124 0.40169984 0.5706168 0.11527741 0.22450556 -0.2314929
-0.18239728 -0.16632837 0.013179953 0.07642989 -0.133356 0.14138506 0.06540514 0.1272064
0.5135274 -0.06453035 -0.11133426 0.06804546 -0.03857082 0.21069966 -0.26978663 -0.029018162
-0.29648048 -0.034983218 0.2960295 0.37343338 -0.006177487 0.092803635 0.09928543 0.041456223
-0.010641182 -0.15761422 0.18619296 -0.24496242 -0.19804391 -0.1775374 -0.35130614 -0.26302376
-0.28858712 -0.09117118 -0.15566714 -0.381647 -0.032123808 -0.05765216 -0.1527275 -0.10479289
-0.116033226 0.08926737 0.0960371 -0.12968688 0.104764335 0.37390187 -0.07782447 0.32937926
0.28244805 0.16513853 0.0269823 -0.1485976 0.07632254 -0.08970098 -0.20518665 0.26079172
0.019984264 0.017201295 -0.04203679 0.076120965 0.09428677 0.12846024 -0.33926105 0.0072961044
0.23886725 -0.025345815 -0.12712786 0.10009598 -0.2711067 0.30151245 0.012462591 -0.29571658
-0.09582428 0.017974839 -0.15586697 0.16989209 0.21914262 -0.06170667 -0.12246748 0.09564674
0.30788875 -0.20787668 -0.025989119 -0.37219962 -0.14526545 0.0943489 0.20048943 0.017264426
0.41369182 0.19580606 0.08227641 0.15760653 0.30101514 0.07582833 0.17552882 0.16881768
0.049460102 0.19937217 0.13937065 0.21210253 -0.2052739 0.1537557 0.030451443 0.047718693
-0.045942985 -0.39772677 -0.019851357 -0.2566486 -0.07714874 -0.123553544 -0.07383126 0.03291823
-0.07683228 0.24854843 0.028277665 -0.20067295 -0.15445316 -0.014966605 -0.19731313 0.376217
-0.08521767 0.11562166 0.011861975 -0.065023065 -0.08810446 -0.10079096 0.039552405 0.10426649
-0.032316864 -0.32972264 -0.19834457 0.3228207 -0.17275922 -0.033763308 0.028746303 0.14420521
-0.25827038 -0.44667733 -0.1317009 -0.117370054 -0.036924735 0.34551036 -0.0034656902 0.16575271
-0.4757515 0.09825519 0.32101524 0.16584557 -0.07945072 -0.22344749 0.009679206 0.050754942
-0.11508654 0.010834685 0.37995845 -0.10674991 0.14384778 0.2699275 -0.32867372 0.2783975
00000000: c9bc 0fbe 7c76 c0be 9395 f9bc 469e 29be
00000010: 5e25 dfbd 3593 6dbc 6a96 47be 5b1d 0dbe
00000020: 22f9 74be 0bc3 d1bc c6db 8fba 91ee 89be
00000030: 7b87 de3d 53a7 e5be 98a5 dfbc a770 a1be
00000040: 1144 6f3e 5c58 c8bd da51 553e fa22 5ebe
00000050: b12b 9abd 0ff0 a73e 06be c43e 4c2b 643d
00000060: 47ef d0be 3d4d 003e bf92 27be f278 95be
00000070: 411f f3bd 8650 9fbd 1181 8d3e 61da 77be
00000080: b9b8 77be 80ae 51be 7398 743e 0b00 8cbe
00000090: f87c e4bd 26b6 d5bc 2ca2 1c3e 986d 96be
000000a0: 5fa8 eb3c b337 4cbe 2df5 8a3d aa8e 17bd
000000b0: ce22 933e b417 a6be 3177 44be 93f9 9f3e
000000c0: 1a9d 7bbd 1fd2 dcbd 3b93 ddbc 20c1 23bc
000000d0: e2ef f63c 0017 c8bd 8044 583e 1d52 9fbc
000000e0: 2fdf f4bd 6bb5 52be 18e2 903e 4008 cd3c
000000f0: 9c02 42be 5281 113e 6e9f 4ebd d4be 8d3b
00000100: 6d41 06bd bc3c 503e 7725 093b 458c 0c3e
00000110: 90cb 90bd f097 97bd 9fe5 123e 97b8 d9bd
00000120: 6780 c3bc ad78 fbbc 34a2 2fbe 090f fd3d
00000130: 6804 663e f6d5 7fbd d5b4 20be d853 2c3d
00000140: 4e1b fe3b e606 66be f9c7 d23b 30f5 00bd
00000150: 29b8 60be 68c6 67bc 0457 88bd 0129 7f3e
00000160: 9f2e 04bd bf0d 37be ab03 c53b 9aab cd3e
00000170: f113 123f 9016 ec3d c9e4 653e 7a0c 6dbe
00000180: 5ac6 3abe fc51 2abe bbf0 573c 4687 9c3d
00000190: 7a8e 08be 3fc7 103e 21f3 853d 6542 023e
000001a0: 8876 033f 7d28 84bd 3703 e4bd 6b5b 8b3d
000001b0: 70fc 1dbd a7c1 573e 7921 8abe 7fb7 edbc
000001c0: 4acc 97be 904a 0fbd 2e91 973e a932 bf3e
000001d0: 846c cabb d50f be3d 2956 cb3d 00ce 293d
000001e0: 5a58 2ebc 9f65 21be 5ea9 3e3e 6ed7 7abe
000001f0: 06cc 4abe 5dcc 35be 66de b3be 0dab 86be
00000200: b1c1 93be f5b7 babd 3567 1fbe 3c67 c3be
00000210: 4194 03bd ac24 6cbd 9964 1cbe a89d d6bd
00000220: d4a2 edbd d0d1 b63d 19af c43d a3cc 04be
00000230: af8e d63d 1170 bf3e 7062 9fbd 66a4 a83e
00000240: 089d 903e 131a 293e fc09 dd3c f829 18be
00000250: fe4e 9c3d 26b5 b7bd 731c 52be 7e86 853e
00000260: 0ab6 a33c bbe9 8c3c c52e 2cbd 4fe5 9b3d
00000270: 6c19 c13d 158b 033e a0b3 adbe 2914 ef3b
00000280: 9e99 743e 07a2 cfbc ce2d 02be 1fff cc3d
00000290: 7fce 8abe d75f 9a3e e52f 4c3c 2a68 97be
000002a0: 853f c4bd f83f 933c 979b 1fbe 31f8 2d3e
000002b0: ec66 603e 22c0 7cbd 3bd0 fabd 70e2 c33d
000002c0: 98a3 9d3e a0dd 54be 22e7 d4bc f390 bebe
000002d0: 77c0 14be ff39 c13d 1a4d 4d3e 206e 8d3c
000002e0: 6acf d33e 6281 483e 8980 a83d 9b63 213e
000002f0: a81e 9a3e e24b 9b3d d4bd 333e 8bde 2c3e
00000300: ad96 4a3d 3828 4c3e 2eb7 0e3e 6831 593e
00000310: 5233 52be 2272 1d3e 4e75 f93c ad74 433d
00000320: b62e 3cbd d8a2 cbbe 509f a2bc 7267 83be
00000330: 2900 9ebd a409 fdbd d834 97bd 44d5 063d
00000340: 3e5a 9dbd 7b83 7e3e 90a6 e73c 367d 4dbe
00000350: f828 1ebe 7e36 75bc 740c 4abe 849f c03e
00000360: 9a86 aebd 0dcb ec3d bb58 423c d02a 85bd
00000370: 1c70 b4bd 7e6b cebd b401 223d ab89 d53d
00000380: b05e 04bd 68d1 a8be d71a 4bbe c148 a53e
00000390: cbe7 30be 654b 0abd 5e7d eb3c 88aa 133e
000003a0: 043c 84be e4b2 e4be 9adc 06be b65f f0bd
000003b0: 643e 17bd bce6 b03e a220 63bb 14bb 293e
000003c0: b395 f3be 043a c93d 1c5c a43e 6cd3 293e
000003d0: 0fb7 a2bd 6bcf 64be 8895 1e3c 6ae4 4f3d
000003e0: 7eb2 ebbd f683 313c ea89 c23e b29f dabd
000003f0: d54c 133e f033 8a3e ec47 a8be 1e8a 8e3e

Nnet.Hidden_layer_4.bias f4 [30]
-0.08705622 0.07619579 0.12134793 -0.009615269 -0.0627424 0.096790425 -0.13839887 -0.049867105
-0.09960555 -0.056095086 0.00902926 -0.2132664 -0.06299285 -0.23153041 -0.062357355 -0.08590948
-0.045403063 0.1561282 0.19989039 0.059079126 -0.3930656 0.05907892 0.033233095 0.13472368
0.14485623 0.1484165 0.08316057 0.15125257 0.13337886 0.16287406
00000000: 884a b2bd 8a0c 9c3d 4385 f83d 5c89 1dbc
00000010: 167f 80bd 0f3a c63d 6fb8 0dbe 7341 4cbd
00000020: fffd cbbd f6c3 65bd 76ef 133c 8262 5abe
00000030: 6502 81bd 4f16 6dbe 6d6a 7fbd 4ff1 afbd
00000040: 90f8 39bd 12e0 1f3e 11b0 4c3e f4fc 713d
00000050: e53f c9be bdfc 713d 6d1f 083d 01f5 093e
00000060: 3155 143e 7ffa 173e 1750 aa3d f4e1 1a3e
00000070: 7894 083e 75c8 263e

Nnet.Hidden_layer_5.weight f4 [30, 30]
-0.33739793 0.14113031 0.06132126 -0.05043982 -0.11856403 -0.1311494 0.34717295 0.0060146386
0.083408736 -0.0917871 0.05073452 0.09580887 0.1452518 0.3127379 0.04089632 -0.28599557
-0.056925476 0.366334 -0.012291304 0.09549755 0.020726973 -0.13370298 -0.14137374 -0.14472501
0.383768 -0.26918328 -0.35259825 -0.4479621 -0.15343492 0.121704824 0.031280175 -0.32540172
0.20230223 0.07775307 0.017491916 0.13910015 0.2907298 0.17648746 0.20409004 0.18717878
0.40940154 -0.2698224 -0.032945044 0.32907903 -0.18085751 -0.27723974 0.22322239 0.2590908
0.0013846608 0.30553246 0.047093842 -0.2606927 -0.03013336 0.10749636 0.23353052 -0.076206565
-0.22157232 -0.28225785 -0.28247017 0.17411555 0.24345079 0.080646075 0.013069568 0.07485035
0.13341674 -0.36628634 -0.025922291 0.06409404 -0.34242246 0.34618956 -0.2895849 0.10498546
-0.32384285 -0.66612625 -0.09388558 -0.22912459 -0.20877856 0.4055687 -0.18332577 -0.0483435
-0.22932167 -0.2246089 0.26310435 0.107119344 -0.3264129 0.010484529 0.20376177 0.04157023
0.092590824 0.026918476 0.26537195 0.0017222965 0.31556246 -0.24963331 -0.31820866 -0.094312824
0.11414981 0.13795997 -0.26233903 -0.55629504 -0.028817615 0.23650673 0.27873325 -0.18712705
0.43675864 0.1993904 -0.06742735 -0.4882615 0.16990109 0.050886344 0.33473378 0.22721532
-0.19565523 -0.4475403 -0.100345224 0.08236212 -0.30216482 -0.03832081 0.41844612 0.010734948
-0.2296877 -0.35871944 -0.00030944258 -0.016862147 -0.060769834 0.17789716 0.35515112 0.07111009
0.34866548 -0.1889485 0.20269279 -0.13712032 -0.143116 0.2861212 -0.044493243 -0.2432128
0.18277675 0.2628578 0.011446784 0.49067688 0.09651686 -0.22958736 -0.20353453 -0.14819445
0.2505704 -0.013928084 -0.038011473 -0.3375206 -0.1286059 0.13977353 -0.16514628 0.23018762
-0.12057377 0.21682566 -0.18925413 0.10333605 0.17122073 -0.48042828 0.6696992 0.23536478
0.10444991 -0.16983387 -0.16439487 0.17050725 -0.12924303 -0.24714482 0.28557244 0.08783789
-0.30218408 0.25950786 -0.008219626 0.016419085 0.34248933 0.2468549 0.45695478 -0.3683521
-0.28779292 0.56339556 -0.65707713 0.20162947 0.07014668 0.26903224 0.10696286 -0.11285749
0.14845869 -0.18230626 -0.3943997 -0.021616813 -0.40078256 0.13990188 -0.24911034 0.21882737
-0.06921469 -0.12852246 -0.118303746 0.17878304 -0.51497287 -0.054788925 -0.21260917 -0.34292865
0.06415906 0.2572823 -0.09640785 -0.10731848 -0.21015969 0.22814088 0.08409709 0.05962862
-0.014680145 -0.32362273 -0.13664228 0.24491814 -0.30342537 0.24362761 -0.01962927 -0.4616914
-0.24892677 -0.04263404 -0.42933837 -0.15769562 -0.02925135 0.047435764 -0.16217102 -0.30981064
-0.14615688 -0.08842623 -0.1741476 -0.01848231 -0.11539697 -0.29969898 -0.2297541 -0.19969401
-0.16964936 0.30440235 0.14419362 -0.10204983 0.16299161 -0.009429253 -0.01194726 0.038316704
0.18308222 -0.20040095 0.20316279 0.038391426 0.18120295 -0.060975265 -0.31384656 0.28939623
0.03628563 -0.31995118 0.17779098 0.020554384 0.3164806 -0.309768 -0.029432187 0.11568562
00000000: 6cbf acbe 7784 103e 002c 7b3d fc99 4ebd
00000010: b3d1 f2bd 074c 06be a7c0 b13e 7216 c53b
00000020: 33d2 aa3d e0fa bbbd 00cf 4f3d 7137 c43d
00000030: e3bc 143e 2f1f a03e e682 273d 036e 92be
00000040: b02a 69bd 2190 bb3e 7761 49bc 3894 c33d
00000050: 9dcb a93c 6fe9 08be 47c4 10be cb32 14be
00000060: 3d7d c43e 64d2 89be c287 b4be 4a5b e5be
00000070: 0b1e 1dbe 6140 f93d a41f 003d 0e9b a6be
00000080: 5128 4f3e 003d 9f3d 354b 8f3c 4570 0e3e
00000090: 89da 943e 21b9 343e fbfc 503e cbab 3f3e
000000a0: 149d d13e 2926 8abe 62f1 06bd 0c7d a83e
000000b0: b632 39be 5ef2 8dbe 6994 643e 8da7 843e
000000c0: 827d b53a c06e 9c3e 79e5 403d 8379 85be
000000d0: 3cda f6bc 0d27 dc3d a022 6f3e 3012 9cbd
000000e0: dbe3 62be 1a84 90be ee9f 90be 594b 323e
000000f0: 2a4b 793e c529 a53d be21 563c 244b 993d
00000100: 669e 083e e289 bbbe fc5a d4bc bc43 833d
00000110: ff51 afbe c23f b13e 7944 94be 9e02 d73d
00000120: bbce a5be 4087 2abf 1547 c0bd a39f 6abe
00000130: 0cca 55be b3a6 cf3e c0b9 3bbe d503 46bd
00000140: 4dd3 6abe e0ff 65be 9db5 863e 6361 db3d
00000150: 971f a7be 4dc7 2b3c eda6 503e 8c45 2a3d
00000160: 42a0 bd3d 2384 dc3c d5de 873e aebe e13a
00000170: 6791 a13e e09f 7fbe 3fec a2be 1527 c1bd
00000180: 60c7 e93d 6145 0d3e 4d51 86be 5a69 0ebf
00000190: eb12 ecbc d22e 723e 20b6 8e3e 3c9e 3fbe
000001a0: d49e df3e ff2c 4c3e 5a17 8abd 69fd f9be
000001b0: 8dfa 2d3e 336e 503d 3a62 ab3e 22ab 683e
000001c0: d859 48be 0124 e5be cc81 cdbd 79ad a83d
000001d0: 59b5 9abe 48f6 1cbd 923e d63e a3e1 2f3c
000001e0: 4133 6bbe 13aa b7be ae3c a2b9 7c22 8abc
000001f0: cae9 78bd ac2a 363e 5ed6 b53e 2ba2 913d
00000200: 4884 b23e b77b 41be b38e 4f3e 4569 0cbe
00000210: 008d 12be 7a7e 923e 8c3e 36bd c70c 79be
00000220: d429 3b3e 4c95 863e 4b8b 3b3c 003a fb3e
00000230: a2aa c53d f318 6bbe 5b6b 50be 49c0 17be
00000240: c34a 803e 9e32 64bc ebb1 1bbd 80cf acbe
00000250: 44b1 03be cb20 0f3e 1b1c 29be 4eb6 6b3e
00000260: 61ef f6bd 8c07 5e3e d6cb 41be daa1 d33d
00000270: 7d54 2f3e b2fa f5be 6871 2b3f 7703 713e
00000280: d6e9 d53d eee8 2dbe 2157 28be 7499 2e3e
00000290: 4958 04be 8813 7dbe 8d36 923e 5ae4 b33d
000002a0: dfb7 9abe 37de 843e 9cab 06bc 5181 863c
000002b0: c35a af3e 88c7 7c3e faf5 e93e a598 bcbe
000002c0: 9859 93be b13a 103f 3536 28bf f577 4e3e
000002d0: 10a9 8f3d 98be 893e 580f db3d d421 e7bd
000002e0: 8e05 183e 7eae 3abe c2ee c9be be15 b1bc
000002f0: 5f33 cdbe 7042 0f3e c816 7fbe 4814 603e
00000300: 6ec0 8dbd 649b 03be 3c49 f2bd e712 373e
00000310: 43d5 03bf 5a6a 60bd 38b6 59be 5894 afbe
00000320: d365 833d 81ba 833e 7b71 c5bd cbc9 dbbd
00000330: 1a34 57be c39d 693e 183b ac3d 243d 743d
00000340: fe84 70bc e1b1 a5be f4eb 0bbe d2cb 7a3e
00000350: 925a 9bbe 8479 793e 90cd a0bc d162 ecbe
00000360: a9e6 7ebe 08a1 2ebd 3dd2 dbbe f67a 21be
00000370: 87a0 efbc 014c 423d 2910 26be 809f 9ebe
00000380: 26aa 15be d018 b5bd c053 32be 3768 97bc
00000390: 3f55 ecbd 2572 99be a944 6bbe 967c 4cbe
000003a0: 90b8 2dbe a0da 9b3e 7ea7 133e 80ff d0bd
000003b0: 46e7 263e 277d 1abc 71be 43bc faf1 1c3d
000003c0: e879 3b3e e835 4dbe e809 503e 5440 1d3d
000003d0: 448d 393e 33c1 79bd 7fb0 a0be be2b 943e
000003e0: 3ea0 143d a4d0 a3be d70e 363e ab61 a83c
000003f0: bf09 a23e e999 9ebe c51b f1bc 95ec ec3d

Nnet.Hidden_layer_5.bias f4 [30]
0.035389464 0.27130118 -0.115528636 0.32462427 0.028760519 0.15870193 -0.22886457 0.14954486
0.05077408 0.146107 -0.007620508 -0.19102366 -0.17453344 -0.16642323 -0.35299543 0.13591361
-0.057796 0.14041033 -0.20134118 -0.3304502 -0.19560769 0.065803885 0.16866198 0.30436516
0.23768327 -0.3321266 0.0077291 -0.17320889 -0.23981656 0.043255545
00000000: 8bf4 103d fde7 8a3e 479a ecbd 2735 a63e
00000010: 2e9b eb3c c282 223e 795b 6abe 4a22 193e
00000020: 7bf8 4f3d 139d 153e 74b5 f9bb b59b 43be
00000030: e5b8 32be da6a 2abe d1bb b4be f02c 0b3e
00000040: 80bb 6cbd bac7 0f3e 622c 4ebe c530 a9be
00000050: 624d 48be 30c4 863d bab5 2c3e c0d5 9b3e
00000060: 3e63 733e 7f0c aabe 6444 fd3b ac5d 31be
00000070: 7992 75be ba2c 313d

Nnet.Output.weight f4 [2, 30]
-0.2892244 -0.27163708 -0.45604298 0.4061443 -0.284023 -0.44962293 0.33411598 -0.27315676
0.32087415 -0.041858975 0.39122787 0.5577689 -0.4388858 0.16620858 0.35957873 0.42454737
-0.2225387 -0.1331059 0.16406009 -0.40956447 -0.5762636 0.4324231 0.64092624 0.094630755
0.2718462 -0.55451876 -0.24645929 -0.2737816 -0.44421905 0.40906346 0.11836983 -0.39799863
-0.24555373 0.43244672 -0.4513581 0.1374411 0.05122564 0.2878497 -0.31230202 0.58465666
0.25217435 0.45089057 0.22980018 -0.4924929 0.29366198 -0.5099174 -0.57566315 0.38114664
-0.17818384 0.05699096 -0.2760647 -0.08794534 0.00961269 -0.47732672 -0.106062196 -0.047464
0.032622606 -0.3026496 0.3809187 0.2897013
00000000: 3815 94be 0414 8bbe 777e e9be 25f2 cf3e
00000010: 766b 91be fa34 e6be 4011 ab3e 34db 8bbe
00000020: 9e49 a43e 5174 2bbd 054f c83e f1c9 0e3f
00000030: a4b5 e0be 9532 2a3e b41a b83e 465e d93e
00000040: 2fe1 63be ea4c 08be 5eff 273e 6fb2 d1be
00000050: 0386 13bf 9066 dd3e be13 243f c5cd c13d
00000060: 6d2f 8b3e f1f4 0dbf d35f 7cbe 1a2d 8cbe
00000070: ae70 e3be c470 d13e e26b f23d 7ac6 cbbe
00000080: 7072 7bbe a869 dd3e 6918 e7be 5cbd 0c3e
00000090: fad1 513d 0961 933e 0de6 9fbe 0fac 153f
000000a0: ff1c 813e 21db e63e bd50 6b3e 0828 fcbe
000000b0: dd5a 963e f289 02bf a95e 13bf a725 c33e
000000c0: d375 36be 5a6f 693d 5a58 8dbe b01c b4bd
000000d0: 8b7e 1d3c 2b64 f4be 2337 d9bd 9c69 42bd
000000e0: 489f 053d e3f4 9abe c707 c33e bb53 943e

Nnet.Output.bias f4 [2]
0.07573437 -0.0021769402
00000000: 9f1a 9b3d ffaa 0ebb
