PINN/GPINN_gu.pt (torch, 19343 bytes, 12 tensors)

Nnet.Hidden_layer_1.weight f4 [30, 2]
0.66452116 -0.32184336 -0.0072798226 0.5307772 -0.65478015 0.05133336 0.47797608 -0.2075479
0.0320062 -0.40284172 0.7566269 0.11561771 0.85540706 0.30987045 0.24958414 -0.7782169
0.676688 -0.6233159 0.67213464 0.5987711 0.1460072 0.70223755 -0.19819297 -0.5893819
0.32658142 -0.17358142 -0.8319292 -0.7466702 -0.46513578 0.26159534 -0.5361122 0.38512167
0.5395559 -0.37706202 0.3960842 -0.023109429 0.5531733 -0.055146914 -0.47726244 0.62250227
-0.41961014 0.23419137 0.44143233 -0.5940187 -0.7099338 0.4092234 -1.0560975 -0.4672815
0.3599173 -0.2636785 0.63864946 0.0061490233 -0.28088048 -0.6263611 0.2173941 -0.6652856
-0.6229534 -0.50889236 0.13475019 -0.17362759
00000000: 0f1e 2a3f a7c8 a4be 948b eebb 04e1 073f
00000010: ac9f 27bf ee42 523d 48b9 f43e 7087 54be
00000020: ef18 033d 4541 cebe 4db2 413f fac8 ec3d
00000030: f5fb 5a3f 57a7 9e3e fc92 7f3e 3939 47bf
00000040: 6d3b 2d3f a191 1fbf 0411 2c3f 1049 193f
00000050: e982 153e d7c5 333f 19f3 4abe bbe1 16bf
00000060: ae35 a73e 54bf 31be 50f9 54bf c725 3fbf
00000070: 4726 eebe d3ef 853e a63e 09bf ab2e c53e
00000080: 5620 0a3f 460e c1be 8ccb ca3e fc4f bdbc
00000090: c49c 0d3f bbe1 61bd be5b f4be 4f5c 1f3f
000000a0: 24d7 d6be ddcf 6f3e 6b03 e23e 9c11 18bf
000000b0: 39be 35bf bb85 d13e 342e 87bf 853f efbe
000000c0: 1547 b83e de00 87be 887e 233f bf7d c93b
000000d0: 91cf 8fbe 3359 20bf 8f9c 5e3e 2850 2abf
000000e0: e079 1fbf c546 02bf f4fb 093e 6ecb 31be

Nnet.Hidden_layer_1.bias f4 [30]
0.6433942 -0.12039905 0.604163 -0.6635991 0.20997141 -0.3374511 0.2506062 0.36528286
0.050946783 -0.60703504 -0.6844416 0.050522365 0.31781235 0.07055276 -0.237509 -0.6089532
0.63206506 0.6553384 -0.42799795 -0.033602234 -0.022540264 0.17497072 -0.41411015 -0.2997341
-0.02947912 -0.56090915 0.3109578 -0.3044345 -0.75421757 0.06964105
00000000: 7bb5 243f c793 f6bd 6daa 1a3f a1e1 29bf
00000010: bf02 573e 64c6 acbe 754f 803e 5b06 bb3e
00000020: 93ad 503d a666 1bbf 9137 2fbf 8af0 4e3d
00000030: 4db8 a23e f77d 903d 8f35 73be 5be4 1bbf
00000040: 04cf 213f 42c4 273f 8c22 dbbe 7fa2 09bd
00000050: 5ca6 b8bc 862b 333e 3f06 d4be bf76 99be
00000060: 327e f1bc be97 0fbf dc35 9f3e d7de 9bbe
00000070: 6714 41bf f89f 8e3d

Nnet.Hidden_layer_2.weight f4 [30, 30]
-0.051993534 -0.039188772 0.16988316 -0.12309131 0.04168081 -0.06646428 -0.254401 -0.095866434
0.10304378 -0.24507338 -0.21349764 0.2726573 -0.14718993 0.32165512 -0.20093164 -0.14020255
0.12637705 -0.03311133 -0.07323493 -0.1767231 0.029173031 0.19961323 0.038729742 0.29736847
-0.11015434 -0.17689382 0.06599916 0.022534452 0.06743347 0.062204864 -0.018086066 0.012977349
-0.2500376 0.071358435 -0.08097733 0.112846784 0.15689832 -0.084008895 0.08540786 0.6375083
0.28124937 -0.1463643 -0.088269584 -0.30372134 0.04984554 0.18789902 0.056421157 -0.009848709
0.33389354 -0.058455292 -0.12702988 -0.09918795 -0.08761638 0.104002275 -0.1502761 0.32448217
-0.3716183 -0.15820035 0.122797675 -0.05888716 -0.15693702 -0.06357168 0.113772966 0.15260938
-0.13425031 -0.051603585 0.03830756 -0.257981 -0.012245931 0.19394113 0.18388334 -0.17447156
0.012599189 -0.18257262 0.12156975 0.12731498 0.045178004 -0.0736726 -0.17107618 0.083877295
-0.106136724 -0.2561592 0.19885352 -0.14288588 0.06544911 0.07961749 0.0059541776 -0.013250838
0.09502339 -0.15270986 -0.20420913 0.088022225 -0.26525125 0.2776775 -0.22726811 0.17508896
-0.049278934 -0.26460296 0.10971241 0.1354135 0.43622622 0.080322094 -0.23362993 -0.25614825
-0.09187949 0.2705929 -0.18669592 0.077997856 0.37047637 -0.053449478 -0.110478126 0.11043063
0.006982765 -0.13883045 0.11573562 0.08064529 -0.22243947 0.1416198 -0.09254938 -0.03643282
-0.03788205 -0.12810647 0.18184814 -0.058755722 -0.025275053 -0.029812532 -0.19904925 0.2346805
0.07835018 -0.2631358 -0.3421196 0.2905762 -0.11352143 0.26534334 -0.18176922 -0.22555752
0.12086199 0.2169552 -0.01721089 0.16108169 -0.015353099 -0.098154195 -0.0044234563 0.19028004
0.02579787 -0.10738904 0.013043737 -0.0570171 0.22959289 0.13203046 0.11596631 0.09261858
0.28135857 -0.03974587 -0.064649954 -0.1387485 -0.07380855 0.020533882 -0.22793508 -0.16878831
0.1280899 0.0015362153 -0.16113782 -0.030414775 0.13005143 -0.025961166 0.09633416 -0.16989848
0.026358293 0.10108528 0.20492855 -0.13581355 0.12878388 -0.22908725 -0.16360845 -0.08168366
0.07257841 -0.21009587 0.075063325 0.0059681917 0.13089985 -0.06108329 0.41378453 -0.26357266
0.04619057 -0.29583523 0.04390873 -0.012399956 -0.28172725 -0.3018924 -0.11913883 0.049134973
-0.0695027 0.10911355 0.11116623 0.00935541 -0.091461 -0.009141586 -0.21486022 0.24484229
-0.07451459 -0.25417128 -0.17202891 -0.16330442 -0.032976367 -0.12573253 0.1630234 0.02824631
-0.10763597 -0.05998909 0.20963034 -0.05583156 -0.02362945 0.05068228 -0.08833337 0.08984983
-0.031184068 0.18927367 0.21620804 0.39218187 0.04784048 -0.16403714 0.11455277 -0.25233036
0.06989953 -0.014357614 0.2058466 0.18375921 0.21110448 -0.07910574 -0.08824512 0.072153896
-0.14888515 0.06576948 -0.0609677 0.17538254 -0.22254984 0.07461292 0.12373485 -0.04128581
-0.22399811 -0.09569598 0.035385177 0.025670202 0.012070753 0.005177437 -0.21755657 -0.28016484
-0.23474205 -0.069391645 0.046822004 -0.21994211 -0.23857199 -0.13691847 0.08437287 0.23237073
00000000: 2cf7 54bd 6884 20bd daf5 2d3e 4c17 fcbd
00000010: 7fb9 2a3d 6d1e 88bd d940 82be 9f55 c4bd
00000020: 9e08 d33d 84f4 7abe 209f 5abe bd99 8b3e
00000030: f5b8 16be fbaf a43e 06c1 4dbe 4291 0fbe
00000040: fc68 013e bf9f 07bd 32fc 95bd e6f6 34be
00000050: 48fc ee3c 6967 4c3e 14a3 1e3d ae40 983e
00000060: 9998 e1bd a723 35be 912a 873d 2c9a b83c
00000070: 8f1a 8a3d 87ca 7e3d 3b29 94bc f29e 543c
00000080: ee04 80be 5f24 923d 71d7 a5bd 371c e73d
00000090: f4a9 203e db0c acbd 51ea ae3d be33 233f
000000a0: ebff 8f3e 86e0 15be afc6 b4bd 5d81 9bbe
000000b0: d62a 4c3d 9a68 403e df19 673d 7b5c 21bc
000000c0: 18f4 aa3e d16e 6fbd 1f14 02be 0d23 cbbd
000000d0: 3770 b3bd 25ff d43d fae1 19be 8722 a63e
000000e0: c144 bebe 46ff 21be 597d fb3d aa33 71bd
000000f0: 19b4 20be de31 82bd cd01 e93d a245 1c3e
00000100: ea78 09be 485e 53bd 63e8 1c3d 1616 84be
00000110: 28a3 48bc 8198 463e ea4b 3c3e aca8 32be
00000120: d46c 4e3c 51f4 3abe 90f9 f83d dc5e 023e
00000130: 920c 393d a9e1 96bd 982e 2fbe dcc7 ab3d
00000140: 365e d9bd 4c27 83be 42a0 4b3e ad50 12be
00000150: 2f0a 863d 7f0e a33d 431b c33b 0b1a 59bc
00000160: a09b c23d f95f 1cbe 331c 51be ff44 b43d
00000170: 03cf 87be bf2b 8e3e f9b8 68be 854a 333e
00000180: b5d8 49bd 0a7a 87be e6b0 e03d d6a9 0a3e
00000190: 0b59 df3e e97f a43d af3c 6fbe dd25 83be
000001a0: 502b bcbd 278b 8a3e 372d 3fbe 57bd 9f3d
000001b0: 14af bd3e d7ed 5abd 5b42 e2bd 7429 e23d
000001c0: aecf e43b 9229 0ebe cc06 ed3d 5c29 a53d
000001d0: 2cc7 63be c804 113e 888a bdbd 953a 15bd
000001e0: 352a 1bbd 582e 03be 6636 3a3e d7a9 70bd
000001f0: a10d cfbc 6939 f4bc 91d3 4bbe 1650 703e
00000200: 0f76 a03d bcb9 86be 4d2a afbe 67c6 943e
00000210: ec7d e8bd 15db 873e b621 3abe 8df8 66be
00000220: 7e86 f73d 8129 5e3e dafd 8cbc 99f2 243e
00000230: 918b 7bbc 1105 c9bd a4f2 90bb c5d8 423e
00000240: 0e56 d33c c9ee dbbd 66b5 553c c38a 69bd
00000250: 661a 6b3e fe32 073e bf7f ed3d cfae bd3d
00000260: 3b0e 903e 91cc 22bd 3267 84bd 1614 0ebe
00000270: f028 97bd ac36 a83c d067 69be d8d6 2cbe
00000280: 002a 033e d55a c93a 5001 25be 6828 f9bc
00000290: 342c 053e 83ac d4bc d84a c53d def9 2dbe
000002a0: 59ed d73c cd05 cf3d cad8 513e b512 0bbe
000002b0: ecdf 033e d995 6abe f988 27be c349 a7bd
000002c0: fda3 943d 5f23 57be cdba 993d d290 c33b
000002d0: 9c0a 063e 7932 7abd 91db d33e fff2 86be
000002e0: 5332 3d3d b777 97be a4d9 333d 2f29 4bbc
000002f0: 8e3e 90be a491 9abe 0fff f3bd c141 493d
00000300: 6e57 8ebd ed76 df3d 1fab e33d 6f47 193c
00000310: e84f bbbd 97c6 15bc 5104 5cbe f0b7 7a3e
00000320: 1b9b 98bd bd22 82be 5928 30be 4639 27be
00000330: 3a12 07bd 07c0 00be 9bef 263e ce64 e73c
00000340: 3f70 dcbd 1fb7 75bd 56a9 563e a2af 64bd
00000350: 8c92 c1bc 3998 4f3d 20e8 b4bd 3003 b83d
00000360: bb75 ffbc f5d0 413e a465 5d3e 10cc c83e
00000370: 61f4 433d 5af9 27be a59a ea3d 7231 81be
00000380: 7c27 8f3d 333c 6bbc 73c9 523e 602b 3c3e
00000390: c62b 583e 3102 a2bd dcb9 b4bd 6cc5 933d
000003a0: 5975 18be 26b2 863d 44b9 79bd 7b97 333e
000003b0: 1be4 63be a9ce 983d b268 fd3d 4f1b 29bd
000003c0: c35f 65be 41fc c3bd 0cf0 103d 514a d23c
000003d0: 68c4 453c 7da7 a93b 26c7 5ebe c471 8fbe
000003e0: 3860 70be 351d 8ebd 6ec8 3f3d 8138 61be
000003f0: 374c 74be 5b34 0cbe afcb ac3d 98f2 6d3e

Nnet.Hidden_layer_2.bias f4 [30]
0.05113366 -0.25862032 -0.18611231 -0.22903968 0.23531216 0.04816576 0.34565946 0.15659064
-0.20518938 -0.08288522 0.185871 -0.14570762 -0.01620228 -0.013605031 0.15670705 -0.11057894
-0.17352574 0.2733395 0.032962292 -0.004988228 -0.0066218884 0.12627564 -0.08582124 0.0076797428
0.14569049 -0.030606903 -0.048877433 0.05874655 -0.06540313 0.0524233
00000000: 8771 513d e269 84be 3a94 3ebe 6189 6abe
00000010: acf5 703e 7649 453d 47fa b03e 4c59 203e
00000020: 2a1d 52be babf a9bd f854 3e3e 6134 15be
00000030: a5ba 84bc a3e7 5ebc d077 203e 3677 e2bd
00000040: bbb0 31be 28f3 8b3e 7803 073d 4a74 a3bb
00000050: 6dfc d8bb 674e 013e 0cc3 afbd 5aa6 fb3b
00000060: e32f 153e 54bb fabc b433 48bd 39a0 703d
00000070: 14f2 85bd d0b9 563d

Nnet.Hidden_layer_3.weight f4 [30, 30]
-0.10780755 0.060071517 0.1755957 0.12873623 -0.083282165 0.25013798 0.103886366 -0.014761876
0.0375603 0.17552713 0.018873759 0.1811137 0.21856818 -0.03439872 -0.00037758774 -0.107378215
-0.037823476 0.0008576134 0.08059384 -0.078024514 0.081454545 0.19370216 -0.19053955 -0.16999474
-0.042391445 -0.045021906 0.24661559 -0.23477073 0.033635583 0.11298998 0.21570225 0.015486173
-0.091481 0.071763635 0.11959707 -0.1756241 -0.14143407 -0.0012388604 -0.13376974 -0.00018669863
-0.16924034 -0.182062 -0.41070196 -0.13888888 -0.0057090893 0.05345271 0.26051515 0.035027876
-0.10429412 0.19126466 0.22491765 -0.3032234 0.34509814 0.13201204 -0.20226505 0.02494848
-0.20356928 0.1342378 -0.14913248 0.035579544 0.107815966 0.12947524 0.048113678 -0.18917866
-0.08677588 -0.18764858 -0.020265143 0.13173987 0.012204817 -0.20180368 -0.027367556 -0.05342347
-0.0019579306 0.054909665 -0.070133254 -0.013670233 -0.18276268 -0.24519773 -0.2553736 -0.08925179
-0.07105587 -0.14385223 -0.10319585 0.053716954 -0.25155064 -0.28936106 -0.042839624 -0.015243851
-0.12479632 -0.12889859 0.32947174 -0.22344321 -0.6347882 -0.44802287 0.57370746 0.28121778
0.44823536 -0.017608678 -0.067926295 -0.35800347 0.39725247 -0.394082 0.3195943 -0.6279037
0.19035326 -0.25260472 0.15068284 0.05493514 -0.11398897 0.23718409 -0.2857556 -0.22652681
0.04638921 0.29354987 0.30301827 -0.16110776 0.09607646 -0.44046688 -0.10583456 -0.17557324
-0.25150734 0.1741035 0.00022364462 0.16823216 -0.33125407 -0.06302665 0.03760857 0.0642034
-0.06515141 0.11729865 -0.010706525 -0.085983366 0.4298261 -0.12122693 -0.05421041 0.033881914
-0.20171316 0.051404692 -0.09065437 -0.07650801 -0.043846052 0.15134448 -0.31847194 -0.059564404
0.1783541 -0.07048655 0.16691732 -0.09652053 0.019910948 0.15500423 -0.1282448 0.21144016
-0.1596647 0.02828717 0.1665079 -0.038180657 0.06442189 0.08813547 -0.2679339 -0.027411038
0.079612955 -0.24684116 0.33807522 -0.21852764 -0.05263887 -0.16511294 -0.12070767 -0.1957224
-0.2565151 0.23468798 -0.2621741 -0.05328506 0.1258118 0.06225813 0.024029726 -0.0006863366
0.022266798 0.2473108 0.18563615 -0.27126107 0.17495213 -0.12504297 -0.014849939 0.08385443
0.201913 -0.28836083 -0.030741077 0.2283918 0.017154241 -0.12183811 -0.099599555 -0.2688281
0.06790747 -0.06105401 0.07629786 -0.2226855 0.122040994 0.03340576 0.13483939 0.19488116
-0.05752755 -0.060519304 0.023300368 0.20086427 0.0072638458 -0.18522327 -0.15530516 0.24552768
0.040149324 -0.2502678 0.3484153 0.24896728 -0.101031534 0.13407749 0.14983934 -0.08595825
-0.3177185 -0.1240157 0.12168476 0.05900785 0.11458043 0.05756628 -0.56545997 0.051395137
0.35473156 -0.1633779 0.421982 -0.18415844 -0.119629934 0.13495795 0.11952141 -0.33496752
0.26831883 0.35045192 -0.15775083 -0.07342744 -0.1821778 0.19832025 0.08800421 -0.12878451
0.1837232 -0.28700125 -0.03156667 -0.1047023 0.09296156 0.19116843 0.32600498 0.021032173
-0.0493111 0.16362633 0.23587005 0.1760463 0.044298876 0.06718806 -0.25214267 0.056476727
00000000: 34ca dcbd 8d0d 763d 5ccf 333e 6ed3 033e
00000010: d78f aabd 1612 803e 60c2 d43d ccdb 71bc
00000020: d4d8 193d 62bd 333e 249d 9a3c df75 393e
00000030: 56d0 5f3e ace5 0cbd f8f6 c5b9 1ce9 dbbd
00000040: caec 1abd 76d1 603a 620e a53d 51cb 9fbd
00000050: a4d1 a63d dc59 463e cd1c 43be 1a13 2ebe
00000060: a7a2 2dbd e468 38bd cc88 7c3e bd67 70be
00000070: 77c5 093d 4a67 e73d 0de1 5c3e b8b9 7d3c
00000080: 645a bbbd d0f8 923d 4fef f43d ced6 33be
00000090: 18d4 10be 4261 a2ba effa 08be 88c4 43b9
000000a0: 574d 2dbe 766e 3abe 8747 d2be e338 0ebe
000000b0: 5013 bbbb 3bf1 5a3d 3e62 853e 6479 0f3d
000000c0: 2898 d5bd e2da 433e d050 663e 1940 9bbe
000000d0: b4b0 b03e 2a2e 073e 921e 4fbe c160 cc3c
000000e0: 7774 50be a275 093e 2fb6 18be dbbb 113d
000000f0: 9ece dc3d 2895 043e d912 453d 0db8 41be
00000100: 8db7 b1bd f326 40be 1603 a6bc d1e6 063e
00000110: b6f6 473c a0a5 4ebe ed31 e0bc 92d2 5abd
00000120: a050 00bb f5e8 603d 06a2 8fbd 1df9 5fbc
00000130: 2426 3bbe 1d15 7bbe 54c0 82be a4c9 b6bd
00000140: bd85 91bd 004e 13be 5958 d3bd 4f06 5c3d
00000150: 3fcb 80be 2227 94be 9a78 2fbd 58c1 79bc
00000160: 3795 ffbd fefd 03be 85b0 a83e 4cce 64be
00000170: 7b81 22bf 4163 e5be 7ede 123f c7fb 8f3e
00000180: 1b7f e53e 1340 90bc f11c 8bbd 3b4c b7be
00000190: ad64 cb3e 1ec5 c9be dda1 a33e 4cbe 20bf
000001a0: f7eb 423e 6855 81be 9a4c 1a3e ab03 613d
000001b0: 0d73 e9bd 63e0 723e 8f4e 92be a5f6 67be
000001c0: 9d02 3e3d 2b4c 963e 3625 9b3e 6ff9 24be
000001d0: bcc3 c43d e084 e1be cabf d8bd 79c9 33be
000001e0: 92c5 80be 3048 323e 2582 6a39 0d45 2c3e
000001f0: 229a a9be 1e14 81bd 720b 1a3d 127d 833d
00000200: 1a6e 85bd 463a f03d 6c6a 2fbc 0c18 b0bd
00000210: 2b12 dc3e d345 f8bd bc0b 5ebd c3c7 0a3d
00000220: e58d 4ebe ba8d 523d 00a9 b9bd 3bb0 9cbd
00000230: eb97 33bd 0cfa 1a3e c10e a3be cef9 73bd
00000240: 75a2 363e 415b 90bd 60ec 2a3e 8eac c5bd
00000250: 491c a33c 6eb9 1e3e 9b52 03be c583 583e
00000260: 257f 23be 7fba e73c 0c81 2a3e 5263 1cbd
00000270: a0ef 833d 5f80 b43d a22e 89be 1d8d e0bc
00000280: 1e0c a33d eec3 7cbe 3218 ad3e b6c5 5fbe
00000290: db9b 57bd 5e13 29be 9535 f7bd 746b 48be
000002a0: f255 83be 0c52 703e af3b 86be 6f41 5abd
000002b0: cfd4 003e 6202 7f3d fdd9 c43c 45eb 33ba
000002c0: dc68 b63c 0b3f 7d3e 6717 3e3e bbe2 8abe
000002d0: a726 333e 440b 00be 294d 73bc dfbb ab3d
000002e0: 48c2 4e3e 08a4 93be b6d4 fbbc 8adf 693e
000002f0: 0d87 8c3c 4286 f9bd dafa cbbd d6a3 89be
00000300: 1213 8b3d c513 7abd 0d42 9c3d ab07 64be
00000310: a1f0 f93d 7ad4 083d 5613 0a3e ed8e 473e
00000320: 02a2 6bbd 17e3 77bd 6ae0 be3c 5daf 4d3e
00000330: 8e05 ee3b 2bab 3dbe 5108 1fbe 9c6b 7b3e
00000340: 9e73 243d 1a23 80be 7d63 b23e 47f1 7e3e
00000350: 9fe9 cebd 9c4b 093e 7c6f 193e e10a b0bd
00000360: 00ac a2be f1fb fdbd dc35 f93d 37b2 713d
00000370: 25a9 ea3d 9fca 6b3d fcc1 10bf b583 523d
00000380: 609f b53e 894c 27be 060e d83e 0894 3cbe
00000390: 8a00 f5bd 6b32 0a3e a4c7 f43d dd80 abbe
000003a0: 1661 893e 6f6e b33e 6f89 21be 2061 96bd
000003b0: d18c 3abe 7714 4b3e 8d3b b43d 16e0 03be
000003c0: ef21 3c3e d4f1 92be 0d4c 01bd 296e d6bd
000003d0: a162 be3d a8c1 433e 20ea a63e aa4b ac3c
000003e0: 70fa 49bd a98d 273e eb87 713e 7b45 343e
000003f0: bd72 353d e599 893d d818 81be 2454 673d

Nnet.Hidden_layer_3.bias f4 [30]
-0.02833262 -0.19158037 -0.06945977 0.22230543 -0.022464877 -0.13561329 -0.059063517 -0.05621419
0.15999311 0.17176183 -0.21886344 -0.25253576 0.03572103 -0.24100272 -0.061231576 -0.42601523
0.14344291 -0.14714941 -0.18178506 0.035024185 0.27038592 0.26985577 -0.1397923 -0.31674206
-0.07366878 -0.10121962 -0.20527701 -0.012082651 -0.09503709 0.12422161
00000000: d019 e8bc a52d 44be ed40 8ebd 09a4 633e
00000010: 4308 b8bc 36de 0abe 96ec 71bd da40 66bd
00000020: 3cd5 233e 55e2 2f3e bd1d 60be 5e4c 81be
00000030: 3750 123d 6bc9 76be f6cd 7abd ab1e dabe
00000040: b3e2 123e 56ae 16be dd25 3abe 8575 0f3d
00000050: 0670 8a3e 892a 8a3e b625 0fbe 042c a2be
00000060: a8df 96bd 3b4c cfbd 2334 52be 50f6 45bc
00000070: cea2 c2bd e667 fe3d

Nnet.Hidden_layer_4.weight f4 [30, 30]
-0.14172201 -0.2552441 -0.15105733 -0.112498246 0.055652708 0.003773292 -0.24605133 -0.18881586
-0.06293153 -0.0947744 -0.017704576 -0.19624066 -0.10871225 -0.16482404 0.18091752 -0.119466394
0.23042275 0.025444573 0.08183356 -0.50997514 -0.06285201 0.38288262 0.08089596 0.16082418
-0.20388056 -0.046470646 -0.34293932 -0.024626294 0.07545175 0.08056738 0.2336178 -0.2803178
-0.2910198 -0.25004885 0.22501644 -0.20203069 -0.1455369 -0.05070761 0.21582513 -0.3327032
0.08029267 -0.062091783 0.02997135 -0.052265726 0.27496657 -0.124906436 -0.010187056 0.2908164
-0.07283055 0.030051248 0.005918402 -0.02673603 -0.013257224 -0.25740385 0.14138778 -0.014664469
0.13757019 -0.15485847 0.29647708 -0.02204993 -0.2272988 0.28612053 0.05925551 -0.06458287
-0.09141984 0.13809524 0.05666847 0.19567585 -0.02284026 -0.039730474 0.16347025 -0.17057931
0.013285224 -0.016630977 -0.24861577 0.12129742 0.052003026 -0.08337492 -0.21580875 0.021585919
-0.09073883 -0.1716511 -0.09629839 0.059666116 -0.20697062 0.057415847 -0.14350659 0.28222734
-0.09434116 -0.14608788 0.033057943 0.1131215 0.030983526 0.07063354 0.10466909 -0.19950864
-0.20443505 -0.16821809 -0.079637796 -0.24760015 -0.27361178 0.28368056 0.10917736 0.03362279
0.18044753 -0.13866942 0.20208067 0.03652402 0.08372134 0.3313115 -0.0015916674 -0.22982828
0.16233492 -0.15451625 0.25910017 0.23109277 0.13515674 -0.16321763 0.19893168 0.052841026
-0.06531372 -0.18792266 0.42589846 0.38633206 0.07275083 0.1784113 -0.07186919 -0.031565737
-0.15432261 0.28808504 -0.025611656 -0.48841 -0.22090384 -0.18995275 -0.2278554 -0.005439278
-0.12481723 -0.14020097 -0.19009686 -0.0415439 -0.06704929 0.19335917 -0.11687325 -0.0028062994
-0.051550608 -0.1280663 -0.258461 -0.06541431 -0.03425242 -0.10719851 -0.10116657 0.21372141
-0.040335223 -0.012360076 -0.0036053113 0.03299526 0.18011495 0.29604864 -0.3365639 -0.04959948
0.2736626 0.12073202 -0.15008499 -0.030878073 -0.13247176 0.2126236 -0.11034267 -0.2424683
-0.18806134 -0.04933046 -0.2989689 0.041701328 0.061628107 -0.018447734 -0.18416716 0.11006172
0.09684117 -0.09082554 -0.0038849064 -0.22060195 0.041921914 -0.15967913 0.059547763 -0.23651582
0.34567666 0.124832235 -0.12695475 -0.06502653 0.15471911 0.06270866 0.050065544 -0.019245207
0.061371416 0.19151041 0.25417492 0.10702881 0.08832606 0.17459078 0.26159242 -0.039341796
0.041142497 -0.23440982 0.21187067 -0.24941897 -0.00645235 0.0052169734 -0.09612055 -0.07831713
-0.006106923 0.29528353 -0.24824439 -0.10331339 -0.17412077 0.27635822 0.0028768585 0.18095712
-0.11932444 0.0026527902 0.02318735 -0.2333717 -0.19731134 0.17959847 0.30783266 -0.034467097
-0.118477106 -0.40216643 -0.26157972 0.20470165 -0.17336696 0.031499606 0.12483397 0.25607902
-0.19563505 -0.39408264 -0.20775536 -0.28940204 0.43541822 -0.13583064 0.0020402095 -0.094538145
-0.13500524 -0.107314125 0.05349835 -0.033614475 -0.03325676 -0.063741125 0.00039357453 0.13302697
-0.27298313 0.022595547 0.20620114 -0.14074764 -0.008856368 -0.022673106 -0.064974405 0.24283032
00000000: 931f 11be 5baf 82be c6ae 1abe 7b65 e6bd
00000010: 18f4 633d 5649 773b e1f4 7bbe f258 41be
00000020: 3fe2 80bd 1519 c2bd 3009 91bc 50f3 48be
00000030: 87a4 debd a2c7 28be 7142 393e ccaa f4bd
00000040: f1f3 6b3e 2371 d03c 5a98 a73d bb8d 02bf
00000050: 8eb8 80bd 3109 c43e c8ac a53d 18af 243e
00000060: 11c6 50be 0158 3ebd be95 afbe 15bd c9bc
00000070: 7286 9a3d 8300 a53d 8139 6f3e d185 8fbe
00000080: 8c00 95be 6706 80be b66a 663e 22e1 4ebe
00000090: a007 15be c8b2 4fbd 4301 5d3e 1358 aabe
000000a0: 7c70 a43d f453 7ebd 7a86 f53c 9614 56bd
000000b0: 6bc8 8c3e f2ce ffbd 9ce7 26bc e3e5 943e
000000c0: 2f28 95bd 092e f63c 28ef c13b 8505 dbbc
000000d0: d434 59bc 70ca 83be f5c7 103e 3e43 70bc
000000e0: 33df 0c3e 3893 1ebe d8cb 973e 0ea2 b4bc
000000f0: 04c1 68be 647e 923e e8b5 723d 0644 84bd
00000100: 533a bbbd d768 0d3e 331d 683d 405f 483e
00000110: 7f1b bbbc 6cbc 22bd bf64 273e 58ac 2ebe
00000120: 45aa 593c b03d 88bc 2295 7ebe c86a f83d
00000130: 2001 553d 78c0 aabd f8fc 5cbe f4d4 b03c
00000140: 48d5 b9bd 4ec5 2fbe 1738 c5bd 7564 743d
00000150: 1bf0 53be e12c 6b3d 64f3 12be 1a80 903e
00000160: f035 c1bd 1098 15be c467 073d 3fac e73d
00000170: 2ad1 fd3c 51a8 903d bf5c d63d fe4b 4cbe
00000180: 6c57 51be 5d41 2cbe 2419 a3bd e58a 7dbe
00000190: d816 8cbe 943e 913e 6198 df3d 0db8 093d
000001a0: 3dc7 383e 5bff 0dbe 3cee 4e3e 369a 153d
000001b0: 1876 ab3d a9a1 a93e 7f9f d0ba 1b58 6bbe
000001c0: 203b 263e 8239 1ebe c7a8 843e 95a3 6c3e
000001d0: 8766 0a3e 8622 27be bfb4 4b3e d56f 583d
000001e0: 33c3 85bd cc6e 40be 5d0f da3e 51cd c53e
000001f0: 63fe 943d 74b1 363e 2730 93bd 134b 01bd
00000200: bf06 1ebe e27f 933e 89cf d1bc e010 fabe
00000210: 9e34 62be f982 42be ed52 69be f93b b2bb
00000220: 2da0 ffbd d890 0fbe c0a8 42be f029 2abd
00000230: 2351 89bd f2ff 453e 3e5b efbd e4e9 37bb
00000240: bb26 53bd d023 03be 0055 84be f0f7 85bd
00000250: 444c 0cbd e48a dbbd 6b30 cfbd c9d9 5a3e
00000260: 8c36 25bd eb81 4abc 1647 6cbb 0a26 073d
00000270: 0e70 383e b093 973e 1a52 acbe d328 4bbd
00000280: 811d 8c3e 5942 f73d e1af 19be 03f4 fcbc
00000290: ada6 07be 00ba 593e 56fb e1bd 9c49 78be
000002a0: 2793 40be bd0e 4abd 7412 99be 03cf 2a3d
000002b0: c16d 7c3d b41f 97bc 5196 3cbe 0a68 e13d
000002c0: aa54 c63d be02 babd ea99 7ebb 7ae5 61be
000002d0: 50b6 2b3d ed82 23be 5be8 733d 3431 72be
000002e0: 88fc b03e 0ba8 ff3d 6d00 02be a12c 85bd
000002f0: b06e 1e3e 666d 803d 8711 4d3d 20a8 9dbc
00000300: 9860 7b3d 4e1b 443e 3723 823e ec31 db3d
00000310: 4be4 b43d edc7 323e 71ef 853e dd24 21bd
00000320: 0985 283d 2109 70be a0f4 583e b067 7fbe
00000330: 3c6e d3bb 25f3 aa3b dada c4bd bb64 a0bd
00000340: 951c c8bb 672f 973e c733 7ebe f895 d3bd
00000350: b74c 32be d37e 8d3e ad89 3c3b d34c 393e
00000360: 5f60 f4bd 6fda 2d3b 66f3 bd3c fef8 6ebe
00000370: fc0b 4abe a9e8 373e 3e9c 9d3e 5f2d 0dbd
00000380: 20a4 f2bd c2e8 cdbe c7ed 85be 4f9d 513e
00000390: 1c87 31be bb05 013d f4a8 ff3d ca1c 833e
000003a0: 8e54 48be 33c5 c9be d2bd 54be 812c 94be
000003b0: 23ef de3e 3017 0bbe 09b5 053b 379d c1bd
000003c0: d03e 0abe 82c7 dbbd 1621 5b3d 55af 09bd
000003d0: 3e38 08bd b58a 82bd ae58 ce39 3938 083e
000003e0: 72c4 8bbe 4c1a b93c 6426 533e 2620 10be
000003f0: 4d1a 11bc f3bc b9bc 4d11 85bd 83a8 783e

Nnet.Hidden_layer_4.bias f4 [30]
0.10249113 0.024471458 0.18141857 -0.17831509 0.15384495 -0.014092291 -0.20094304 -0.01998975
-0.073394865 -0.11867327 0.08739966 0.0989294 0.08961775 -0.19452739 -0.0024378607 -0.19958588
0.036462195 0.11891815 0.04813917 -0.26710847 -0.13733388 -0.010574269 0.043513156 0.09754967
-0.00858004 0.110316984 0.03763311 0.29329345 0.08226478 0.09753541
00000000: dfe6 d13d 5e78 c83c cac5 393e 3b98 36be
00000010: 8889 1d3e 5ae3 66bc 03c4 4dbe 8bc1 a3bc
00000020: 0c50 96bd f90a f3bd 98fe b23d 7f9b ca3d
00000030: 8389 b73d 3032 47be 84c4 1fbb 3e60 4cbe
00000040: 6259 153d 5c8b f33d 942d 453d 71c2 88be
00000050: 41a1 0cbe b33f 2dbc da3a 323d 1fc8 c73d
00000060: 4c93 0cbc dfed e13d 2d25 1a3d 8f2a 963e
00000070: 707a a83d a5c0 c73d

Nnet.Hidden_layer_5.weight f4 [30, 30]
0.21051718 0.094696134 0.21170318 -0.26821914 0.4567575 0.1583019 -0.064134456 -0.112599
0.2501183 -0.2620711 -0.29773137 0.37003046 0.124802634 0.3368435 0.08413316 -0.3523637
0.053241014 0.09190799 0.40930644 0.55885196 -0.11905319 -0.3916246 -0.5344834 0.18433826
-0.16397263 -0.42040175 -0.39046833 0.055253223 0.11080119 -0.45715532 0.18014282 -0.23888665
0.09149505 0.096457 -0.22375529 -0.061506566 -0.061456814 0.52674186 -0.24666664 0.55741054
0.14283405 0.06863783 0.1904584 -0.18984842 -0.17149624 -0.21276963 -0.60556966 0.17171836
-0.31811896 -0.034192927 0.18313886 -0.111320764 -0.33156636 -0.024246216 0.14333776 0.058218747
-0.26043388 -0.008788991 -0.015120749 0.05475047 0.5114277 -0.027069464 0.45837006 -0.36002183
0.15839607 0.06179743 0.14612755 0.6213526 0.10740273 -0.13595822 -0.1572591 0.08577192
-0.25396916 0.17668268 0.061409216 -0.5467483 0.34848005 0.14111863 0.47446346 0.521793
-0.16216457 -0.5032647 -0.5895628 -0.014444002 -0.4218579 -0.42704877 -0.5295086 0.04008045
-0.31252685 -0.35468885 0.41682896 -0.19115056 0.054313507 0.040066425 -0.23668332 -0.3618239
0.22035803 -0.48078683 -0.0815729 -0.10173558 0.14820676 0.23405008 -0.33988664 -0.5338645
0.29430342 -0.15519562 -0.008599242 -0.13926576 -0.15102951 0.059582658 0.12618731 -0.037621256
-0.088917136 -0.110317305 -0.12956725 -0.19030556 -0.16757528 -0.10735219 -0.27855808 -0.13832627
0.2793645 -0.13899474 -0.2560515 0.04692649 0.17025629 -0.020044139 0.32046506 0.30250743
0.20381759 0.086032465 0.18887213 0.27581662 -0.13326144 0.26848832 0.16005497 -0.25645226
-0.12563382 0.2792188 -0.41279268 0.48878604 0.34935725 -0.22977005 -0.45794922 -0.17244482
0.073575474 0.09471541 -0.16966197 -0.15859403 -0.121770695 -0.18929818 -0.54191506 0.25643012
-0.03295978 0.027089793 -0.0822867 -0.041199613 -0.17215009 0.1269642 0.04739126 0.2073352
-0.09113247 -0.1996752 0.19327815 0.1323449 -0.22026095 -0.21283263 -0.17179301 -0.03020806
-0.07840897 0.012792435 -0.09191975 0.17500682 0.046330266 0.31636313 0.32882023 -0.19574715
-0.24692623 -0.08612802 -0.28903627 -0.040526755 0.08633405 0.067357354 0.22053434 -0.31725144
0.18894278 0.06237283 -0.18297882 -0.030666925 -0.100375354 -0.19705617 0.037410993 0.24012588
0.03341481 -0.24404019 0.047643304 0.057474513 0.27737275 0.13533132 0.011077277 -0.16879678
0.29488194 0.28061518 -0.019157985 -0.32242888 -0.2247196 0.28504005 -0.11387391 0.048301708
-0.078049965 -0.15454979 -0.27146286 0.17729978 -0.18116911 0.2204327 -0.1517869 -0.2835167
-0.07068698 0.00046367833 -0.16533439 -0.03586495 0.1678605 -0.05287263 0.03357201 -0.16991815
-0.09714339 -0.13639799 -0.031782325 -0.19295108 -0.20757183 -0.09950094 -0.030608393 -0.18356605
-0.4053091 0.26224267 0.21144237 -0.028599197 -0.02713742 -0.23237328 -0.26843935 0.25043923
0.029946411 -0.20362662 0.1836644 0.12541087 0.15830703 -0.08759749 -0.15759118 0.10407826
0.07616461 -0.09395008 0.10238846 0.17918532 0.24237238 -0.07513978 -0.011970118 -0.018473422
00000000: d191 573e 0cf0 c13d b8c8 583e 0554 89be
00000010: 1edc e93e e519 223e ed58 83bd 4e9a e6bd
00000020: 810f 803e 2f2e 86be 3f70 98be a274 bd3e
00000030: 8698 ff3d c076 ac3e 024e ac3d 0469 b4be
00000040: 4013 5a3d 423a bc3d 9d90 d13e ec10 0f3f
00000050: 29d2 f3bd 0583 c8be e7d3 08bf 2bc3 3c3e
00000060: 71e8 27be e63e d7be 77eb c7be 3451 623d
00000070: bceb e23d 4310 eabe 5c77 383e b49e 74be
00000080: c261 bb3d 3f8b c53d 1b20 65be 4fee 7bbd
00000090: 24ba 7bbd 8ed8 063f 2e96 7cbe 75b2 0e3f
000000a0: 1743 123e fe91 8c3d 8707 433e a067 42be
000000b0: b69c 2fbe 48e0 59be 9d06 1bbf f0d6 2f3e
000000c0: 7de0 a2be e20d 0cbd c188 3b3e 24fc e3bd
000000d0: 11c3 a9be 00a0 c6bc 22c7 123e c876 6e3d
000000e0: 9757 85be b3ff 0fbc 05bd 77bc 0742 603d
000000f0: edec 023f c8c0 ddbc 7baf ea3e c854 b8be
00000100: 9432 223e 4d1f 7d3d 76a2 153e f710 1f3f
00000110: f6f5 db3d a238 0bbe 8808 21be 30a9 af3d
00000120: 3f08 82be 4eec 343e 3b88 7b3d b2f7 0bbf
00000130: fa6b b23e 6781 103e e0ec f23e 3a94 053f
00000140: 780e 26be f5d5 00bf 96ed 16bf 89a6 6cbc
00000150: c2fd d7be 23a6 dabe e08d 07bf 662b 243d
00000160: 8503 a0be c799 b5be 9b6a d53e f9bc 43be
00000170: d777 5e3d b11c 243d 1d5d 72be fb40 b9be
00000180: 89a5 613e b129 f6be b10f a7bd be5a d0bd
00000190: 83c3 173e d3aa 6f3e 9f05 aebe 58ab 08bf
000001a0: f0ae 963e 9aeb 1ebe d6e3 0cbc af9b 0ebe
000001b0: 7ba7 1abe f20c 743d 3f37 013e bf18 1abd
000001c0: 301a b6bd 0aee e1bd 47ad 04be 76df 42be
000001d0: db98 2bbe 77db dbbd 2a9f 8ebe 67a5 0dbe
000001e0: dd08 8f3e a354 0ebe 2f19 83be fe35 403d
000001f0: aa57 2e3e 9b33 a4bc ff13 a43e 41e2 9a3e
00000200: 8fb5 503e ca31 b03d b267 413e d637 8d3e
00000210: b075 08be 4d77 893e 73e5 233e b64d 83be
00000220: 27a6 00be c4f5 8e3e 9059 d3be 2a42 fa3e
00000230: f4de b23e d748 6bbe 5278 eabe 6095 30be
00000240: bdae 963d 27fa c13d debb 2dbe 7966 22be
00000250: ea62 f9bd 62d7 41be f2ba 0abf cf4a 833e
00000260: d600 07bd 6aeb dd3c ee85 a8bd edc0 28bd
00000270: 1d48 30be e702 023e 561d 423d ae4f 543e
00000280: a9a3 babd a877 4cbe b5ea 453e 6c85 073e
00000290: 168c 61be ccf0 59be 82ea 2fbe e576 f7bc
000002a0: e294 a0bd 5c97 513c 6c40 bcbd fd34 333e
000002b0: cec4 3d3d 59fa a13e 205b a83e f171 48be
000002c0: 3bda 7cbe e363 b0bd 90fc 93be 62ff 25bd
000002d0: e8cf b03d a7f2 893d c1d3 613e c86e a2be
000002e0: 377a 413e a77a 7f3d cd5e 3bbe 3439 fbbc
000002f0: 9891 cdbd 18c9 49be 453c 193d 8fe3 753e
00000300: f8dd 083d ace5 79be a025 433d 656a 6b3d
00000310: cd03 8e3e 4b94 0a3e 787d 353c 10d9 2cbe
00000320: c4fa 963e cbac 8f3e 35f1 9cbc 6615 a5be
00000330: e51c 66be c5f0 913e b936 e9bd 03d8 453d
00000340: a9d8 9fbd 4d42 1ebe 2efd 8abe 138e 353e
00000350: 6584 39be 1cb9 613e 066e 1bbe 1a29 91be
00000360: 56c4 90bd da19 f339 6b4d 29be 20e7 12bd
00000370: 9fe3 2b3e f990 58bd ce82 093d 06ff 2dbe
00000380: 1df3 c6bd eaab 0bbe 2f2e 02bd f894 45be
00000390: b68d 54be 26c7 cbbd 74be fabc bdf8 3bbe
000003a0: ad84 cfbe ac44 863e 5984 583e dd48 eabc
000003b0: 4b4f debc 43f3 6dbe e270 89be 9239 803e
000003c0: 2d52 f53c 7f83 50be 8512 3c3e b56b 003e
000003d0: 3d1b 223e 5066 b3bd 955f 21be fc26 d53d
000003e0: 31fc 9b3d e668 c0bd 0ab1 d13d 5b7c 373e
000003f0: 7730 783e e3e2 99bd 501e 44bc 9355 97bc

Nnet.Hidden_layer_5.bias f4 [30]
0.1519575 0.18206832 -0.010346781 -0.110087216 -0.19377968 -0.14476557 0.10305499 0.10252078
0.085679024 0.13633424 0.09489126 -0.13247794 -0.23291247 -0.13044988 -0.24714382 0.17313561
0.16803665 0.2248845 -0.14068376 0.10038105 0.1817858 -0.05463264 0.13944991 0.03878786
0.15937786 -0.13594289 0.0018218643 -0.07025055 -0.06096729 0.1152278
00000000: bf9a 1b3e 1e70 3a3e 8c85 29bc 6875 e1bd
00000010: 2e6e 46be 6d3d 14be 7f0e d33d 6af6 d13d
00000020: 7c78 af3d 349b 0b3e 5956 c23d 4ca8 07be
00000030: 9b80 6ebe a794 05be 4513 7dbe 764a 313e
00000040: cd11 2c3e 1f48 663e 670f 10be 9494 cd3d
00000050: 0f26 3a3e 7ac6 5fbd f5cb 0e3e 05e0 1e3d
00000060: f333 233e 9d34 0bbe 9fcb ee3a 85df 8fbd
00000070: d6b8 79bd 8efc eb3d

Nnet.Output.weight f4 [2, 30]
-0.7561252 -0.34852865 -0.6237361 -0.6683919 -0.58136964 -0.4925652 0.28354442 -0.11134736
0.23442936 -0.3595026 0.43793556 0.13034771 -0.27195677 0.07385039 0.58125585 0.544582
-0.3299911 0.02203358 0.13564447 0.06764928 0.7615628 -0.10042024 0.578531 -0.050544575
0.22131258 -0.295332 -0.3181153 -0.2893444 -0.14659747 -0.3607199 0.50852424 -0.59601873
0.124813475 0.1756595 -0.18476476 -0.009347779 0.047230326 0.23659207 -0.14803122 0.09860274
0.3678619 0.5382888 0.3121582 -0.28593534 -0.012710945 -0.48291764 -0.26786742 0.3378773
-0.18496017 -0.19460867 0.28257704 0.24848628 0.22652243 -0.35892925 0.034373604 0.008465154
0.07453807 -0.20523563 0.15574034 0.11069844
00000000: 6c91 41bf 5972 b2be 2bad 1fbf bb1b 2bbf
00000010: a4d4 14bf 8231 fcbe bc2c 913e 160a e4bd
00000020: 400e 703e ba10 b8be 1739 e03e df79 053e
00000030: eb3d 8bbe e03e 973d 2fcd 143f ba69 0b3f
00000040: 98f4 a8be c47f b43c 62e6 0a3e b58b 8a3d
00000050: c8f5 423f 20a9 cdbd 9c1a 143f d407 4fbd
00000060: c49f 623e c235 97be 02e0 a2be f324 94be
00000070: a61d 16be 47b0 b8be a52e 023f af94 18bf
00000080: 359e ff3d 15e0 333e f932 3dbe 6d27 19bc
00000090: 9674 413d 3145 723e 7f95 17be 3cf0 c93d
000000a0: 6558 bc3e 4bcd 093f 33d3 9f3e 1e66 92be
000000b0: 9141 50bc fb40 f7be eb25 89be 41fe ac3e
000000c0: 3366 3dbe 7f47 47be f0ad 903e 3073 7e3e
000000d0: 7ff5 673e 93c5 b7be 56cb 0c3d 6eb1 0a3c
000000e0: 6aa7 983d 4a29 52be 657a 1f3e ddb5 e23d

Nnet.Output.bias f4 [2]
0.10324324 0.014288834
00000000: 3171 d33d b71b 6a3c
