PINN/PINN_unwt.pt (torch, 19357 bytes, 12 tensors)

Nnet.Hidden_layer_1.weight f4 [30, 2]
000000 b3 8b 26 3f a4 12 a9 be 7f 38 a1 3d 58 e5 0c 3f
       0.65056914 -0.33022034 0.07872104 0.5503745
000010 52 02 32 bf 9d f7 07 3d 6d 42 08 3f b3 42 85 be
       -0.6953479 0.033195127 0.5322636 -0.2602745
000020 e8 5d 16 3c 0b 1c cd be e6 9c 49 3f 18 d1 e7 3d
       0.009177662 -0.40060458 0.78755033 0.11319178
000030 23 8a 6a 3f 43 6a c5 3e ba a8 7f 3e d8 5b 4a bf
       0.9161703 0.38557634 0.24966708 -0.7904639
000040 90 68 2c 3f c1 69 20 bf e9 7b 2b 3f 1b e3 0b 3f
       0.6734705 -0.6266137 0.66985947 0.5464341
000050 a2 f7 16 3e c9 3e 35 3f 6a b5 80 be 88 79 17 bf
       0.14742902 0.7079893 -0.25138408 -0.59169817
000060 6b 29 aa 3e 07 d6 2d be ef fd 4c bf 36 e8 3e bf
       0.33234724 -0.16976176 -0.8007497 -0.74573076
000070 cd 2e f1 be da 2b 86 3e d7 a8 08 bf 82 1e c8 3e
       -0.4710602 0.2620533 -0.5338263 0.39085776
000080 3b f9 08 3f 98 6b c2 be 61 f6 bb 3e c5 eb 2e bd
       0.53505296 -0.37972713 0.3671141 -0.042705316
000090 82 db 13 3f 7d 02 5d bd f8 f9 f1 be 9c 49 20 3f
       0.5775682 -0.05395745 -0.47261024 0.6261232
0000a0 d2 34 c4 be e8 09 80 3e b7 a8 df 3e ae 5f 17 bf
       -0.3832155 0.25007558 0.43683407 -0.5913037
0000b0 de cd 30 bf 87 13 d9 3e f7 a2 88 bf 3a 42 29 bf
       -0.6906413 0.4239771 -1.0674733 -0.6611668
0000c0 90 21 b4 3e b5 9e 90 be 67 7c 2d 3f 26 97 f2 ba
       0.35181856 -0.28246084 0.6776795 -0.001850818
0000d0 a6 04 92 be 81 56 12 bf 28 a1 2e 3e c8 3c 2f bf
       -0.2851917 -0.57163244 0.17053664 -0.6845212
0000e0 21 ae 2b bf 72 31 14 bf 0a 1d ed 3d ad 12 3c be
       -0.67062575 -0.5788795 0.115778044 -0.18366499

Nnet.Hidden_layer_1.bias f4 [30]
000000 85 28 25 3f dc ff d1 bd 2d 12 18 3f e3 ff 1c bf
       0.6451495 -0.102538794 0.59402734 -0.6132795
000010 e4 29 7d 3e 09 a8 bc be 5a 2c 86 3e 5c 84 c0 3e
       0.24723011 -0.3684695 0.26205713 0.37600982
000020 b4 fc b9 3c e4 59 20 bf b3 82 2b bf 46 35 b9 3d
       0.022703506 -0.6263716 -0.66996306 0.09043364
000030 73 f1 b0 3e 66 0b 6f 3d 3a 6f 72 be 86 69 1b bf
       0.3455921 0.05836048 -0.23675242 -0.6070789
000040 5e de 20 3f d2 f6 28 3f 88 cb d9 be 1b ba 39 bd
       0.62839305 0.6600162 -0.42538095 -0.0453435
000050 f7 fa e5 bc 2b ba 39 3e 1b eb d4 be ee 10 bc be
       -0.02807377 0.18137424 -0.4158562 -0.36731666
000060 aa 84 9a bc f7 f9 0f bf 22 c4 b3 3e d9 de 71 be
       -0.018862087 -0.5624079 0.35110575 -0.23620166
000070 09 0d 46 bf d2 c4 86 3d
       -0.7736364 0.06580509

Nnet.Hidden_layer_2.weight f4 [30, 30]
000000 bf 43 9e bd 97 b2 89 bd 15 7b 01 3e 14 91 99 bd
       -0.07727765 -0.067235164 0.12644608 -0.074983746
000010 0b 33 d3 3c 0e 9f 35 bd 36 05 99 be 9e 08 d7 bd
       0.025781175 -0.04434114 -0.29886788 -0.104996905
000020 c4 3f d7 3d 1b 75 38 be e2 42 34 be ba fb b0 3e
       0.10510209 -0.18013422 -0.17603639 0.34567052
000030 8a b1 2d be 66 c6 bb 3e 69 a9 3f be 71 e8 ee bd
       -0.16962257 0.36674803 -0.18716969 -0.116654284
000040 23 42 d0 3d e2 a5 81 bd de 96 07 bd c1 f3 37 be
       0.101688646 -0.06330468 -0.033102863 -0.17964078
000050 3b fb d6 3c e7 00 49 3e c9 89 60 3d 6c 99 b0 3e
       0.026242843 0.1962925 0.054818902 0.34492052
000060 91 4b d1 bd f7 93 07 be 92 b5 57 3d 57 e8 a0 3d
       -0.10219491 -0.13240038 0.052663393 0.07856815
000070 79 c9 f2 3d 11 63 80 3d 69 fc 0a bd a6 84 70 bc
       0.11854834 0.062688954 -0.033932123 -0.014680063
000080 0b 6f 96 be 86 f3 da 3d 12 f5 88 bd 55 ee 0f 3e
       -0.29381594 0.1069098 -0.066873685 0.1405576
000090 bd 40 36 3e c9 a4 95 bd 43 3a d4 3d ba 96 1f 3f
       0.17798133 -0.07306821 0.10362675 0.62339365
0000a0 d4 87 8d 3e a9 c2 f9 bd 45 b1 bf bd 25 93 9d be
       0.2764269 -0.121953316 -0.09359983 -0.30776325
0000b0 90 33 37 3d 8b a9 4c 3e 7c 5a 29 3d 1e 68 05 bd
       0.04472691 0.1998655 0.04134606 -0.032569997
0000c0 91 0d bf 3e f6 a5 a5 bd 10 ca 0c be f7 f3 b2 bd
       0.37315038 -0.08088295 -0.13748956 -0.08737939
0000d0 56 28 ab bd fa 6e 10 3e 13 09 03 be 25 0e bb 3e
       -0.08357303 0.14104834 -0.1279643 0.3653423
0000e0 73 ae af be ce 23 02 be 57 aa 29 3e ec 0c 4e bd
       -0.34312782 -0.12708971 0.16568886 -0.050305292
0000f0 23 99 4a be de b2 6e bd 6d ba df 3d 8b 34 20 3e
       -0.1978498 -0.05827605 0.1092423 0.15645044
000100 31 fb 0d be e1 23 7f bd e0 28 11 3d 27 36 86 be
       -0.13865353 -0.062290076 0.035439372 -0.2621319
000110 4e 1f c2 bc 6e 5c 3d 3e 06 35 49 3e 75 f2 3d be
       -0.023696568 0.1849229 0.19649133 -0.18549521
000120 2f 2d 03 bc 04 7b 3c be fd df 09 3e 45 86 25 3e
       -0.008006378 -0.18406302 0.13464351 0.16164501
000130 0c 55 d0 3a 6c ab c0 bd 9f 8e 2d be 08 9e b4 3d
       0.0015894487 -0.09407696 -0.16948937 0.088192046
000140 5e 57 b3 bd 7b a1 90 be bc ce 5f 3e 8c b5 0a be
       -0.08756898 -0.282482 0.21856207 -0.13545817
000150 d5 2c 66 3d a8 d2 a8 3d a5 4c 2b bb 0a 42 8c bc
       0.0561951 0.082433045 -0.0026138213 -0.017121334
000160 06 96 cd 3d b4 28 29 be 1d 3f 6b be 91 7e 08 3d
       0.1003838 -0.16519433 -0.22973295 0.033323828
000170 aa e7 c2 bd 46 5e 5d 3e 5a 6c 6a be 69 77 48 3c
       -0.09516843 0.21617994 -0.22892895 0.012235501
000180 9a b6 f1 bd b9 ee 93 be 22 a9 1c 3c cf 63 62 ba
       -0.118024066 -0.28893068 0.009561809 -0.00086360885
000190 2a cf c1 3e 3a 54 18 3e ec 6a 88 be 52 03 3b be
       0.37853366 0.1487588 -0.26644075 -0.18262985
0001a0 ec e6 07 bd 8c 87 96 3e a4 ce 57 be b1 53 40 3d
       -0.03317921 0.2940029 -0.21074921 0.046954814
0001b0 e6 e9 35 3e a8 a5 07 3d 6e 5d 9f 3c d0 00 5f 3c
       0.17765006 0.033116966 0.01945373 0.013611034
0001c0 0e 94 59 3d e1 87 a2 bd 8e 00 15 bd df 27 ce bd
       0.05311971 -0.07936073 -0.036377482 -0.100661986
0001d0 e9 e0 03 be 70 44 06 3e 27 14 72 bd 1a 15 0d be
       -0.12878765 0.13112044 -0.05910125 -0.13777581
0001e0 7a 7b db bd 07 51 2e be 22 9b c8 3d ee 96 ff 3c
       -0.10716911 -0.17023097 0.09795214 0.031199899
0001f0 83 28 13 bd 36 cb 0e bb 3c 0a a2 be 2f 58 6f 3e
       -0.035927307 -0.0021788604 -0.31648433 0.23373483
000200 e1 c6 ca 3d 50 0d 53 be d3 85 88 be 08 65 b1 3e
       0.099012144 -0.20610547 -0.266646 0.34647393
000210 5c df 30 be 4a 4b bb 3e 3f 51 18 be a2 ab 26 be
       -0.17272705 0.36580878 -0.14874743 -0.1627641
000220 41 52 5f 3d a3 ff 06 3e 3d ee 7b 3d 17 64 fd 3d
       0.054521803 0.13183455 0.0615065 0.12372606
000230 24 df c5 bc 29 26 bc bd f5 cc 18 3d 2a 0f a5 3e
       -0.024154253 -0.09186966 0.037304837 0.32238132
000240 17 9e 54 3d bd b1 c9 bc fc c7 60 3c 6e ee cb 3c
       0.05190858 -0.024620885 0.013719555 0.024893966
000250 45 9f ba 3e 6a 42 05 3e 54 60 e8 3d d4 e9 03 3e
       0.36449638 0.13013616 0.11346498 0.12882167
000260 89 7d 8b 3e b3 6f 72 bd be 58 c2 bd 5c d8 eb bd
       0.27244213 -0.059188556 -0.094895825 -0.11515877
000270 ce b7 17 bd 6c 7d 8d bc 1f fe 7a be 45 98 97 bd
       -0.037040524 -0.01727172 -0.24511002 -0.0740209
000280 55 51 32 3e 6b f3 47 bd 9c 06 2b be 18 ef a1 bd
       0.17413838 -0.048816126 -0.1670174 -0.07906932
000290 83 93 0a 3e d8 7c 9a bc 79 d7 ba 3d 71 de 20 be
       0.13532834 -0.018858358 0.091231294 -0.15709855
0002a0 a5 01 1c 3d 33 cb 00 3e 8b 06 57 3e ef 61 1d be
       0.038087506 0.12577514 0.2099859 -0.1536939
0002b0 4a b7 09 3e 51 bc 8c be 29 4a 36 be 8c 5f 95 bd
       0.13448825 -0.27487424 -0.17801727 -0.07293615
0002c0 4d 08 2c 3c 25 77 74 be dd 31 16 3d d4 af db bc
       0.010500026 -0.23873575 0.036668647 -0.02681724
0002d0 42 b5 11 3e d9 76 16 be 70 b3 00 3f eb 38 98 be
       0.142293 -0.14693774 0.502738 -0.29730925
0002e0 b5 62 12 3e ec 4a cc be e8 2b 63 3c 84 ab 75 3d
       0.14295466 -0.3990091 0.013865449 0.059978023
0002f0 61 5b 84 be e0 fd df be 8d 2a 4e be ef 92 17 3e
       -0.25850967 -0.4374838 -0.2013342 0.14802144
000300 40 f4 7c bd 4b af 25 3e 86 1a eb 3d 57 e5 c9 bb
       -0.061756372 0.1618015 0.11479668 -0.0061613726
000310 ff 23 9e bd c1 30 95 bb 8a f8 99 be ca 1e 50 3e
       -0.077217095 -0.004552931 -0.30072433 0.20324245
000320 99 f1 89 bd 92 58 55 be 4b 45 39 be 9f b5 23 be
       -0.06735534 -0.20834568 -0.1809284 -0.15987252
000330 05 11 d7 bc a1 4a 62 be 22 dc 83 3e de 1a 9b 3d
       -0.026253233 -0.22098781 0.25753886 0.07573484
000340 c7 92 fc bd 10 fd e7 bc d2 2e 3f 3e 80 9b 85 bd
       -0.12332683 -0.028318912 0.18670204 -0.065238
000350 23 5f 06 bd 3c 44 7e 3d f5 32 a1 bd 09 fc 99 3d
       -0.032805573 0.062076792 -0.078710474 0.07518775
000360 48 be 37 bd 70 66 40 3e bc f0 4f 3e 08 04 de 3e
       -0.0448592 0.18789077 0.20306677 0.4336245
000370 b3 ab 93 3d 1e d2 1e be 2d c7 c2 3d 87 41 7d be
       0.072104834 -0.15509841 0.09510646 -0.24732028
000380 64 b5 b9 3d 54 b1 e7 3b b0 cf 3c 3e 59 90 29 3e
       0.09067801 0.0070706997 0.18438601 0.1655897
000390 7d 48 55 3e 35 d7 96 bd a8 17 90 bd 08 25 83 3d
       0.20828433 -0.07365266 -0.07035762 0.064035475
0003a0 51 f5 ff bd 80 a8 f0 3d 6d 9b 98 bd 32 16 39 3e
       -0.12497962 0.11750889 -0.0745152 0.18074873
0003b0 9e 1e 4d be 6e ae b6 3d 55 2e 19 3e d9 18 3e bd
       -0.20031211 0.089199886 0.1495908 -0.046410415
0003c0 c8 60 6c be 30 0a b4 bd 4a 9f 94 3c 0a 39 0a 3d
       -0.23083794 -0.087910056 0.018142361 0.033745803
0003d0 63 bb 0e bb 16 92 60 bb b5 13 47 be 00 42 91 be
       -0.0021779172 -0.0034266762 -0.19441111 -0.28370667
0003e0 8a 4a 73 be d9 43 90 bd 3b 1e 81 3d 4b 1f 76 be
       -0.23758903 -0.07044191 0.06304594 -0.24035375
0003f0 94 7a 79 be 87 17 1e be 4b 01 ba 3d 98 07 79 3e
       -0.24363166 -0.15438662 0.09082278 0.24319303

Nnet.Hidden_layer_2.bias f4 [30]
000000 3f d4 ba 3c c3 79 99 be 9b 2d 4a be 18 b4 74 be
       0.022806285 -0.2997571 -0.1974396 -0.23896825
000010 e9 8e f1 3d 8f b6 91 3d 27 c6 bc 3e a3 15 1d 3e
       0.11794836 0.071148984 0.36869928 0.15340285
000020 96 4b 52 be 23 63 df bd 23 80 85 3e 01 ce 07 be
       -0.20536646 -0.10907581 0.26074323 -0.13262178
000030 9d a4 82 bd 1b 58 10 bd 10 66 69 3e bc b8 b3 bd
       -0.06379054 -0.035240274 0.2279284 -0.0877547
000040 e0 dc 89 bd a0 10 53 3e 32 1e 50 3c 83 b5 44 bc
       -0.06731582 0.2061181 0.012702512 -0.012006166
000050 be dc d2 bc 7b 8d f8 3d cb 4f 5f bd 83 78 4e 3d
       -0.025740024 0.1213636 -0.054519456 0.050407898
000060 a7 ef 12 3e ef c6 60 bd f2 e2 f0 bc 9e 1b 98 3c
       0.14349233 -0.054877218 -0.029405091 0.018567856
000070 97 e0 dc bd 21 26 8b 3d
       -0.107850246 0.06794382

Nnet.Hidden_layer_3.weight f4 [30, 30]
000000 14 f8 08 be 4f 4f a9 3d 4e 18 46 3e b8 b6 49 3e
       -0.13375884 0.0826708 0.19345209 0.19698608
000010 08 05 08 be de da 6d 3e 5f 56 a4 3d 27 5b 8f bc
       -0.1328317 0.23228022 0.080242865 -0.01749952
000020 a2 e8 43 3d a4 de 3d 3e 13 a4 8d 3c aa 77 50 3e
       0.047829278 0.18541962 0.01729015 0.20358148
000030 c1 3f 3a 3e 32 02 9a bc 47 70 8e 3b 2b b5 d0 bd
       0.18188383 -0.018799875 0.0043468806 -0.10190805
000040 91 af 54 bd 40 c9 99 bc a3 ed b0 3d 31 1d 9f bd
       -0.051925246 -0.018772721 0.086390756 -0.0776924
000050 85 5d bc 3d 9f 7e 5d 3e 72 0b 5d be b0 d8 39 be
       0.09197525 0.21630333 -0.21586397 -0.18149066
000060 f7 6e 6d bd c5 a4 21 bd c2 c2 6f 3e 84 49 5f be
       -0.057967152 -0.039463777 0.23414138 -0.21805388
000070 7a 2d b5 3c 97 26 f4 3d 06 3f 66 3e af 07 21 3c
       0.022116411 0.11921423 0.22484979 0.009828492
000080 2d 2d 9e bd 97 3c 4f 3d a5 b6 35 3e bb 6b 2b be
       -0.0772346 0.050594892 0.17745455 -0.16740315
000090 4e 04 01 be 78 cf 27 3c d5 4f 09 be 6a 41 8c 3b
       -0.12599298 0.0102423355 -0.1340936 0.004280259
0000a0 af de 52 be 54 89 3a be e6 56 9d be 05 86 08 be
       -0.2059276 -0.18216449 -0.3073036 -0.13332374
0000b0 46 26 32 bd 04 8f 88 3d b5 9e 2e 3e d5 4e 3a 3d
       -0.04349353 0.06667903 0.1705273 0.045485336
0000c0 b9 3a d8 bd b7 b4 4e 3e ff ea 64 3e 9b 3e 9a be
       -0.105580755 0.20186125 0.22355269 -0.3012589
0000d0 7c 37 7d 3e 10 92 ed 3d 26 7b 2b be fe d0 16 3d
       0.24728197 0.11600125 -0.16746196 0.036820404
0000e0 89 db 2e be 56 3c 0b 3e 2b 70 5d be 39 8c 4e 3d
       -0.17075934 0.13597235 -0.2162482 0.050426695
0000f0 76 d7 44 3c 36 80 0e 3e 75 a0 11 bc 29 be 83 be
       0.0120142605 0.13916096 -0.008888354 -0.25731018
000100 65 bf dd bd 60 65 10 be 69 20 fa 3a 43 0b f0 3d
       -0.10827521 -0.14101171 0.0019083145 0.11720898
000110 6e a1 ab bc e0 77 77 be 91 39 04 3c 66 05 95 bd
       -0.020951 -0.24166822 0.0080703655 -0.0727642
000120 59 16 01 3d b7 0d 8a 3b 25 1f 7a bd 68 c2 e1 bc
       0.031515453 0.0042130607 -0.061064858 -0.02755852
000130 53 a8 16 be 44 34 84 be 07 f8 94 be 61 4e c4 bd
       -0.14712648 -0.25821126 -0.2909548 -0.09585262
000140 e3 a2 00 be 15 01 24 be ea a6 01 be 00 04 9f 3d
       -0.12562136 -0.16016038 -0.12661329 0.07764435
000150 5f a2 46 be aa 62 9e be 71 2a 18 bc a4 e5 96 bd
       -0.19397877 -0.3093465 -0.009287463 -0.07368019
000160 ea 4a 14 be 6d 53 0c be 3b 32 9a 3e 74 9e 95 be
       -0.14481702 -0.137037 0.30116448 -0.29222453
000170 41 20 11 bf 25 74 8e be 36 3d ce 3e 8e 24 10 3e
       -0.5668984 -0.27822986 0.40281075 0.14076445
000180 fa 64 06 3f c5 f9 6a bd 43 c1 04 be 40 c3 a4 be
       0.5249783 -0.057367105 -0.12964348 -0.32180214
000190 68 5a fe 3e 73 1c c4 be 59 4b 8b 3e 2b ca 15 bf
       0.4967835 -0.38302955 0.27205923 -0.5851161
0001a0 49 42 8e 3e d0 cd 81 be cc a3 29 3e 49 63 e2 bd
       0.27784947 -0.25352335 0.1656639 -0.110540934
0001b0 a9 ff 3d be 85 98 9d 3e 56 b1 a2 be dd df 63 be
       -0.18554558 0.30780426 -0.31775922 -0.22253366
0001c0 e0 f7 01 3e b0 5a 9f 3e 96 25 cb 3e 8a ac 2d be
       0.12692213 0.31123877 0.39677113 -0.1696035
0001d0 e8 e0 89 3d 6c ad b8 be 20 24 12 3e 0a 18 43 be
       0.067323506 -0.3606981 0.14271593 -0.19052139
0001e0 62 24 08 be 61 fd 0b 3e 32 bb 1e 3d 4f e1 6a 3e
       -0.13295129 0.13670875 0.038752742 0.22937511
0001f0 fc fc 86 be ec b7 41 bc df b5 92 3d 7a 0d 93 bc
       -0.26364887 -0.011823636 0.071635954 -0.017950762
000200 18 3a b4 bc 14 a2 0f 3e 6f 65 73 3d a8 af 55 bd
       -0.022000358 0.14026672 0.059422906 -0.052169472
000210 54 55 84 3e 50 5c 97 bd d2 dc d5 bd bb b4 b1 3d
       0.2584635 -0.07390654 -0.10442509 0.0867705
000220 f3 34 41 be d8 a0 b3 3d 30 6e a1 bc 5d 68 e6 bd
       -0.18867855 0.08770913 -0.019705862 -0.112503745
000230 60 ab 06 3d 2b c0 0f 3e e8 69 42 be f2 89 e7 bd
       0.03287828 0.1403815 -0.18985713 -0.11305608
000240 ca bb 5e 3e a1 d2 90 bc 2e e6 68 3e 70 3f 26 be
       0.21751323 -0.01767856 0.22744057 -0.16235137
000250 61 e4 17 bd 17 f7 3c 3e 9f c6 42 bd 7d 0a 5e 3e
       -0.037083033 0.18453632 -0.0475527 0.21683688
000260 ae 55 1d be 5f 88 9c 3d fe 7c 69 3e 7a 44 27 bd
       -0.15364715 0.07643198 0.22801587 -0.04083679
000270 b6 03 ae 3d a4 3f 87 3d f4 88 82 be ab d4 ec bc
       0.084968016 0.06603935 -0.25495112 -0.028910002
000280 0d 85 ac 3d db e8 71 be 47 4a 85 3e e3 80 56 be
       0.08423815 -0.23623984 0.26033232 -0.20947604
000290 f6 39 31 bd 49 38 48 be 83 96 ce bd fc d2 73 be
       -0.043268166 -0.19552721 -0.100873016 -0.23810953
0002a0 76 a5 4f be 96 21 6c 3e 9e ae 42 be e4 42 b0 bd
       -0.20277962 0.23059687 -0.19011924 -0.086065084
0002b0 f6 8c 45 3e f7 cf a2 3d d9 c6 06 3d 71 73 d0 3c
       0.19292054 0.079498224 0.03290448 0.025445672
0002c0 3c 23 a7 3c 40 f1 6c 3e 76 37 2f 3e db 62 8a be
       0.020402543 0.23138905 0.17111 -0.27028546
0002d0 2b 60 d4 3e 4d 54 c6 bd 13 95 16 3e bc c8 87 3e
       0.4147962 -0.09684048 0.14705305 0.26520336
0002e0 90 3b d2 3e fd 02 cf be e1 d0 40 bc be 2a 20 3e
       0.41061068 -0.40431967 -0.011768551 0.15641305
0002f0 5e ff 03 3e 61 50 9f bd d1 3b da bd 78 34 e7 bd
       0.12890384 -0.07779003 -0.1065594 -0.112893045
000300 26 1f 21 be dc 60 8d 3d 07 9f f1 3d bc fb 86 be
       -0.15734538 0.0690324 0.1179791 -0.26363933
000310 58 2a 24 3e 56 e8 cc 3c 66 5c 91 3e 4f 3c 26 3e
       0.16031778 0.02501313 0.28390807 0.16233943
000320 5d d7 d7 3d 23 d4 5d be fb 3f 43 3e 90 e3 9c 3e
       0.10539124 -0.21662955 0.19067375 0.30642366
000330 0d 52 a3 bd e4 ec b8 bd 60 c4 5e be 40 c3 b6 3e
       -0.07974634 -0.09029558 -0.21754599 0.3569584
000340 35 f0 23 be 16 5b 49 be f3 e1 ea 3e ef ef 4d 3e
       -0.160096 -0.19663653 0.4587551 0.20111059
000350 39 9b c9 bd 1b 23 87 3d 81 c3 ae 3e 8c eb 19 bd
       -0.098440595 0.06598493 0.34133533 -0.03757815
000360 a4 b1 8a be f2 40 08 be dd 84 07 3e 5c 33 1c 3d
       -0.27088654 -0.13306025 0.13234277 0.038134918
000370 09 a6 b5 3d 02 97 f7 3c ce bb 0d bf fd 05 11 3d
       0.08869559 0.030223373 -0.5536469 0.0354061
000380 4b 7e 8b 3e 27 98 e7 bd db ba a4 3e 72 ac 1e be
       0.2724479 -0.11308318 0.3217381 -0.1549547
000390 42 31 cb bd 28 79 1b 3e 9e 02 1d 3e 06 f8 a3 be
       -0.099215046 0.15182936 0.1533303 -0.32025164
0003a0 55 b7 7f 3e 29 45 a2 3e 4a 3a d9 bd 6b 12 59 bd
       0.2497228 0.3169339 -0.10606821 -0.05299608
0003b0 f3 bd f7 bd 3a 95 1f 3e a0 8a 92 bc e3 ad fd bd
       -0.12096777 0.15584269 -0.017888367 -0.12386682
0003c0 f5 6f 61 3e 42 69 ca be e0 2a bb bd cd 63 43 bd
       0.22015364 -0.3953343 -0.09139037 -0.0477026
0003d0 ac c0 13 3e 2b 2d 9d 3d 1f f9 c4 3e 35 79 c4 bc
       0.14428967 0.07674631 0.38471314 -0.023983577
0003e0 19 a8 a1 bd d3 78 aa 3d 27 70 a4 3e ce c6 aa 3d
       -0.0789339 0.08323827 0.32116815 0.083387
0003f0 fc b1 40 bd df 76 04 3c ab b9 fe bd 48 25 69 bd
       -0.04704474 0.008084982 -0.12437757 -0.05692032

Nnet.Hidden_layer_3.bias f4 [30]
000000 32 2f 84 bd 5c 07 40 be d2 2c 3c bd 48 24 80 3e
       -0.06454314 -0.18752807 -0.04594118 0.2502768
000010 05 44 66 bd c0 c8 20 be 43 93 2f be 71 23 3c bd
       -0.056217212 -0.1570158 -0.1714602 -0.045932237
000020 76 09 16 3e e0 f2 1e 3e d4 21 63 be 6a e6 9a be
       0.14652047 0.15522337 -0.22180873 -0.30253917
000030 c5 59 78 3c 12 25 80 be 47 2b a1 bd 20 d7 f0 be
       0.0151581215 -0.25028282 -0.078695826 -0.47039127
000040 78 43 e3 3d 69 e1 3b be fd d4 19 be df 12 08 3e
       0.11096853 -0.18347706 -0.15022655 0.13288449
000050 13 71 8e 3e 83 9a 51 3e cf 11 25 be 67 db 85 be
       0.27820644 0.20469098 -0.16120075 -0.26143953
000060 22 5d 44 bd c3 32 95 bd 09 9c 2f be 54 e3 8e ba
       -0.04794038 -0.07285073 -0.17149366 -0.0010901489
000070 5a 7a 09 be b2 e6 ae 3d
       -0.1342558 0.085400954

Nnet.Hidden_layer_4.weight f4 [30, 30]
000000 26 eb 08 bd 1b aa 83 be 95 f5 2d 3c db f9 29 be
       -0.03342738 -0.25715718 0.010617633 -0.16599219
000010 49 97 11 3e 4b f2 80 3d 68 be 9e be c1 aa 4d be
       0.14217867 0.06296214 -0.31004643 -0.20084669
000020 03 25 52 be 4d cc cc bd b7 bd a6 3c 34 be c4 be
       -0.20521931 -0.09999905 0.020354135 -0.38426363
000030 8b 93 b4 bd 32 f9 03 be d4 8a 13 3e 5d 6e d5 bd
       -0.08817204 -0.12888029 0.14408427 -0.10421441
000040 3a 2c 81 3e 56 6f bf bd 38 15 09 3e 44 81 01 bf
       0.25229055 -0.093474075 0.13387 -0.5058787
000050 55 67 5b be 96 6a a7 3e 00 2f 85 3e c4 c4 52 3e
       -0.21426137 0.32698506 0.2601242 0.20582873
000060 32 1a 83 be 15 8e 86 bc 37 81 a5 be ea 5d 59 bd
       -0.25605923 -0.016425172 -0.32325146 -0.05306808
000070 5f 3a 73 3b 62 0c 6c bc 54 ab 60 3e c4 a7 87 be
       0.003711365 -0.014407249 0.21940356 -0.26495183
000080 55 ec 7e be 09 c4 a2 be 9b 71 60 3e a6 85 79 be
       -0.24894841 -0.31790188 0.21918337 -0.24367389
000090 f9 8d 15 be b3 99 88 bc 14 5d 58 3e 5e 19 90 be
       -0.1460494 -0.016674852 0.21129256 -0.28144354
0000a0 2e 4c b9 3d 1d 23 cb bc 34 81 02 3c 5a 5e 40 bd
       0.09047733 -0.024797017 0.007965375 -0.04696498
0000b0 09 0e 7e 3e 5d bf 25 be eb 04 5a bb 71 41 8d 3e
       0.24810041 -0.1618628 -0.0033267091 0.2758899
0000c0 54 ce 41 bd 96 c3 11 3e 2d 03 61 bd 85 df 8b bd
       -0.04731591 0.14234766 -0.05493467 -0.06829742
0000d0 3f 66 33 bd 39 68 6e be f7 91 23 3e 52 f2 60 bd
       -0.04379868 -0.23281945 0.1597365 -0.054918595
0000e0 76 fe 18 3e fa ad 0c be 29 22 8f 3e 63 76 9d bd
       0.14940819 -0.13738242 0.2795575 -0.07688596
0000f0 9c dc 36 be e4 11 7f 3e ed 7b fd 3c 6f d0 a8 3c
       -0.17857593 0.24909168 0.030942881 0.020607201
000100 47 13 16 bd ba 22 1d 3e e7 c5 f1 3c 46 db 22 3e
       -0.036639478 0.15345278 0.029513313 0.15903959
000110 47 16 9a 3b 49 51 8d bd 67 0b 39 3e 10 bc 58 be
       0.0047023627 -0.069002695 0.18070756 -0.2116549
000120 f3 aa 8e bb 43 df e0 bc b6 4c 24 be 4b 47 25 3e
       -0.004353875 -0.02745021 -0.16044888 0.16140477
000130 2f 59 a9 3d cb 85 56 bd f7 c1 5e be f6 7a 94 3c
       0.082689635 -0.05237369 -0.21753679 0.018125039
000140 d4 7d 17 bd ae ac d6 bd d7 a3 ac bd 17 1c 02 3e
       -0.036985233 -0.10482155 -0.084296875 0.12706028
000150 ef e4 54 be 27 3c 60 3c e8 f2 19 be f8 74 81 3e
       -0.20790456 0.013686216 -0.15034068 0.25284553
000160 27 62 47 bd d4 18 c7 bd ea 1a 28 3c 33 7b 80 3d
       -0.04867759 -0.097215325 0.010260323 0.062734984
000170 b2 cb 72 3d aa 48 05 3c f9 3e 01 3e 9b 20 f8 bd
       0.05927629 0.008135 0.12621678 -0.12115594
000180 ea 60 8e be 28 42 45 be 70 89 b1 bd 89 b7 d1 bd
       -0.27808315 -0.19263518 -0.08668792 -0.10240085
000190 c9 92 77 be 60 da a1 3e ae 45 88 3d d9 a0 17 3d
       -0.24177088 0.3161192 0.06653915 0.03701863
0001a0 ee 6c 92 3e a3 02 52 bd e2 e4 f8 3d 65 ef d9 3c
       0.28598732 -0.051272046 0.12153031 0.02660341
0001b0 23 f5 74 3d cd 56 d1 3e dc b0 19 bd 05 63 0a be
       0.059804093 0.40886536 -0.037522182 -0.13514335
0001c0 62 8e 1e 3d b7 a0 6f be c9 87 67 3e ac 71 e9 3d
       0.038710006 -0.23401152 0.22610392 0.11398634
0001d0 4e b5 19 3e b5 41 1b be e2 36 2f 3e f8 ad 7b 3d
       0.15010568 -0.15161784 0.1711078 0.061445206
0001e0 b7 05 29 be d1 11 02 be 9d 68 98 3e f9 39 eb 3e
       -0.16506086 -0.12702109 0.29767314 0.45942667
0001f0 4b 26 d3 3c 05 56 63 3e 1d 44 b7 bb 6a 76 57 3d
       0.025775095 0.22200783 -0.0055928365 0.052603163
000200 ce 1f 5d bd bb 7b 33 3e db 8b 30 be ed 5c 7b be
       -0.05398541 0.17527668 -0.1724085 -0.24547167
000210 b8 91 47 be cb ee 9f be 90 2a 90 be f8 bb 20 be
       -0.19489181 -0.31236872 -0.28157473 -0.15696704
000220 5b 7b 23 be 87 42 54 be fd 99 90 be 89 86 19 be
       -0.15965025 -0.20728503 -0.28242484 -0.14992727
000230 05 8b 82 3d 43 8c 85 3e 24 c6 5b be 83 36 a8 bd
       0.06374172 0.26083574 -0.21462303 -0.08213522
000240 99 a1 12 be cb 7f 2d be 72 b7 59 be 6e d9 ec bd
       -0.14319457 -0.1694328 -0.21261385 -0.11564909
000250 49 50 c7 3c b2 ea 85 bc cd 65 2c be d1 e6 85 3e
       0.024330275 -0.016347263 -0.16835709 0.2615266
000260 e9 a2 a4 3c a9 41 3d 3d 97 22 2d be 59 cc a1 3d
       0.020097213 0.046205197 -0.16907726 0.07900304
000270 a1 98 8a 3e 41 40 90 3e 6f f9 d8 be a8 a9 e9 3c
       0.27069572 0.28174022 -0.42377803 0.028523281
000280 57 ad 8c 3e 85 9d 20 bc 64 5f 35 be f6 77 0e bd
       0.27475998 -0.009803181 -0.1771217 -0.034782372
000290 9b cc 76 be b5 26 3a 3e 89 a6 18 be 3a 2a 9a be
       -0.24101488 0.18178828 -0.14907278 -0.3011034
0002a0 63 83 51 be 48 81 00 bd dc 7b cf be 86 f0 8c 3d
       -0.20460276 -0.031373292 -0.40524185 0.06881814
0002b0 bf 9b 6c 3d 82 0c 51 bd 1e fb 62 be 12 93 eb 3d
       0.05776572 -0.05103732 -0.22166106 0.11502661
0002c0 b7 31 1c bd 47 e8 15 bd 47 d8 8b bd d2 9b b4 be
       -0.03813335 -0.03659847 -0.06828361 -0.3527513
0002d0 91 42 99 bd 63 ff ae bd 28 de 0c 3e 79 58 05 bf
       -0.074834 -0.08544805 0.13756621 -0.52088124
0002e0 38 b5 7e 3e a8 13 b6 3d 3b 7d b1 bd 09 3e 26 3d
       0.24873817 0.08890468 -0.08666464 0.040586505
0002f0 7e 28 65 bd 95 b2 00 3e 89 d5 4d 3e 41 4a f4 3d
       -0.05594682 0.12568124 0.20100988 0.11928225
000300 76 77 79 3d 83 67 66 3e 29 c7 44 3e 52 bd 9b 3e
       0.060904942 0.22500424 0.19216599 0.30417877
000310 0a d6 ae bb ff 64 80 3d e0 74 53 3e f7 69 01 3e
       -0.005335574 0.062692635 0.20650053 0.12638079
000320 3a 55 02 be cf c7 57 be ee d0 96 3d 25 e4 f9 bd
       -0.12727824 -0.21072315 0.07364069 -0.12201718
000330 20 02 d7 bc cf 9b 13 bd 65 52 f4 bd 9b 45 72 3c
       -0.02624613 -0.036037263 -0.11929778 0.014787103
000340 6c 7a 9e bd 00 20 51 3e d7 09 6f be e9 3b e1 bc
       -0.07738194 0.20422363 -0.23343597 -0.027494388
000350 f8 91 18 be 01 25 94 bd 7b 18 23 bd 6e 99 fa 3d
       -0.14899433 -0.072336204 -0.03981827 0.12236296
000360 88 62 78 3d 3a 95 e5 3d 38 22 cb 3d ad 10 83 bd
       0.06064084 0.11210103 0.09918636 -0.06399665
000370 57 5b 5b be 49 2f 12 3e 0d d3 1f 3e b7 8e 34 bd
       -0.21421562 0.1427585 0.15607853 -0.044081416
000380 7f a8 75 be 2c d1 c5 be 7e b8 8b be 6a 89 43 3e
       -0.23990057 -0.38636148 -0.27289194 0.19095388
000390 10 4e 15 be b8 ef c2 3d cf e4 4d 3e 7d ed 9d 3d
       -0.1458056 0.09518379 0.20106815 0.07711313
0003a0 d9 fc 46 be 87 c3 09 bf 5f cc 35 be 42 62 be bd
       -0.19432391 -0.53813976 -0.17753743 -0.09296085
0003b0 3d 9b d1 3e 8b 24 af bd e7 88 b1 3c 34 dd 30 be
       0.4093875 -0.08551892 0.021671725 -0.17271882
0003c0 b6 8f b0 be 33 f4 3f 3d 0a 9c 64 3c 09 0f b7 3d
       -0.34484643 0.046863746 0.013953218 0.089384146
0003d0 6d 31 71 be 00 55 8b bd f4 7a 39 3e 77 f6 9e 3e
       -0.2355401 -0.06803322 0.18113309 0.31047413
0003e0 2a 88 27 3d a3 a8 29 3d 07 00 ed 3d 06 11 14 3d
       0.04090134 0.04142059 0.11572271 0.036149047
0003f0 a9 c1 db 3d fc 02 9a bd d6 50 9f be 0f e6 fe 3d
       0.10730297 -0.075201005 -0.3111636 0.12446224

Nnet.Hidden_layer_4.bias f4 [30]
000000 11 b0 f9 ba 4a 6d 00 3d 39 50 58 3e 84 46 95 bd
       -0.0019049664 0.031354226 0.21124353 -0.072888404
000010 65 e8 8a 3e bc 34 94 bc e6 e3 3d be 12 64 55 be
       0.27130428 -0.018091552 -0.18543968 -0.20838955
000020 9b c7 b5 3c 1a e0 1a be 2f 54 8b bd 57 33 9d 3d
       0.022189906 -0.1512455 -0.06803166 0.07675808
000030 d3 e1 83 3d dc af 01 be 54 13 8c bc 43 1b 15 be
       0.06439557 -0.12664741 -0.01709906 -0.14561181
000040 0c a6 cb 3d 2e 77 a0 3d 7c 1b 08 3d b8 e7 34 be
       0.0994378 0.07835232 0.033229336 -0.17666519
000050 6c 45 f2 bd 2e 50 58 3b 4d 50 6c 3c 47 10 46 3e
       -0.118296474 0.0033006775 0.014423442 0.19342147
000060 83 40 a9 3d 16 ac 11 3e 03 ce 14 3d 83 f5 92 3e
       0.08264258 0.14225802 0.03632928 0.28702936
000070 e9 16 43 bc 00 e9 b4 3d
       -0.011907318 0.08833504

Nnet.Hidden_layer_5.weight f4 [30, 30]
000000 21 8e 43 3e 52 11 0f 3e 61 16 0e 3e 7f ff 3a be
       0.19097187 0.13971451 0.13875724 -0.18261527
000010 1f 0b e3 3e 60 c2 6e 3e fd 46 0d 3e eb dd d6 3e
       0.44344422 0.23316336 0.13796611 0.41966185
000020 58 85 91 3e dc aa 15 be 98 cb c2 be f2 30 c7 3e
       0.28422046 -0.14615959 -0.38045955 0.3890453
000030 09 76 8f 3b e0 12 a0 3e 43 7b 21 3d 66 55 96 be
       0.0043780846 0.312644 0.039424192 -0.2936203
000040 ed 5f 0e be cf 82 8d 3d e6 25 64 3e 84 35 97 3e
       -0.1390378 0.069097154 0.22280082 0.29533017
000050 31 1f 9f bd 05 16 f0 be 38 ed 50 be 48 2c 4c 3e
       -0.07769621 -0.468918 -0.20402992 0.19938767
000060 36 11 87 3e 99 0e df be 6e 14 e3 be 3f a0 ab 3e
       0.26380318 -0.43565825 -0.44351524 0.33520696
000070 7a 05 c7 bd a9 30 a4 be 08 f4 8b 3e ac fc 92 bd
       -0.097178414 -0.32068375 0.2733462 -0.071770996
000080 d1 99 c0 3d f9 66 36 3e d9 64 d3 3e 8a 39 32 be
       0.09404338 0.17812718 0.41287878 -0.17404762
000090 22 41 3c 3d b5 0a 30 3e 43 0f 95 be 80 60 1b bd
       0.045960553 0.17191584 -0.29113206 -0.037933826
0000a0 0d 96 2b be bc 2d 09 be 8a 5d 8b 3e 5e e7 e8 bd
       -0.16756459 -0.13396353 0.27219802 -0.11372255
0000b0 65 9c 87 be 80 b7 05 be dc b6 12 bf 5f 51 fb bd
       -0.26486507 -0.13058281 -0.5731027 -0.1227138
0000c0 4b 34 05 be 9e 99 e5 be 1d 9c 5b 3d 27 8d c6 3d
       -0.1300823 -0.44843763 0.053615678 0.096948914
0000d0 b7 8d f3 be a5 de 39 be 6f e8 ff 3b c4 9a 9a 3d
       -0.47569057 -0.18151338 0.0078096907 0.075490505
0000e0 b5 4b 9c 3e 7b ad 33 3a 94 33 c7 bd 6c 5d 1c 3e
       0.3052651 0.0006854159 -0.097266346 0.15270013
0000f0 9d ba 86 be d3 3f be 3e de 70 24 bd af 3d 65 3e
       -0.2631425 0.3715807 -0.0401467 0.22386812
000100 5e 12 c1 be c8 e1 c3 bd 80 2f 5f 3e 37 b2 47 3e
       -0.37709326 -0.09564549 0.21795464 0.19501577
000110 a1 d2 b4 bc 62 72 f8 3e 69 8a 24 3e 8a a3 d8 be
       -0.022073092 0.48524767 0.16068424 -0.4231227
000120 40 bf ce bd f8 79 6d 3d 7e 5f 68 be 25 b9 5c 3d
       -0.10095072 0.057977647 -0.22692677 0.053887505
000130 84 a9 dc bd 9a 43 0a 3c 12 92 2f bd 44 65 e8 3d
       -0.1077452 0.008438969 -0.042863913 0.1134744
000140 9e b5 04 3e 1d 8d 45 be ed ed 7f 3e 55 32 00 be
       0.12959906 -0.19292112 0.24993105 -0.125192
000150 05 b6 03 be b7 60 3d be 22 e2 7a bd 64 4a c5 be
       -0.12862404 -0.18493925 -0.061250813 -0.38533318
000160 2e 41 03 be a0 84 f8 3e ec 5a d5 3e 66 a2 1a be
       -0.12817833 0.48538685 0.4167093 -0.15101013
000170 04 1d 3f 3e ae 94 d6 bc 3f 67 d2 bd e4 5a ba be
       0.18663412 -0.026193943 -0.10273599 -0.3639747
000180 05 7a c7 3e 5a 91 17 be 40 9b af 3d f4 89 5d be
       0.3896028 -0.14801541 0.085745335 -0.21634656
000190 28 a3 41 3c 17 7a c5 3e 56 e6 91 be c9 31 1a bf
       0.011818685 0.3856971 -0.28496045 -0.60232216
0001a0 d9 2c 81 3e ee 00 c5 bd f2 ef 8a bd 43 e9 6a be
       0.2522953 -0.09619318 -0.06784047 -0.22940545
0001b0 71 e1 dc bd ae a0 e2 bd 86 08 3f 3e bd e2 23 be
       -0.10785187 -0.110658035 0.18655595 -0.16004463
0001c0 0f 8c 2d 3e 66 3f ba 3c 4c 0c 77 bd 1b 8e 35 be
       0.1694796 0.022735309 -0.06031446 -0.1772999
0001d0 6a d6 5d be b4 ff 61 bd ea b4 f3 bd 6e 77 99 bd
       -0.21663824 -0.055175498 -0.11899741 -0.074934825
0001e0 0b b8 8d 3e da 64 ef bc b8 29 e0 bc 82 c7 02 3e
       0.27679476 -0.029222894 -0.027363643 0.12771419
0001f0 cb 86 81 ba a2 c5 e1 bd 53 f1 2b 3f 16 f2 c1 3e
       -0.000988209 -0.110240236 0.67165107 0.3788001
000200 e7 e8 83 3d 37 7e 09 3e 59 cb e9 bd 7a 47 d1 3e
       0.06440907 0.13427053 -0.114157386 0.40874845
000210 de ef aa bd 42 7b 62 3e a9 17 20 3e 34 bf ab be
       -0.08346532 0.22117332 0.15634026 -0.33544314
000220 ec df 5e 3d bf 04 b1 3e 68 5a d0 be 81 29 cb 3e
       0.054412767 0.34573933 -0.40693974 0.39680102
000230 b3 b2 b7 3e aa 9a 94 be a8 7b e4 be b3 ea 8b be
       0.35878524 -0.2902425 -0.44625592 -0.273275
000240 cf 09 f5 3e e9 0e 9b bd e5 01 bd bd 2e df 5e be
       0.47859046 -0.07571203 -0.09228877 -0.21764824
000250 9e 54 f3 be df 8d a6 be 9e 5c 14 be 56 99 40 3e
       -0.47525495 -0.32530114 -0.14488456 0.18808493
000260 82 56 69 bd c0 21 0f 3e 2b 5a b5 bd d8 f6 6d bd
       -0.056967266 0.13977718 -0.08855089 -0.058096737
000270 e1 f7 94 3c 05 72 ca 3d 3a 13 bb 3e 5a 8e 06 3e
       0.018184604 0.09885029 0.36538106 0.1314024
000280 ec ee 39 be c9 5e cb be 3f 0e 4b 3e ff c4 04 3e
       -0.18157548 -0.39720753 0.19829653 0.12965773
000290 2e b9 7d bd 31 f4 72 bd e1 48 d2 be a9 a2 18 be
       -0.06194418 -0.05931491 -0.41071227 -0.149058
0002a0 b6 87 c5 bd e3 90 6b 3d 0a ae 4e be 84 d0 c6 3d
       -0.096450254 0.05751122 -0.20183578 0.0970774
0002b0 63 74 ab 3d 92 76 88 3e 7f 82 da 3a 37 88 86 be
       0.083718084 0.26652962 0.0016670971 -0.262758
0002c0 9d b6 15 be dc dc 2a be 39 84 75 be 9d cf 31 3d
       -0.14620443 -0.16685814 -0.2397622 0.043410886
0002d0 fe 29 97 bd 94 7e 05 3e e1 af 3e 3e 60 74 4d be
       -0.07381056 0.13036567 0.1862178 -0.20063925
0002e0 01 ac b4 bd 0b 0a d1 3b a0 b3 9a be c7 1a 72 3d
       -0.0882187 0.006379371 -0.30215168 0.059107568
0002f0 bd 88 4c be 6a 35 4b be f8 26 10 3e 7b bd 1f 3e
       -0.19974037 -0.19844595 0.14077365 0.15599625
000300 0e 1d 08 bb a1 7e 79 be ca 8f d3 bd ec 90 ac 3d
       -0.002076927 -0.24364711 -0.1033016 0.08426079
000310 f6 04 a1 3e 79 65 fd 3d 8d ad 5e 3d 08 55 44 be
       0.31449097 0.1237287 0.05436473 -0.19173062
000320 25 97 9e 3e 7c 66 8a 3e 22 fc a8 bd e5 f5 b5 be
       0.3097469 0.27031314 -0.082512155 -0.35539165
000330 34 40 aa 3c f5 b0 88 3e 89 e6 7a bd fa 8b 15 3d
       0.020782568 0.26697508 -0.06125501 0.036510445
000340 01 3e be bd b3 4d 94 3d af c1 11 be 6f c1 80 3e
       -0.0928917 0.072413824 -0.1423404 0.25147578
000350 1a 1c 67 be af e8 68 3e de 52 17 be 21 9c 8f be
       -0.22569314 0.22745012 -0.14777705 -0.28048804
000360 b6 81 ab bc 1a 89 13 bd 10 84 9a be 5f e8 58 be
       -0.020935874 -0.036019422 -0.3017888 -0.21182393
000370 88 f2 74 3e 0b 2d 8e 3d 46 7e 85 3c d0 08 8b be
       0.23920643 0.06942185 0.016295563 -0.2715516
000380 7b d6 99 bd 55 0a be bd dc d2 19 bd da d3 1a be
       -0.07511612 -0.092793144 -0.037554607 -0.15119877
000390 00 cf 5e be 7c 52 75 be 1f 2c 6c bc 70 27 7c be
       -0.21758652 -0.23957247 -0.014414816 -0.24624419
0003a0 e2 33 24 be f7 ca 9a 3e 23 f1 67 3e 2e f9 0a bd
       -0.16035417 0.30232975 0.2265058 -0.033929043
0003b0 43 6f 44 3b 76 c3 45 be b6 7e 61 be 25 51 a5 3e
       0.0029973544 -0.19312844 -0.22020993 0.3228847
0003c0 04 3a cb bd 84 36 56 be d8 9c 3e 3e e6 75 03 3e
       -0.09923175 -0.20919234 0.18614519 0.12837943
0003d0 52 e8 89 3d 49 f4 70 bd a7 1c 1d be 50 ac 49 3e
       0.06733765 -0.05882672 -0.15342961 0.19694638
0003e0 1c fc fe 3d 06 bd 38 bd 0b 1d 1e 3e 9b ee 83 3d
       0.1245043 -0.04510214 0.15440767 0.06441995
0003f0 3d 35 45 3e ea 87 8c 3b a5 de 76 bd a2 5d 5c bb
       0.1925859 0.004288663 -0.060270924 -0.0033625145

Nnet.Hidden_layer_5.bias f4 [30]
000000 39 27 c6 3e 04 21 94 3e ec 69 3f be 15 22 d1 bd
       0.387018 0.2893144 -0.1869275 -0.10211579
000010 67 48 80 be c8 c8 6e be 7b 12 2c bd 76 d1 ca 3d
       -0.2505524 -0.2331878 -0.04200981 0.09903233
000020 92 ab 01 3c cc 59 c0 3e 50 fe 26 3d 17 c1 62 bd
       0.007914441 0.3756851 0.040769875 -0.055359926
000030 28 da 82 be 29 bf 2a be 2f fb 29 be 5f f1 28 3e
       -0.25557065 -0.16674484 -0.16599725 0.16498326
000040 2e 78 e5 3b 6f 73 2e 3e 28 61 11 be c9 8c 9a 3c
       0.007002852 0.17036222 -0.14197218 0.01886596
000050 62 d0 3c 3f 6c d5 25 3d 51 d1 ea 3d c3 a1 32 3d
       0.73755467 0.040486738 0.11465705 0.0436113
000060 b5 cb ee 3d 6d 5a c2 bd bf 6c 53 3d 61 3b ae bd
       0.11659948 -0.094899036 0.05161738 -0.085074194
000070 e1 91 a0 bd 92 e2 3b 3d
       -0.07840324 0.04587037

Nnet.Output.weight f4 [2, 30]
000000 5e 42 24 bf ed 04 84 be 9c 6e 54 3e 2a 5b fd be
       -0.6416377 -0.25785008 0.20745319 -0.49483615
000010 a3 b8 fd be bc 4b 9f be 13 1e e3 3e eb 20 a0 bd
       -0.4955493 -0.31112468 0.44358882 -0.078187786
000020 26 76 85 3e 8a 9f b6 be 7e 9e 9b 3e 9f 5d 32 3b
       0.26066703 -0.35668594 0.30394357 0.0027216447
000030 81 a7 35 be fa 65 86 3d 39 0b d3 3e cd 39 16 3f
       -0.17739679 0.06562419 0.412195 0.58681947
000040 03 56 6d be d3 a0 81 3d 11 f9 3a 3e 56 25 17 3e
       -0.23177342 0.06329503 0.18259074 0.14760336
000050 7c 85 34 3f cf a2 f5 3e 12 d9 09 3f f2 e3 90 ba
       0.7051618 0.47975776 0.5384685 -0.0011054261
000060 2a da 91 3e f4 db a0 be 3e 32 95 be aa 96 39 be
       0.28486758 -0.3141781 -0.29139894 -0.1812388
000070 5d f7 c2 bd 6a 97 87 be 2d df d4 3e 1d 5f 4f bf
       -0.09519837 -0.26482707 0.4157652 -0.81004506
000080 94 24 74 be 74 2c 75 3e 86 de 48 be 87 e6 4a be
       -0.23842078 0.23942739 -0.19616136 -0.19814502
000090 63 4e 67 bc 82 82 86 3e 87 a8 c5 bd 75 2c 17 3e
       -0.01411781 0.26271445 -0.09651285 0.14763053
0000a0 33 0b 3a 3e 2d f6 0d 3f b4 4b 70 3e 5a 21 96 be
       0.18168335 0.5545376 0.23466378 -0.2932232
0000b0 67 e8 6c 3e 94 e1 f9 be da 50 82 be 3d 9c a0 3e
       0.2313553 -0.48804915 -0.2545231 0.313692
0000c0 f3 a0 37 be a9 0d ad bd 9c 19 21 3e 05 ae 9d 3e
       -0.17932491 -0.08449871 0.15732425 0.3079683
0000d0 a2 ac 2c 3d 50 25 98 be 33 93 be 3d 1f e4 0d bd
       0.042156823 -0.29715967 0.0930542 -0.03464138
0000e0 47 43 20 3d 43 7d 3c be c4 8e 27 3e 48 45 0b 3e
       0.03912666 -0.18407159 0.16363055 0.13600647

Nnet.Output.bias f4 [2]
000000 c5 c9 90 be ea be 13 be
       -0.28278938 -0.14428297
