PINN/PINN_wt.pt (torch, 19329 bytes, 12 tensors)

Nnet.Hidden_layer_1.weight f4 [30, 2]
0.4574769 -0.43971184 -0.007972682 0.5350394 -0.67635137 0.008239139 0.30800387 -0.4257999
0.047772486 -0.41302848 0.7680111 0.11739058 0.694069 0.3095743 0.3256388 -0.8135478
0.70966285 -0.6212202 0.4767078 0.4235934 0.19777466 0.7785611 -0.1510588 -0.5389009
0.2331854 -0.28582665 -0.6385157 -0.66392237 -0.45537245 0.27533716 -0.4591842 0.4799527
0.5086324 -0.39162466 0.41415122 -0.04384699 0.58396333 -0.10668741 -0.5122784 0.59808403
-0.4705693 0.2444768 0.4663824 -0.6144818 -0.6323905 0.4906073 -1.104278 -0.50552714
0.38262403 -0.31578472 0.6598857 -0.030342396 0.018850561 -0.6058289 0.21941355 -0.6877401
-0.60472125 -0.57293576 0.16518037 -0.17173408
00000000: 6a3a ea3e e921 e1be da9f 02bc 58f8 083f
00000010: 5d25 2dbf 74fd 063c afb2 9d3e 7202 dabe
00000020: 15ad 433d 7878 d3be 609c 443f 796a f03d
00000030: 82ae 313f 8680 9e3e 21ba a63e ab44 50bf
00000040: 77ac 353f 4908 1fbf 0b13 f43e 3ce1 d83e
00000050: 7185 4a3e c84f 473f 28af 1abe 69f5 09bf
00000060: 27c8 6e3e df57 92be c475 23bf d1f6 29bf
00000070: 9426 e9be fef8 8c3e 311a ebbe 5cbc f53e
00000080: bc35 023f 0783 c8be a10b d43e e798 33bd
00000090: 9f7e 153f ee7e dabd ad24 03bf 091c 193f
000000a0: 76ee f0be 2058 7a3e adc9 ee3e ae4e 1dbf
000000b0: 58e4 21bf e130 fb3e fb58 8dbf 3a6a 01bf
000000c0: 4ce7 c33e 89ae a1be 45ee 283f 9e90 f8bc
000000d0: 7e6c 9a3c 9a17 1bbf f2ad 603e bc0f 30bf
000000e0: 03cf 1abf ebab 12bf 0b25 293e 0fdb 2fbe

Nnet.Hidden_layer_1.bias f4 [30]
0.6602289 -0.114513494 0.6047623 -0.6482872 0.13890481 -0.31150642 0.61164665 0.31957832
0.06231104 -0.4769914 -0.46198055 -0.042777862 0.24758214 -0.114175 -0.20857435 -0.58365434
0.63471794 0.6678907 -0.4872074 0.011126427 0.11115078 0.0934946 -0.39958102 -0.49909833
-0.09477663 -0.5406262 0.21587932 -0.22863545 -0.55623025 0.0038970145
00000000: c304 293f 0d86 eabd b4d1 1a3f 26f6 25bf
00000010: 103d 0e3e c57d 9fbe e094 1c3f c59f a33e
00000020: dc39 7f3d 3738 f4be b788 ecbe d737 2fbd
00000030: 2c86 7d3e 95d4 e9bd 8494 55be 5f6a 15bf
00000040: e07c 223f e3fa 2a3f 4073 f9be 9e4b 363c
00000050: 05a3 e33d 197a bf3d e295 ccbe d189 ffbe
00000060: 401a c2bd 7b66 0abf 780f 5d3e 691f 6abe
00000070: 1b65 0ebf 0e65 7f3b

Nnet.Hidden_layer_2.weight f4 [30, 30]
-0.06648279 -0.1637143 0.011222332 0.040581238 0.17524913 0.040757596 -0.25462356 -0.00554735
0.18174139 0.014009859 -0.2765083 0.3194428 -0.11883614 0.25938758 -0.22063446 -0.12910171
0.10076598 -0.07935392 0.08524643 -0.28004223 -0.05857855 0.29793862 0.029478213 0.29532784
0.008535807 -0.02008668 0.13200016 0.16871715 0.121587016 0.14267516 0.07235067 -0.0309692
-0.13922018 -0.023623861 0.020105755 0.06035762 0.21198848 0.026542343 0.16615698 0.35984036
0.18473099 -0.08781261 -0.026898094 -0.30447528 -0.018488744 0.09473142 0.15462795 0.07653964
0.22401431 -0.11256928 -0.17798951 -0.014995766 -0.1690869 -0.07750074 -0.13185924 0.21561283
-0.25794387 -0.16077325 -0.038092293 0.018376268 -0.12845893 -0.048685763 0.16743518 0.10869582
-0.13035285 -0.08867232 0.06181717 -0.29794717 -0.07322526 0.09588854 0.14797527 -0.18804006
0.008895114 -0.1457862 0.105112374 0.09417899 0.0989017 -0.014493087 -0.22472607 0.1294062
-0.09308136 -0.29165113 0.18687944 -0.16825113 0.05709774 0.02381125 0.013042477 -0.041567694
0.07685571 -0.13201734 -0.019685049 0.052567266 -0.11038139 0.07870727 -0.01843747 0.18853362
0.07838775 -0.06979409 0.17776231 0.021649694 0.18239407 0.029920358 -0.07963568 -0.28662816
-0.22000378 0.09058903 0.007154194 0.3054418 0.20789155 -0.079772025 -0.16370144 0.21732211
-0.12733589 -0.1629177 0.085530594 -0.102037996 -0.051252738 0.045547478 -0.25051567 0.024050288
-0.13572314 0.024632849 0.27018732 -0.0982906 -0.17100184 -0.0749617 -0.07477947 0.090743065
0.0035346285 -0.175932 -0.14032102 0.16493239 -0.23032562 0.031610675 -0.09545746 -0.11881677
0.032724548 0.16248463 -0.09720744 0.28477317 0.09132921 -0.21587613 0.08658431 -0.079335906
-0.11895562 -0.195168 -0.22107999 -0.12319907 0.16351591 -0.01846234 0.10830946 -0.028927006
0.24887739 0.06397413 0.047004733 -0.18843749 -0.1820587 0.066772245 -0.21542849 -0.24402386
0.00022123208 0.15859185 -0.14989975 0.17831588 0.15054409 -0.015376504 0.079437375 -0.21408504
0.07064233 0.05397793 0.22606423 -0.11140518 0.147069 -0.05447106 -0.11443169 -0.04517674
0.13853996 -0.1077295 0.29324996 0.038758427 0.12353209 -0.29771152 0.30694607 0.010899299
0.22824346 -0.37944943 -0.11633262 0.19754899 -0.11525196 -0.36697286 -0.31814998 0.28981885
-0.035714436 0.2924067 0.119939774 0.009829681 -0.10872069 -0.10502015 -0.0863856 0.012417926
-0.113063365 -0.08978397 -0.1693184 0.055575367 0.100983895 -0.009696805 0.33314833 0.27584535
0.13552783 0.030715914 0.15643482 -0.1311754 -0.06071419 0.08277416 -0.06211437 0.023844536
-0.15969302 0.21500984 0.20391038 0.32038674 0.068715736 -0.089878224 0.07665238 -0.2373645
0.10491724 0.025466109 0.15280473 0.08081978 0.23689455 -0.12947452 -0.08030517 0.07667581
-0.11570487 0.13518569 -0.032837696 0.21112752 -0.110505156 0.12278724 0.16631414 0.003948549
-0.1500083 -0.023496356 0.06841267 -0.02130601 0.00095957605 0.02266973 -0.09841999 -0.3024435
-0.25206053 -0.08896015 0.07467814 -0.313236 -0.201159 -0.2523525 0.044816103 0.17456119
00000000: 2128 88bd b9a4 27be dfdd 373c 8338 263d
00000010: 8274 333e 70f1 263d 055e 82be 8bc6 b5bb
00000020: 6a1a 3a3e 9c89 653c 7f92 8dbe 028e a33e
00000030: 5d60 f3bd 73ce 843e 00ee 61be 3d33 04be
00000040: 655e ce3d 4f84 a2bd ae95 ae3d b261 8fbe
00000050: 10f0 6fbd 698b 983e 4b7c f13c 3635 973e
00000060: c5d9 0b3c d28c a4bc 0d2b 073e 30c4 2c3e
00000070: 9d02 f93d 7019 123e 972c 943d 1fb3 fdbc
00000080: bc8f 0ebe d486 c1bc d3b4 a43c 8d39 773d
00000090: 8213 593e 546f d93c 0e25 2a3e ff3c b83e
000000a0: 1f2a 3d3e 19d7 b3bd 6459 dcbc 2fe4 9bbe
000000b0: b575 97bc 8c02 c23d ca56 1e3e d1c0 9c3d
000000c0: 0264 653e b98a e6bd e242 36be cdb0 75bc
000000d0: 1e25 2dbe b5b8 9ebd 1c06 07be 9cc9 5c3e
000000e0: 3811 84be bea1 24be aa06 1cbd d489 963c
000000f0: bd8a 03be b96a 47bd 2174 2b3e ea9b de3d
00000100: 387b 05be d599 b5bd 0034 7d3d 888c 98be
00000110: 20f7 95bd 3661 c43d d486 173e 938d 40be
00000120: d0bc 113c fa48 15be 2845 d73d eae0 c03d
00000130: f98c ca3d 6a74 6dbc 971e 66be 0f83 043e
00000140: 71a1 bebd 4c53 95be 535d 3f3e 064a 2cbe
00000150: 52df 693d d00f c33c 1db0 553c e342 2abd
00000160: 8766 9d3d 8e2f 07be 8a42 a1bc c650 573d
00000170: a30f e2bd 4731 a13d 2d0a 97bc f50e 413e
00000180: c289 a03d 34f0 8ebd 5307 363e b35a b13c
00000190: 83c5 3a3e 8a1b f53c 0818 a3bd edc0 92be
000001a0: ac48 61be be86 b93d bb6d ea3b de62 9c3e
000001b0: 86e1 543e 845f a3bd 5aa1 27be b089 5e3e
000001c0: 5764 02be e6d3 26be aa2a af3d 4cf9 d0bd
000001d0: 64ee 51bd fe8f 3a3d 9743 80be 1c05 c53c
000001e0: 02fb 0abe d4ca c93c fe55 8a3e 954c c9bd
000001f0: 1b1b 2fbe 8585 99bd fb25 99bd 80d7 b93d
00000200: 3aa5 673b 8527 34be 50b0 0fbe 09e4 283e
00000210: 7bda 6bbe 327a 013d 337f c3bd 3556 f3bd
00000220: 2d0a 063d 5f62 263e b214 c7bd cacd 913e
00000230: cf0a bb3d a20e 5dbe 1d53 b13d dd7a a2bd
00000240: 019f f3bd 1fda 47be cb62 62be cb4f fcbd
00000250: b770 273e 553e 97bc 5ad1 dd3d 54f8 ecbc
00000260: b7d9 7e3e de04 833d 0988 403d c2f5 40be
00000270: 996d 3abe e3bf 883d 4999 5cbe 64e1 79be
00000280: 89fa 6739 e765 223e 527f 19be 7098 363e
00000290: 3b28 1a3e bbed 7bbc 10b0 a23d 1c39 5bbe
000002a0: edac 903d f617 5d3d 627d 673e 6628 e4bd
000002b0: 4299 163e 0c1d 5fbd 295b eabd 3f0b 39bd
000002c0: 6bdd 0d3e 49a1 dcbd dc24 963e 28c1 1e3d
000002d0: 64fe fc3d a56d 98be 0928 9d3e f992 323c
000002e0: a7b8 693e 3247 c2be cc3f eebd 484a 4a3e
000002f0: 3809 ecbd dee3 bbbe 8ee4 a2be 2363 943e
00000300: 4d49 12bd 55b6 953e fca2 f53d ac0c 213c
00000310: f4a8 debd ce14 d7bd efea b0bd 8f74 4b3c
00000320: c48d e7bd a8e0 b7bd cd61 2dbe ffa2 633d
00000330: a5d0 ce3d 59df 1ebc 6b92 aa3e 9a3b 8d3e
00000340: cfc7 0a3e f19f fb3c 7330 203e d852 06be
00000350: 71af 78bd 8085 a93d a36b 7ebd 9e55 c33c
00000360: 9186 23be 8a2b 5c3e e2cd 503e bb09 a43e
00000370: d6ba 8c3d 1312 b8bd ecfb 9c3d ae0f 73be
00000380: dade d63d 4d9e d03c d878 1c3e d784 a53d
00000390: 7c94 723e f894 04be 0977 a4bd 3508 9d3d
000003a0: adf6 ecbd 1e6e 0a3e d280 06bd d031 583e
000003b0: 8750 e2bd e077 fb3d 414e 2a3e d462 813b
000003c0: c79b 19be 6e7b c0bc f11b 8c3d f189 aebc
000003d0: 0f8c 7b3a dfb5 b93c 6b90 c9bd e0d9 9abe
000003e0: 140e 81be bd30 b6bd daf0 983d 7860 a0be
000003f0: a0fc 4dbe 5934 81be 1791 373d 2bc0 323e

Nnet.Hidden_layer_2.bias f4 [30]
-0.057167094 -0.1319236 -0.13854796 0.031771686 0.12765962 0.03736506 0.32063532 0.014629994
-0.15527928 0.09021045 0.24477324 -0.13684064 -0.07272741 -0.028967472 0.17209105 -0.15188636
-0.2674239 0.18091255 -0.015738668 0.058812484 0.0048425356 0.0717003 -0.2964904 -0.089694515
0.18504485 -0.013927408 0.023939025 -0.019192724 -0.010779479 0.17179434
00000000: 0b28 6abd fb16 07be 84df 0dbe 0723 023d
00000010: 34b9 023e 1b0c 193d 502a a43e a4b2 6f3c
00000020: 8801 1fbe 42c0 b83d d6a5 7a3e f41f 0cbe
00000030: 1cf2 94bd 314d edbc a338 303e 1988 1bbe
00000040: c9eb 88be 2441 393e 61ee 80bc 5ce5 703d
00000050: 22ae 9e3b 9bd7 923d 97cd 97be c2b1 b7bd
00000060: 667c 3d3e c82f 64bc c61b c43c 0f3a 9dbc
00000070: 699c 30bc dbea 2f3e

Nnet.Hidden_layer_3.weight f4 [30, 30]
0.028973095 -0.055755466 0.086213544 0.04178572 -0.045627657 0.26818314 0.32457164 -0.06715157
0.024251288 0.1403879 0.12543881 -0.05511465 -0.20118128 -0.22902465 0.019155053 -0.10795014
-0.18421985 0.0581966 -0.0356462 0.1256954 0.032303613 0.21281584 -0.13443851 -0.20287442
0.12619674 -0.08389075 0.3265815 -0.32046843 0.067479916 0.09548281 -0.04480615 0.17657518
-0.028253695 0.10181628 -0.15097758 -0.20978704 -0.3431655 0.17433068 -0.10945378 -0.005561657
-0.37889048 0.122922696 -0.14595315 0.08213941 -0.050478194 0.12472989 0.4230741 -0.18697493
0.18586823 -0.004790933 0.24075566 -0.2115193 0.027493525 0.16863787 -0.6043095 0.11213574
-0.36035138 0.27293688 -0.1491194 0.042642504 0.015893191 0.12458712 0.1396399 -0.12289592
-0.100887805 -0.14041369 -0.08248857 0.016502252 0.13215584 -0.1681664 -0.009151643 0.15978083
0.13591014 0.22666787 -0.123060405 0.016469505 -0.029940164 -0.27610785 -0.036828164 -0.31332073
0.018534673 -0.071498916 -0.102751076 0.10575612 -0.33017182 -0.12060405 -0.024447575 0.09974802
-0.1907645 -0.06339941 0.25655964 0.23857792 -0.18544404 -0.023233166 0.019402392 0.055892244
-0.10620802 0.10902335 0.05165312 -0.09734602 0.12873833 0.07592361 0.15614639 -0.12209494
0.14051531 -0.07221338 0.13893387 -0.076579064 0.07121272 -0.05949717 -0.13793983 -0.17024308
-0.15983179 0.18594071 0.05967816 -0.029313857 -0.19437921 -0.13350032 -0.097578704 -0.124651514
0.07576568 0.26191092 -0.29323205 0.28253523 -0.28409362 -0.18217841 -0.1283076 0.17363255
-0.28003812 -0.081112094 0.25884894 -0.38150865 -0.05395344 -0.4053792 0.08457234 -0.12435971
-0.119432636 0.035231203 -0.066224255 0.22234394 -0.2245674 -0.06464534 -0.21070406 0.08895187
0.10760928 -0.29113352 0.12295352 -0.33481827 0.20882969 -0.015152956 -0.08680505 0.22279757
-0.12048903 0.16546263 0.057923056 -0.0520823 0.0500969 0.08300597 -0.291984 -0.02075457
0.2617311 -0.1784316 0.20711018 -0.2259852 -0.03392225 -0.1452495 -0.11633852 -0.18977153
-0.10475821 0.19974169 -0.21185978 -0.084927395 0.103387095 0.07811768 0.04874517 0.027985876
0.018604914 0.06057846 0.20134313 -0.25214133 0.2272119 -0.21364254 0.008235577 0.09148364
0.14439665 -0.13676424 0.22044691 0.17751476 -0.02686561 -0.058740452 0.045514748 -0.4353031
-0.2837075 -0.042390913 -0.042677563 -0.12732702 -0.04188619 0.07806588 0.17448097 0.2737032
-0.07800606 -0.035763938 0.023163656 0.067009345 0.23477945 -0.11293496 -0.004873113 0.003540238
0.18922585 -0.22799383 0.1380392 0.21503189 -0.121326976 0.06188674 0.07181202 0.0042348257
-0.3446895 -0.026775034 0.09758266 0.048111398 0.18537538 0.010430456 -0.018550446 0.012508392
0.18214564 -0.039594308 0.19729123 -0.16210894 -0.10705793 0.111973256 -0.044272684 -0.14807142
-0.07267291 0.22444493 -0.01330742 -0.022748455 -0.08501506 0.008791347 0.17346509 -0.09036838
0.15799354 -0.20073411 -0.22957388 -0.07437516 0.037911884 0.00041863217 0.29272124 0.049322862
-0.22947408 0.06938462 0.17358568 -0.18620291 -0.25180233 -0.1231899 -0.04254924 -0.11435934
00000000: fc58 ed3c d85f 64bd ba90 b03d 8127 2b3d
00000010: 11e4 3abd 4d4f 893e 412e a63e c386 89bd
00000020: a3aa c63c d8c1 0f3e 0873 003e e6bf 61bd
00000030: 7702 4ebe 7085 6abe 0feb 9c3c f714 ddbd
00000040: 21a4 3cbe 8f5f 6e3d c001 12bd 4cb6 003e
00000050: cb50 043d 65ec 593e 40aa 09be 50be 4fbe
00000060: b839 013e eace abbd b135 a73e 7014 a4be
00000070: e932 8a3d 7e8c c33d a786 37bd 20d0 343e
00000080: 4b74 e7bc 0e85 d03d de99 1abe 6ad2 56be
00000090: 63b3 afbe be83 323e 4e29 e0bd 8f3e b6bb
000000a0: effd c1be e5be fb3d be74 15be b538 a83d
000000b0: 39c2 4ebd 6272 ff3d 2b9d d83e 5b76 3fbe
000000c0: 3e54 3e3e 42fd 9cbb a788 763e 8498 58be
000000d0: 1a3a e13c 68af 2c3e 07b4 1abf 6ca7 e53d
000000e0: fa7f b8be 62be 8b3e c2b2 18be e8a9 2e3d
000000f0: 7032 823c 8827 ff3d c3fd 0e3e dbb0 fbbd
00000100: 449e cebd 9bc8 0fbe c4ef a8bd bb2f 873c
00000110: dc53 073e d033 2cbe c6f0 15bc 969d 233e
00000120: 072c 0b3e 9f1b 683e 1807 fcbd 0eeb 863c
00000130: 1345 f5bc 025e 8dbe 21d9 16bd 936b a0be
00000140: 07d6 973c 066e 92bd 286f d2bd aa96 d83d
00000150: 480c a9be 42ff f6bd 4846 c8bc b148 cc3d
00000160: c557 43be 8dd7 81bd c95b 833e c54d 743e
00000170: 0be5 3dbe 7b53 bebc c4f1 9e3c 44ef 643d
00000180: 9783 d9bd a247 df3d 3992 533d 5a5d c7bd
00000190: fbd3 033e d67d 9b3d d7e4 1f3e e90c fabd
000001a0: 3fe3 0f3e 9ce4 93bd ae44 0e3e 7cd5 9cbd
000001b0: f9d7 913d 4eb3 73bd 1940 0dbe 3454 2ebe
000001c0: f2aa 23be 3e67 3e3e 1671 743d 9d23 f0bc
000001d0: 580b 47be 4fb4 08be 58d7 c7bd 4b49 ffbd
000001e0: 092b 9b3d 3019 863e 8322 96be 75a8 903e
000001f0: b874 91be fa8c 3abe 1163 03be bbcc 313e
00000200: 2861 8fbe 191e a6bd d987 843e 1a55 c3be
00000210: 48fe 5cbd dd8d cfbe 4334 ad3d 4eb0 febd
00000220: 1999 f4bd 984e 103d 95a0 87bd 21ae 633e
00000230: fff4 65be c764 84bd cec2 57be 662c b63d
00000240: 4162 dc3d 740f 95be 0ecf fb3d 4d6d abbe
00000250: 73d7 553e 1b44 78bc d9c6 b1bd 0c25 643e
00000260: f4c2 f6bd 096f 293e ba40 6d3d 4054 55bd
00000270: 6832 4d3d 09ff a93d ed7e 95be 7d05 aabc
00000280: 9e01 863e c6b6 36be b114 543e aa68 67be
00000290: 0ff2 0abd 49bc 14be e442 eebd 7853 42be
000002a0: 798b d6bd 1689 4c3e c5f1 58be 6aee adbd
000002b0: 9dbc d33d 2afc 9f3d 04a9 473d a342 e53c
000002c0: 5569 983c 1f21 783d e52c 4e3e ab18 81be
000002d0: 3caa 683e 1cc5 5abe 83ee 063c c65b bb3d
000002e0: b7dc 133e ed0b 0cbe d6bc 613e 6ec6 353e
000002f0: 4515 dcbc d499 70bd ac6d 3a3d 0ce0 debe
00000300: 1c42 91be 18a2 2dbd abce 2ebd 0462 02be
00000310: db90 2bbd 01e1 9f3d 24ab 323e d322 8c3e
00000320: a4c1 9fbd 357d 12bd b5c1 bd3c 323c 893d
00000330: 066a 703e 724a e7bd a2ae 9fbb 5603 683b
00000340: 6cc4 413e 3777 69be 265a 0d3e 5231 5c3e
00000350: 477a f8bd f37c 7d3d 2e12 933d 4bc4 8a3b
00000360: 247b b0be 5157 dbbc 6bd9 c73d 7510 453d
00000370: 0bd3 3d3e 81e4 2a3c 1bf7 97bc 00f0 4c3c
00000380: 6384 3a3e a42d 22bd b606 4a3e e3ff 25be
00000390: 3041 dbbd 3c52 e53d 4657 35bd 09a0 17be
000003a0: 89d5 94bd e4d4 653e 5d07 5abc f85a babc
000003b0: 601c aebd 9509 103c d5a0 313e 0f13 b9bd
000003c0: 0fc9 213e 3e8d 4dbe 6a15 6bbe 0152 98bd
000003d0: 7e49 1b3d dc7b db39 8fdf 953e c506 4a3d
000003e0: 41fb 6abe 8619 8e3d 72c0 313e faab 3ebe
000003f0: 3cec 80be fc4a fcbd 1d48 2ebd 3b35 eabd

Nnet.Hidden_layer_3.bias f4 [30]
0.15661128 -0.23728937 -0.20523268 0.1797897 0.07542519 -0.14992298 0.01881245 0.12786376
0.24832492 0.14216438 -0.04496709 0.035222087 0.14771263 -0.18099561 0.033169925 -0.10934696
0.16977642 -0.11305865 0.038676072 0.09461245 0.11913082 -0.035126723 0.14250383 -0.18853663
-0.055118978 -0.12701541 -0.1387254 -0.08052653 -0.17159256 0.17888698
00000000: b55e 203e fcfb 72be 8428 52be cb1a 383e
00000010: 8678 9a3d 6985 19be 911c 9a3c b8ee 023e
00000020: e348 7e3e 8a93 113e 692f 38bd 0945 103d
00000030: fb41 173e ea56 39be 30dd 073d 4df1 dfbd
00000040: dfd9 2d3e 4b8b e7bd cd6a 1e3d 2cc4 c13d
00000050: dcfa f33d 0ae1 0fbd 86ec 113e bf0f 41be
00000060: 70c4 61bd 5410 02be 080e 0ebe 18eb a4bd
00000070: f6b5 2fbe 262e 373e

Nnet.Hidden_layer_4.weight f4 [30, 30]
-0.14814119 -0.33040923 -0.05759498 -0.2104534 0.03749191 -0.04157232 -0.28070688 -0.17935365
-0.14486314 -0.08230214 -0.043006837 -0.32319728 0.076404415 -0.22724028 -0.027680859 -0.0852826
-0.045492794 -0.032008417 0.30992034 -0.3860968 0.05543427 0.3235479 0.43333644 0.10665093
-0.3136765 0.11743021 -0.3720937 -0.13631378 -0.09274105 -0.015138458 0.32521233 -0.22945613
-0.29406694 -0.19509976 0.19841361 -0.20215231 -0.08546856 -0.016662674 0.28269437 -0.33935985
-0.051276926 -0.17354111 0.0481745 -0.018021341 0.3532646 -0.36289448 -0.12214887 0.3980668
-0.051491186 -0.08380688 -0.05537863 0.14043362 0.05699855 -0.16951922 0.19402817 0.024388066
-0.088393465 -0.070682004 0.3279154 0.112592995 -0.20376317 0.17990407 0.04084172 0.00730596
-0.07310009 0.120807245 -0.015339626 0.094562046 -0.031589568 -0.04891444 0.17685375 -0.07693935
-0.027792096 -0.053209495 -0.16198687 0.14692086 0.089943066 -0.07559434 -0.14467618 0.03298525
-0.036518663 -0.27905053 0.0150102815 0.038287796 -0.23427218 -0.02140536 -0.07544916 0.17598905
-0.05075634 -0.16533047 0.05725564 0.040855747 0.07947504 0.16431248 0.33651477 0.123080775
-0.116561085 0.027929058 -0.13716619 -0.11563581 -0.16637582 0.42234793 0.034952343 0.035234947
0.12616873 -0.16422947 0.23042469 -0.0750677 -0.07535488 0.41485444 -0.08622925 -0.051062264
-0.13202243 -0.36002067 0.2596443 0.15368971 0.19398698 -0.16039142 0.13612542 0.025877351
0.07668956 -0.22563545 0.01973278 -0.09839613 -0.09842689 -0.10818618 -0.08726529 -0.0884913
-0.033890706 -0.30273354 -0.3511922 -0.18983294 0.16160905 -0.14120226 0.06888807 -0.253631
-0.17151955 0.21166849 -0.22968365 0.15035138 0.21492437 0.28807703 -0.19453187 0.12424995
-0.016215751 0.32007718 -0.013806897 -0.2423331 0.29508975 -0.0071646366 -0.24421848 0.35170904
0.05160907 -0.091981776 -0.08439805 -0.0874891 0.06654888 0.014344499 -0.3282544 -0.11991316
0.175497 -0.10369124 -0.194189 0.10730877 -0.13395654 0.08147431 -0.2989902 -0.23697726
-0.18421158 -0.0037241871 -0.06738239 0.269285 0.19062895 0.05620914 -0.07978045 0.22442652
0.36360976 0.06609089 0.09391605 -0.4072565 -0.15126772 0.061279304 0.16730678 0.06512079
0.3154042 0.22959207 0.042140275 0.17392658 0.08056059 0.15466227 0.19573058 0.035311818
0.041734863 0.20141856 0.014848844 0.27288947 0.0362617 0.044903055 0.18342467 0.0038853523
-0.10634436 -0.33670327 -0.02960541 -0.2167708 -0.05254273 -0.2037096 -0.11276883 0.12973
-0.12165143 0.17391302 -0.11920227 -0.21457765 -0.14485833 -0.02221416 0.33243024 0.16050011
-0.10302601 0.032821503 -0.16026947 -0.026896385 -0.060966283 0.0654706 0.048910093 0.16422863
-0.051680777 -0.255939 -0.077880226 0.13289876 -0.08967998 -0.06932535 -0.04821129 0.1696117
-0.41174224 -0.28167155 -0.17389372 -0.09805341 0.12622179 -0.15255581 -0.033815812 -0.12898917
-0.4052779 -0.008826194 0.17393091 0.2732851 -0.010124663 -0.100931324 0.022418784 0.18594965
-0.13680173 0.18440089 0.38478538 -0.079047605 0.08889985 0.04706575 -0.41716567 0.34962076
00000000: 53b2 17be 662b a9be b7e8 6bbd 1981 57be
00000010: 1e91 193d bd47 2abd d0b8 8fbe 7ca8 37be
00000020: 0157 14be 068e a8bd f027 30bd 1d7a a5be
00000030: eb79 9c3d adb1 68be f8c2 e2bc a5a8 aebd
00000040: a756 3abd 421b 03bd e1ad 9e3e 7bae c5be
00000050: 0c0f 633d 12a8 a53e 46de dd3e ce6b da3d
00000060: 359a a0be 407f f03d 1183 bebe d795 0bbe
00000070: 05ef bdbd 4c07 78bc 3b82 a63e 8cf6 6abe
00000080: f18f 96be 3bc8 47be f02c 4b3e 0401 4fbe
00000090: 240a afbd 2980 88bc 51bd 903e 93c0 adbe
000000a0: c107 52bd c3b4 31be a052 453d 7ea1 93bc
000000b0: 19df b43e 4ecd b9be 3029 fabd 69cf cb3e
000000c0: 6ce8 52bd f1a2 abbd b4d4 62bd d5cd 0f3e
000000d0: 5077 693d 7296 2dbe 52af 463e 7bc9 c73c
000000e0: a207 b5bd bac1 90bd 87e4 a73e 2897 e63d
000000f0: 4ba7 50be c638 383e a649 273d d666 ef3b
00000100: 80b5 95bd ca69 f73d 0e53 7bbc bfa9 c13d
00000110: 1064 01bd 825a 48bd 2619 353e 6192 9dbd
00000120: 40ac e3bc 33f2 59bd e3df 25be 6c72 163e
00000130: 1234 b83d 35d1 9abd fe25 14be 8b1b 073d
00000140: 9894 15bd b6df 8ebe afed 753c aad3 1c3d
00000150: 0ce5 6fbe 4b5a afbc 1785 9abd 7936 343e
00000160: e1e5 4fbd 644c 29be e484 6a3d 5b58 273d
00000170: cfc3 a23d 8841 283e aa4b ac3e c611 fc3d
00000180: 94b7 eebd 7bcb e43c 4b75 0cbe 78d2 ecbd
00000190: 6c5e 2abe fd3d d83e 302a 0f3d 8552 103d
000001a0: 6032 013e c52b 28be 73f4 6b3e 18bd 99bd
000001b0: a953 9abd cd67 d43e f698 b0bd aa26 51bd
000001c0: e330 07be a154 b8be 19f0 843e d660 1d3e
000001d0: 86a4 463e a63d 24be 7664 0b3e bdfc d33c
000001e0: 6b0f 9d3d fb0c 67be a4a6 a13c e983 c9bd
000001f0: 0a94 c9bd b790 ddbd 25b8 b2bd ed3a b5bd
00000200: fbd0 0abd e4ff 9abe 77cf b3be 9163 42be
00000210: d87c 253e 5397 10be 3015 8d3d ecdb 81be
00000220: d2a2 2fbe a0bf 583e 3132 6bbe b6f5 193e
00000230: 2215 5c3e d57e 933e 5d33 47be c276 fe3d
00000240: e5d6 84bc 28e1 a33e 5336 62bc 2b26 78be
00000250: 0116 973e 54c5 eabb 6914 7abe 3513 b43e
00000260: 0864 533d f160 bcbd e3d8 acbd 7c2d b3bd
00000270: c74a 883d 3105 6b3c f610 a8be 0895 f5bd
00000280: 7cb5 333e 135c d4bd 7bd9 46be b3c4 db3d
00000290: e72b 09be 01dc a63d 3e15 99be 2baa 72be
000002a0: f6a1 3cbe 7e11 74bb c7ff 89bd b9df 893e
000002b0: 3c34 433e 8e3b 663d ef63 a3bd 11d0 653e
000002c0: 0f2b ba3e a95a 873d 0f57 c03d ed83 d0be
000002d0: ede5 1abe 0200 7b3d 7852 2b3e 0c5e 853d
000002e0: a97c a13e 2f1a 6b3e 489b 2c3d cf19 323e
000002f0: f3fc a43d c95f 1e3e 996d 483e 20a3 103d
00000300: 2df2 2a3d ab40 4e3e 9148 733c 2bb8 8b3e
00000310: 2687 143d 44ec 373d add3 3b3e 65a1 7e3b
00000320: 12cb d9bd 5f64 acbe 0b87 f2bc 2af9 5dbe
00000330: 0c37 57bd 4099 50be 58f3 e6bd f1d7 043e
00000340: 6324 f9bd 4116 323e 5220 f4bd 3eba 5bbe
00000350: be55 14be 78fa b5bc 4c34 aa3e 245a 243e
00000360: 4dff d2bd d76f 063d ae1d 24be cf55 dcbc
00000370: c8b7 79bd 7315 863d f355 483d 8d2b 283e
00000380: 39af 53bd 700a 83be ab7f 9fbd 9d16 083e
00000390: 23aa b7bd 73fa 8dbd 3479 45bd b1ae 2d3e
000003a0: e1cf d2be 4137 90be 3211 32be 3ad0 c8bd
000003b0: 4940 013e 9737 1cbe 7382 0abd bd15 04be
000003c0: 9680 cfbe be9b 10bc f21a 323e 06ec 8b3e
000003d0: eae1 25bc 15b5 cebd 99a7 b73c 9669 3e3e
000003e0: c115 0cbe 96d3 3c3e 9702 c53e b6e3 a1bd
000003f0: 2011 b63d 04c8 403d bd96 d5be 7e01 b33e

Nnet.Hidden_layer_4.bias f4 [30]
-0.1363443 0.03748478 0.08423902 -0.03107621 0.12225571 0.005311887 -0.1205087 -0.017090611
0.08353987 0.17174184 0.044634905 -0.14228705 -0.00942675 -0.108644135 -0.08506759 -0.08836082
-0.15594207 0.18417448 0.13156073 -0.086574 -0.19959684 0.11790657 0.067061745 0.2121843
0.25718144 0.14055434 0.21054874 0.23058273 -0.008516366 0.11445703
00000000: d79d 0bbe a489 193d 8285 ac3d 8993 febc
00000010: 3461 fa3d 560f ae3b 44cd f6bd 9c01 8cbc
00000020: f416 ab3d 18dd 2f3e 17d3 363d b2b3 11be
00000030: a872 1abc d180 debd eb37 aebd 85f6 b4bd
00000040: 47af 1fbe 3c98 3c3e dbb7 063e b64d b1bd
00000050: 1d63 4cbe 0079 f13d ab57 893d d746 593e
00000060: 49ad 833e 7aed 0f3e 179a 573e e11d 6c3e
00000070: 3a88 0bbc 7368 ea3d

Nnet.Hidden_layer_5.weight f4 [30, 30]
-0.25555602 0.31815615 -0.03337493 -0.008955432 0.112604134 0.24214146 0.05052728 -0.031203788
0.3440242 -0.0010173577 0.14051564 0.16101782 0.2164373 0.38620207 -0.10305908 -0.39495227
-0.20404051 0.15693295 -0.10297915 0.09734223 0.057418663 -0.24113642 0.023038208 0.08427295
0.22415128 -0.30880094 -0.54746073 -0.23552209 -0.013849343 -0.010861567 -0.12914984 -0.29741633
0.14585023 -0.06168209 0.15968409 0.040194526 0.27206388 0.24623354 0.08766449 0.3513156
0.051770624 -0.21728553 -0.27788234 0.38177815 -0.07222885 -0.21496291 0.13982505 0.3856562
-0.07510421 0.033803686 -0.16345686 -0.39714277 0.1979603 0.16656761 0.15368004 -0.107295595
-0.106382 -0.08890546 -0.47457352 0.009605323 0.53368783 -0.2213044 0.18457513 -0.42998198
-0.090182275 -0.079427846 0.54741067 0.2657437 -0.37882993 0.25772196 0.18983223 0.04666775
-0.2959068 -0.4639481 0.31452966 -0.17943953 0.08022155 0.119348705 0.1813209 0.2350972
-0.3331706 -0.26858777 0.4296678 -0.17915519 0.080471516 -0.03818922 -0.21200283 -0.104365714
-0.32400632 0.14326304 0.37762395 -0.02378729 0.21175952 -0.16861787 -0.5272483 -0.25159255
0.3747545 -0.3918806 -0.31006995 -0.51696324 0.25397736 0.07965296 -0.033049516 -0.4178207
0.083012104 0.08646511 0.053426143 -0.5867537 0.28876632 0.19799514 0.082729585 0.3357999
0.01089378 -0.092336915 0.044643268 -0.041254465 -0.04260299 -0.10976665 0.15893386 0.14810844
-0.29766515 -0.12504855 -0.004199208 -0.0815963 0.014597577 0.13152376 0.30371204 -0.026470436
0.37271625 -0.04686585 0.19871265 -0.09577395 -0.0043400717 0.36017415 0.011505172 -0.20906298
0.09326465 0.3472936 -0.0689966 0.16745295 0.033068903 -0.28350574 -0.18565333 -0.032683183
0.17677324 -0.09974306 -0.012023036 -0.32640392 -0.29628035 0.14597929 -0.37468675 0.28208575
-0.024473108 0.17543292 -0.091016546 0.12333849 0.088539384 -0.01917302 0.5041612 0.045928493
0.12274636 -0.34056687 -0.039047662 0.056547124 -0.044184405 -0.43956348 -0.062306814 0.16619286
0.105549715 -0.12579352 -0.07573674 0.059345268 0.5599884 0.4678 0.16545966 -0.27318278
-0.417211 -0.14295849 -0.39463946 0.11292748 -0.020898076 0.29257217 0.047118064 0.005412634
0.11116379 -0.12940347 -0.22859582 0.03318261 -0.3061112 0.04322475 -0.15067543 0.17414083
-0.12684321 -0.22547166 -0.11414932 0.17295079 -0.48231646 0.09040184 -0.05089809 -0.28760818
0.05085552 0.31912407 -0.01827521 -0.12889357 -0.07805205 0.25930363 0.020337675 0.15893991
-0.12423066 -0.21667336 -0.32964423 0.3643027 -0.20108898 0.23265052 -0.26282522 -0.30568057
-0.009102225 -0.21510512 -0.0103948815 -0.22780307 0.023904573 -0.1954053 0.20613343 0.26769027
-0.19066629 -0.07508544 -0.08211968 -0.07861589 -0.10717764 -0.31270823 0.07372107 -0.20649855
-0.29408756 0.2671403 0.18760502 -0.013869627 -0.15337 -0.4443894 -0.23499143 0.38560665
0.047211777 -0.21973482 0.1785717 0.11847235 -0.06610143 -0.086786136 -0.016368115 0.07603654
-0.078304246 -0.23895891 0.17448452 0.09456546 0.27338237 -0.28668156 0.008414998 0.0636027
00000000: 3dd8 82be 5de5 a23e 27b4 08bd ceb9 12bc
00000010: ff9c e63d eef3 773e b1f5 4e3d 169f ffbc
00000020: f123 b03e dc58 85ba 55e3 0f3e dbe1 243e
00000030: bda1 5d3e 47bc c53e a410 d3bd 2f37 cabe
00000040: ffef 50be 08b3 203e bce6 d2bd 5d5b c73d
00000050: d52f 6b3d 77ec 76be a0ba bc3c 4c97 ac3d
00000060: ea87 653e 281b 9ebe 6326 0cbf b42c 71be
00000070: 5be8 62bc b7f4 31bc db3f 04be f446 98be
00000080: c359 153e 5ca6 7cbd 3a84 233e 04a3 243d
00000090: f54b 8b3e a524 7c3e 7189 b33d a3df b33e
000000a0: 6f0d 543d 1980 5ebe 9846 8ebe 6d78 c33e
000000b0: b8ec 93bd 3d1f 5cbe 4c2e 0f3e bb74 c53e
000000c0: 3cd0 99bd bc75 0a3d 3c61 27be 4c56 cbbe
000000d0: 1bb6 4a3e b390 2a3e 4d5e 1d3e cbbd dbbd
000000e0: cede d9bd 1114 b6bd 4dfb f2be a55f 1d3c
000000f0: c49f 083f 9f9d 62be 4301 3d3e 9926 dcbe
00000100: 7cb1 b8bd 11ab a2bd 1b23 0c3f 8f0f 883e
00000110: fff5 c1be 22f4 833e 6163 423e af26 3f3d
00000120: 1981 97be 9b8a edbe 080a a13e ffbe 37be
00000130: 324b a43d 186d f43d 30ac 393e 52bd 703e
00000140: 5695 aabe 5684 89be 6bfd db3e 7574 37be
00000150: 40ce a43d 4d6c 1cbd 4517 59be b1bd d5bd
00000160: 28e4 a5be 8cb3 123e ed57 c13e 90dd c2bc
00000170: 7dd7 583e 2aaa 2cbe bff9 06bf bdd0 80be
00000180: d2df bf3e 93a4 c8be 7dc1 9ebe b457 04bf
00000190: 5209 823e 1721 a33d ee5e 07bd 98ec d5be
000001a0: 4002 aa3d 9f14 b13d 5fd5 5a3d 7e35 16bf
000001b0: 2ed9 933e 3dbf 4a3e 216e a93d f7ed ab3e
000001c0: d37b 323c 231b bdbd dcdb 363d 71fa 28bd
000001d0: 7980 2ebd 56cd e0bd 8fbf 223e bda9 173e
000001e0: 9167 98be ba0c 00be 8399 89bb f61b a7bd
000001f0: ad2a 6f3c 2aae 063e 2580 9b3e 87d8 d8bc
00000200: aad4 be3e 68f6 3fbd 547b 4b3e 2225 c4bd
00000210: 2937 8ebb bf68 b83e 3080 3c3c 9b14 56be
00000220: 8901 bf3d 77d0 b13e 174e 8dbd c978 2b3e
00000230: 4273 073d aa27 91be e81b 3ebe cdde 05bd
00000240: 0b04 353e 1746 ccbd 45fc 44bc 6a1e a7be
00000250: 0fb2 97be 987b 153e f1d6 bfbe 8b6d 903e
00000260: d47b c8bc b0a4 333e e266 babd e498 fc3d
00000270: 2354 b53d bd10 9dbc b510 013f 841f 3c3d
00000280: 7262 fb3d c85e aebe 71f0 1fbd f59d 673d
00000290: b5fa 34bd 770e e1be 6e35 7fbd 762e 2a3e
000002a0: 732a d83d 04d0 00be dd1b 9bbd 0614 733d
000002b0: 665b 0f3f 7b83 ef3e 426e 293e 9dde 8bbe
000002c0: ae9c d5be b663 12be 2f0e cabe 8646 e73d
000002d0: 7132 abbc 05cc 953e dffe 403d 775c b13b
000002e0: d7a9 e33d 5882 04be 0615 6abe 7dea 073d
000002f0: 9bba 9cbe 6f0c 313d a94a 1abe f951 323e
00000300: 30e3 01be 0be2 66be 1ec7 e9bd 031a 313e
00000310: 2ff2 f6be 9a24 b93d 847a 50bd 6141 93be
00000320: e14d 503d 3b64 a33e e5b5 95bc adfc 03be
00000330: c1d9 9fbd 72c3 843e 329b a63c 25c1 223e
00000340: a56c febd 9fdf 5dbe 21c7 a8be e285 ba3e
00000350: 45ea 4dbe f03b 6e3e 0791 86be 2a82 9cbe
00000360: 8021 15bc 8444 5cbe 4b4f 2abc 3545 69be
00000370: 86d3 c33c 5418 48be a414 533e b30e 893e
00000380: 063e 43be 65c6 99bd 5d2e a8bd 5e01 a1bd
00000390: f37f dbbd 4b1b a0be 13fb 963d 5b74 53be
000003a0: a592 96be 9dc6 883e 881b 403e 6f3d 63bc
000003b0: 060d 1dbe 0287 e3be 98a1 70be 3c6e c53e
000003c0: 2361 413d 2a02 61be 80db 363e a2a1 f23d
000003d0: 3060 87bd eebc b1bd 6d16 86bc 0cb9 9b3d
000003e0: fa5d a0bd a5b1 74be 12ac 323e 89ab c13d
000003f0: c6f8 8b3e edc7 92be 0fdf 093c 2242 823d

Nnet.Hidden_layer_5.bias f4 [30]
0.070622176 0.16102663 -0.22565728 0.14349747 -0.10994063 0.17913367 -0.13439216 -0.019349057
0.13955097 -0.013066933 -0.059147492 -0.16450746 -0.3255921 -0.08710804 -0.22684193 0.3458994
0.043200936 0.14385983 -0.21657375 -0.18119246 0.16951747 0.0133815305 0.17494686 0.25480512
0.1890944 -0.11863873 0.05997633 -0.04994564 -0.031377707 0.05289291
00000000: 5ca2 903d 2ae4 243e b412 67be 00f1 123e
00000010: 8e28 e1bd d16e 373e 199e 09be ea81 9ebc
00000020: 73e6 0e3e b016 56bc a444 72bd a574 28be
00000030: 02b4 a6be b365 b2bd 4049 68be ba19 b13e
00000040: 77f3 303d fe4f 133e 82c5 5dbe 848a 39be
00000050: fd95 2d3e 353e 5b3c 4525 333e d175 823e
00000060: f6a1 413e ddf8 f2bd bda9 753d cd93 4cbd
00000070: e985 00bd 3ca6 583d

Nnet.Output.weight f4 [2, 30]
-0.29896745 -0.34825996 -0.0831683 0.4163377 -0.37125456 -0.4386597 0.27952707 -0.1341604
0.29833165 0.103284664 0.37786552 0.35661498 -0.3613784 0.14146821 0.34864756 0.47554034
-0.7034135 -0.051316157 0.13743047 -0.48202708 -0.38508442 0.4128093 0.430394 0.16923621
0.27748054 -0.4921966 -0.28416237 -0.44785434 -0.36956587 0.3741646 0.20331806 -0.44352156
-0.45728928 0.21163078 -0.25613925 0.2546358 0.13595727 0.34911618 -0.17060605 0.40024137
0.04548518 0.50124085 0.21241589 -0.40265507 0.050717063 -0.37715402 -0.34601414 0.39693302
-0.19615659 0.14092106 -0.41305652 0.08029149 0.12561077 -0.3551771 -0.059674434 0.064737834
0.10235466 -0.21679202 0.3361184 0.11175393
00000000: 4312 99be 214f b2be 2454 aabd 372a d53e
00000010: 1415 bebe 0198 e0be 2c1e 8f3e 5861 09be
00000020: edbe 983e e986 d33d 9777 c13e 3d96 b63e
00000030: 9706 b9be 0bdd 103e ef81 b23e 067a f33e
00000040: e812 34bf e430 52bd 93ba 0c3e 41cc f6be
00000050: c929 c5be be5b d33e 9a5c dc3e 424c 2d3e
00000060: ee11 8e3e 3101 fcbe bb7d 91be 2a4d e5be
00000070: bd37 bdbe 8192 bf3e 9c32 503e 4215 e3be
00000080: d221 eabe bdb5 583e af24 83be a05f 823e
00000090: 6238 0b3e 5bbf b23e 5ab3 2ebe 70ec cc3e
000000a0: ab4e 3a3d 5251 003f 8d83 593e ce28 cebe
000000b0: b2bc 4f3d 551a c1be c428 b1be ce3a cb3e
000000c0: 46dd 48be 9c4d 103e 257c d3be dd6f a43d
000000d0: 1ca0 003e c6d9 b5be 2e6d 74bd 4595 843d
000000e0: 529f d13d bafe 5dbe b617 ac3e 3fdf e43d

Nnet.Output.bias f4 [2]
0.13036181 0.16045646
00000000: 917d 053e b34e 243e
